SwarmNet - PyTorch/models/model_10_step_generalized_1.pkl (torch, 79611 bytes, 14 tensors)

weight f4 [32, 6, 3]
0	0xbe45e7f7	-0.19326769
1	0xbbbe3ee2	-0.005805836
2	0x3e2639e6	0.16233024
3	0xbdbf46c4	-0.09339669
4	0x3d00884f	0.031379994
5	0x3e2ea037	0.17053305
6	0x3e572d6d	0.21013422
7	0x3dd2ccc0	0.10292959
8	0xbddeba0e	-0.10875331
9	0xbc01e5de	-0.00792834
10	0x3e5d8a70	0.21634841
11	0x3d61abb3	0.055095386
12	0x3c5902ba	0.013245279
13	0x3c03e05d	0.008049098
14	0xbe057af1	-0.1303518
15	0x3e490469	0.19630589
16	0xbe1ef2fc	-0.15522379
17	0x3e4cabc3	0.19987397
18	0xbddb32d8	-0.10703057
19	0x3d326fa4	0.0435635
20	0x3e1aeb09	0.15128721
21	0x3d754704	0.05988218
22	0x3c6fad90	0.014628783
23	0xbe4d5e93	-0.20055608
24	0x3da6a7ca	0.08137472
25	0x3e3bd74f	0.18343852
26	0xbe076534	-0.132222
27	0x3e28b27d	0.16474338
28	0x3e4df779	0.20113935
29	0x3e41c369	0.189222
30	0x3d84c102	0.06482126
31	0x3de46462	0.11151959
32	0xbe3e992d	-0.1861312
33	0xbc85de98	-0.016341493
34	0xbe37fa36	-0.17966542
35	0xbe3722e2	-0.178844
36	0xbe11cd71	-0.14238526
37	0xbdd05c7e	-0.101738915
38	0x3e2b32b6	0.16718563
39	0x3e268fbd	0.1626577
40	0x3db80877	0.089859895
41	0xbdbbcd96	-0.09170072
42	0xbe1ad151	-0.1511891
43	0x3cb53622	0.02212054
44	0x3d54c958	0.05194983
45	0xbdcd9f6e	-0.100401744
46	0xbe85e20b	-0.2614902
47	0xbec7f49c	-0.3905381
48	0x3dd2d57d	0.10294626
49	0xbe665dcd	-0.2249672
50	0xbd88ef04	-0.066862136
51	0x3e914423	0.28372297
52	0xbdad0157	-0.08447521
53	0x3e990434	0.2988602
54	0x3e1d3eb9	0.15355958
55	0x3c81ead2	0.015859041
56	0x3ccdf06c	0.025139056
57	0xbe135ce4	-0.14390904
58	0x3e08185f	0.13290547
59	0x3cc9e090	0.024643213
60	0xbbe6912f	-0.00703635
61	0xbe38b55b	-0.18037932
62	0x3ddeb1a8	0.10873729
63	0xbe3008d4	-0.17190868
64	0xbe9aee13	-0.3025976
65	0xbec79416	-0.38980168
66	0xbe14d34a	-0.14533725
67	0x3dffd788	0.12492281
68	0xbe08ece6	-0.1337162
69	0x3e4ee05e	0.20202777
70	0x3e77c903	0.24197774
71	0x3c95f8c6	0.018307101
72	0x3e7bba65	0.24582823
73	0xbe23b403	-0.15986638
74	0xbe3d2d4c	-0.1847431
75	0x3e190cfa	0.14946356
76	0x3c889698	0.016673371
77	0x3d7557c7	0.059898164
78	0xbd077522	-0.03307069
79	0xbdbc59d8	-0.09196824
80	0x3e36f836	0.17868122
81	0x3e3a640f	0.18202232
82	0x3e317de7	0.17333184
83	0x3e503325	0.2033201
84	0x3e7aed30	0.24504542
85	0x3eabe8d7	0.3357608
86	0x3e907edb	0.28221783
87	0xbe38dc59	-0.18052806
88	0xbe14dfd7	-0.14538513
89	0xbe106c05	-0.14103706
90	0xbe0444d7	-0.12916885
91	0x3e73d9b3	0.23813514
92	0xbe5e3934	-0.21701509
93	0x3e2e7dc5	0.17040165
94	0x3dfa8ae2	0.12233521
95	0xbc74a144	-0.014931027
96	0x3d0d453d	0.03448986
97	0x3d85e6d7	0.0653817
98	0xbdf774cb	-0.12082823
99	0x3e7969ff	0.2435684
100	0xbc9c4f01	-0.01908064
101	0x3ea293aa	0.31753284
102	0xbc9a4b43	-0.018834716
103	0xbea46e00	-0.32115173
104	0xbeca4623	-0.39506635
105	0xbda65bbe	-0.08122967
106	0x3e09c715	0.1345485
107	0xbde282e2	-0.1106012
108	0x3e4dff56	0.20116934
109	0x3e23349a	0.15938035
110	0x39cf11d3	0.00039495397
111	0x3d6086f5	0.054816205
112	0xbd529784	-0.051414028
113	0xbc5aaa13	-0.013346213
114	0x3d05de17	0.032682505
115	0xbe3a8f02	-0.18218616
116	0xbc803348	-0.015649453
117	0xbd3e717f	-0.046494957
118	0x3c7edf87	0.015556223
119	0xbd6820aa	-0.056671776
120	0xbe1fa0dd	-0.15588708
121	0xbe5a6bb2	-0.21330145
122	0x3e0597fb	0.13046257
123	0xbd9f12b0	-0.07767236
124	0xbe9ef2ce	-0.3104462
125	0xbe6438f4	-0.22287351
126	0x3e049759	0.1294836
127	0x3ddb68ea	0.1071337
128	0xbc5455a9	-0.012959876
129	0xbdabd8ea	-0.083909824
130	0xbe214411	-0.15748622
131	0x3d9caa9d	0.076497294
132	0xbe171fdc	-0.14758247
133	0xbe215d35	-0.15758212
134	0x3df01608	0.11722952
135	0x3e893cb7	0.26804134
136	0x3e1f7365	0.15571363
137	0x3e8ed81a	0.27899247
138	0xbe0d0fff	-0.13775633
139	0xbe90ebf0	-0.28305006
140	0xbe472305	-0.19446953
141	0x3e098d4f	0.13432811
142	0xbd08c031	-0.033386413
143	0xbe08855a	-0.1333212
144	0xbe00bcba	-0.12571993
145	0xbd90a09b	-0.07061883
146	0xbe1e26df	-0.15444516
147	0xbe4b1d18	-0.19835317
148	0x3db84908	0.089983046
149	0xbd5e34c3	-0.054249536
150	0xbd8faa40	-0.070148945
151	0xbd809600	-0.0627861
152	0xbc80afad	-0.015708769
153	0xbe6fe4ee	-0.23427173
154	0xbe70a5ca	-0.23500744
155	0x3d6f93c0	0.058490515
156	0x3e5ff759	0.218717
157	0x3ddb2af2	0.107015505
158	0x3e7c363f	0.24630068
159	0xbe176d47	-0.1478778
160	0xbd3512b5	-0.044207294
161	0x3def8ff2	0.11697377
162	0x3e03a160	0.12854528
163	0xbe061e59	-0.13097514
164	0x3e4fbfc7	0.20288001
165	0x3d9ed652	0.07755722
166	0x3db0559f	0.08610081
167	0xbbfa327b	-0.0076354123
168	0xbda9a9f1	-0.08284367
169	0xbc2dca1e	-0.0106072705
170	0xbe0f7bef	-0.1401212
171	0x3dd541a7	0.10412913
172	0xbeb80673	-0.3594242
173	0xbe4ddf4c	-0.20104712
174	0x3e33cc66	0.1755844
175	0x3cd57f7d	0.026061768
176	0xbbd99d44	-0.006641062
177	0x3e810ceb	0.25205168
178	0x3aa9d522	0.0012957195
179	0xbac92195	-0.0015345091
180	0x3e5ccc6c	0.21562356
181	0x3e5f8d6e	0.21831295
182	0xbd948095	-0.072510876
183	0x3a31b04f	0.0006778286
184	0x3e1bc165	0.15210493
185	0xbd08a234	-0.033357814
186	0x3c64fff5	0.013977041
187	0xbcd74a1b	-0.026280453
188	0x3e577b25	0.2104307
189	0xbe18c8a5	-0.1492029
190	0x3e59b9f7	0.21262346
191	0x3e3bf67b	0.18355744
192	0x3d4523cb	0.048129838
193	0xbe05f704	-0.1308251
194	0xbe967583	-0.2938653
195	0x3d32ec68	0.043682486
196	0x3e78ca41	0.24295904
197	0x3e76e5a8	0.24111044
198	0x3decb817	0.1155855
199	0xbd0a7947	-0.033807065
200	0xbe2ebd83	-0.1706448
201	0xbd4a2a69	-0.04935685
202	0xbe60c21b	-0.21949045
203	0xbe5c60f6	-0.21521363
204	0xbe7ed999	-0.24887694
205	0xbdb57c93	-0.08861651
206	0x3e1b6e09	0.15178694
207	0x3db8ed49	0.090296336
208	0xbddf544b	-0.109047495
209	0x3c9dd838	0.01926814
210	0x3d98400d	0.07434092
211	0x3cbd528b	0.023110649
212	0xbe1f774c	-0.15572852
213	0x3dd803be	0.10547589
214	0xbd766072	-0.06015057
215	0xbd0f9497	-0.035053816
216	0x3e0a351e	0.13496825
217	0xbd377f25	-0.04479899
218	0x3e410ec0	0.18853283
219	0x3d4c7527	0.049916413
220	0x3d1a7c59	0.037716243
221	0x3dadab16	0.08479898
222	0xbd43922c	-0.047746822
223	0xbd869703	-0.06571772
224	0xbe2ce541	-0.16884328
225	0xbe448d2f	-0.19194482
226	0xbe724f9d	-0.23663183
227	0x3cae802a	0.021301348
228	0x3e4473a6	0.19184741
229	0x3d374a30	0.044748485
230	0x3e3b4e8b	0.1829168
231	0xbe9f6353	-0.31130466
232	0xbe5bb1ae	-0.21454498
233	0xbe8343ce	-0.25637668
234	0xbdb984d4	-0.09058538
235	0xbe4ea8f5	-0.2018164
236	0xbdbaf9b2	-0.09129657
237	0x3d8cde36	0.06878321
238	0x3e0415b4	0.12898904
239	0xbe1274bb	-0.14302342
240	0xbb8282aa	-0.0039828615
241	0xbdc1844c	-0.09449062
242	0x3e13ba91	0.14426638
243	0x3e946481	0.28982928
244	0xbcb6d36a	-0.022317607
245	0x3e351bd9	0.17686404
246	0xbd795d49	-0.06087998
247	0x3e9b3dda	0.30320626
248	0x3dea72e1	0.11447693
249	0xbdea9f9b	-0.114562236
250	0xbdb4173a	-0.087934926
251	0x3e4b1611	0.19832636
252	0x3d211d07	0.039334323
253	0xbdf0e1d5	-0.11761824
254	0x3e2e1462	0.16999963
255	0xbda5e2d5	-0.080999054

bias f4 [32]
0	0xbcac6ba7	-0.021047426
1	0xbd0e14d8	-0.034687847
2	0x3ceb1116	0.02869467
3	0x3caf7ba7	0.021421267
4	0x3e5dfeaa	0.21679178
5	0xbe33ff7e	-0.17577931
6	0xbe54b61b	-0.20772593
7	0x3d8147f2	0.063125506
8	0xbd234137	-0.039857116
9	0x3e857ff9	0.26074198
10	0x3e4c096a	0.19925466
11	0x3e770f50	0.24126935
12	0x3d3cf134	0.046128467
13	0xbddfcf41	-0.109282024
14	0x3dba2c38	0.09090465
15	0x3e6c6596	0.23085627
16	0xbcc4d3df	-0.02402681
17	0xbd2db5f3	-0.04240985
18	0xbd909500	-0.070596695
19	0xbe651414	-0.2237094
20	0x3c49a194	0.01230659
21	0xbd2d9417	-0.042377558
22	0x3e079b37	0.13242804
23	0x3e6f1e48	0.23351395
24	0x3dc61f29	0.09673912
25	0xbe06424c	-0.13111228
26	0xbbf3a040	-0.007434875
27	0xbe37614e	-0.17908213
28	0xbdacec24	-0.08443478
29	0xbe5fedc6	-0.21868047
30	0x3d8b88b4	0.068131834
31	0xbd86c511	-0.06580556

weight f4 [64, 32, 3]
0	0x3d199634	0.03749676
1	0xbdb48fd7	-0.08816498
2	0x3bb7909b	0.005601955
3	0x3bec15e0	0.007204756
4	0xbb882750	-0.004155077
5	0x3da26f70	0.07931411
6	0x3d7d7e87	0.061888244
7	0x3d8880d4	0.06665197
8	0x3dbbc385	0.09168152
9	0x3ccbf21d	0.024895722
10	0x3df43daf	0.11925828
11	0x3e0f99a6	0.14023456
12	0xbd677294	-0.056505755
13	0x3d1658d9	0.036705825
14	0x3c53251f	0.012887268
15	0x3d91d351	0.071203835
16	0xbc184a66	-0.009295082
17	0x3c3ca6fb	0.011514421
18	0xbaaa2aaf	-0.0012982691
19	0xbdcd2322	-0.10016467
20	0xbcb59c52	-0.022169266
21	0x3c9edab9	0.019391404
22	0xbccb72b9	-0.024834977
23	0x3dbfc917	0.09364527
24	0x3dedea84	0.11616996
25	0xbc37a2f8	-0.011208288
26	0xbcf84ada	-0.03030913
27	0x3d7a1467	0.061054613
28	0xbda6ef3e	-0.081511006
29	0xbda29db7	-0.07940238
30	0x3e1a265b	0.15053694
31	0x3c43008f	0.011901989
32	0x3db52a9e	0.08846019
33	0x3b9b4cca	0.0047393786
34	0xbde31b41	-0.11089183
35	0xbda03d75	-0.07824222
36	0x3d6494b0	0.055805862
37	0xbcfc8186	-0.03082348
38	0xbdd001d7	-0.10156601
39	0xbd5fcc3c	-0.054638132
40	0xbdbccb97	-0.09218519
41	0xbcac0c9c	-0.021002106
42	0x3d94f982	0.07274152
43	0x3c408528	0.011750497
44	0xbdbfcef5	-0.09365646
45	0x3e08b061	0.13348533
46	0x3de7490b	0.11293229
47	0x3c885fc2	0.016647223
48	0xbd6af810	-0.057365477
49	0xbd181825	-0.0371324
50	0xbe052579	-0.13002576
51	0xbd210795	-0.03931387
52	0x3d6faecf	0.05851632
53	0x3d234431	0.039859954
54	0xbd89a8d5	-0.06721655
55	0x3d45d509	0.04829887
56	0x3d907d65	0.07055167
57	0xbd1675e5	-0.036733527
58	0xbd2df53c	-0.0424702
59	0x3d4c2c5e	0.049847
60	0xbc25ee65	-0.0101276385
61	0xbd0ce5eb	-0.034398954
62	0x3e0d4c92	0.1379874
63	0xbd182537	-0.037144866
64	0xbc940f94	-0.018073834
65	0x3d9fde58	0.078060806
66	0xbdf9cfc6	-0.12197833
67	0xbdb35ca0	-0.08757901
68	0xbc7cc4b4	-0.015427757
69	0x3d71e523	0.059056412
70	0x3bc1226e	0.005893997
71	0x3d3c2fc4	0.04594399
72	0x3d398711	0.045294825
73	0xbd04c2f0	-0.03241247
74	0xbd994a0e	-0.07484828
75	0xbda4b86f	-0.080429904
76	0x3dad3ee4	0.08459261
77	0x3d51f664	0.051260367
78	0xbcbdfb34	-0.023191072
79	0x3d3fcbd8	0.04682526
80	0x3d2f6018	0.04281625
81	0x3dea62d5	0.11444632
82	0x3c76d99e	0.015066532
83	0x3d2dad02	0.04240132
84	0x3dad9aa2	0.084767595
85	0x3cf1f7f0	0.029537171
86	0xbcc68a06	-0.024235737
87	0xba44e731	-0.0007511257
88	0xbc141bc6	-0.009039825
89	0xbd60104a	-0.054703034
90	0x3d3de6cb	0.04636268
91	0xbcf4a2e2	-0.029862825
92	0x3dc9a127	0.098451905
93	0xbd83680d	-0.064163305
94	0xbbfe3756	-0.0077580614
95	0xbd5dabab	-0.054118793
96	0xbd34eb51	-0.044169728
97	0xbd795405	-0.060871143
98	0xbd467003	-0.048446666
99	0x3db47bf2	0.08812703
100	0xbafccd40	-0.0019287243
101	0x3d895c42	0.0670705
102	0x3db5163a	0.0884213
103	0xbd8acd91	-0.0677749
104	0x3d93fed7	0.07226341
105	0x3d9bbbf4	0.076042086
106	0xbd9d6f41	-0.076872356
107	0x3dc30418	0.09522265
108	0xbc94647a	-0.018114317
109	0x3ce4bbf2	0.02792165
110	0xbd830bf9	-0.06398768
111	0x3d2f42ad	0.042788196
112	0xbdaa55f9	-0.08317179
113	0x3da87968	0.082262814
114	0xbd14a774	-0.03629251
115	0xbcee1504	-0.029062755
116	0xbdc67c52	-0.09691681
117	0xbcbc9f9d	-0.023025328
118	0xbd77ebb7	-0.06052753
119	0x3d604e98	0.054762453
120	0x3dcde9a1	0.10054327
121	0xbd3fc2ea	-0.046816744
122	0xbc62ad54	-0.01383527
123	0xbc1f77bb	-0.009733136
124	0xbcf4130f	-0.029794244
125	0x3d11ff9e	0.035644166
126	0x3d428688	0.04749158
127	0xbd6725af	-0.056432422
128	0x3d750b8d	0.05982547
129	0xbd0fd105	-0.035111446
130	0xbd7b7903	-0.061394703
131	0x39921e14	0.000278697
132	0xbcd00fba	-0.025398124
133	0x3cc32b71	0.023824425
134	0xbd74c512	-0.059758253
135	0xbd63d4af	-0.055622753
136	0xbda9c2e4	-0.082891256
137	0xbd94ba16	-0.072620556
138	0x3c84bbfc	0.01620292
139	0xbcff2ed4	-0.03115026
140	0x3d4ad82c	0.049522564
141	0x3da96005	0.082702674
142	0x3c83b2ca	0.016076464
143	0x3d6b8690	0.057501376
144	0x3d38f7ae	0.04515808
145	0x3d511f04	0.05105497
146	0x3d9d4996	0.07680051
147	0x3b8b49c4	0.004250737
148	0x3d86e2db	0.06586238
149	0xbc1bbc78	-0.009505384
150	0xbd61941d	-0.055072892
151	0xbd7f12ba	-0.06227372
152	0xbd029e0b	-0.031889003
153	0xbca850e2	-0.02054638
154	0x3da37e1e	0.07983039
155	0xbdc395b5	-0.09550039
156	0x3d27b3f0	0.040943086
157	0xbd2a352b	-0.04155461
158	0x3d9288b6	0.07154982
159	0xbdcc6f12	-0.099821225
160	0xba4e75d3	-0.00078758335
161	0xbd8ed643	-0.06974461
162	0x3ca354f7	0.019937975
163	0x3c4f26f6	0.012643566
164	0xbd68f511	-0.05687434
165	0xbd0af9c3	-0.033929598
166	0x3d03538f	0.03206211
167	0xbdd736f7	-0.105085306
168	0xbd9b240e	-0.07575236
169	0xbd958dec	-0.0730246
170	0xbdaa1c57	-0.08306187
171	0x3da8828e	0.08228026
172	0x3d27dcec	0.040982172
173	0xbc4f6918	-0.012659334
174	0x3db008ea	0.0859545
175	0x3cebb080	0.028770685
176	0xbccf8ef4	-0.02533672
177	0x3c9cc3a2	0.019136254
178	0xbd032b7f	-0.032023903
179	0x3d02f1aa	0.03196875
180	0xbc562f23	-0.013072762
181	0xbca7ce40	-0.02048409
182	0x3da0a96a	0.07844813
183	0xbdc3dc02	-0.095634475
184	0xbd5bfa41	-0.053705458
185	0x3d735ece	0.059416585
186	0xbc91ec5c	-0.0178129
187	0x3d9366c2	0.07197334
188	0xbd8c0abd	-0.06837986
189	0xbd77c549	-0.06049088
190	0x3dc910c3	0.0981765
191	0x3d964cdf	0.07338881
192	0x3d161d6c	0.036649153
193	0xbd7c4f96	-0.061599337
194	0x3cdb2013	0.026748693
195	0x3da03b02	0.07823755
196	0x3c3f0750	0.011659458
197	0x3bf5bb60	0.0074991435
198	0xbd27426f	-0.04083484
199	0x3c90d025	0.017677376
200	0x3da7c536	0.08191912
201	0x3d6faadc	0.058512554
202	0x3c979bf1	0.018506976
203	0xbd7db527	-0.06194034
204	0xbd90ce51	-0.07070602
205	0xbd85ddd3	-0.0653645
206	0xbdd1c52f	-0.10242688
207	0x3ddb6c7b	0.107140504
208	0xbca07278	-0.019585833
209	0xbb279f30	-0.002557706
210	0xbdaa8112	-0.083253995
211	0xbd4414c1	-0.047871355
212	0xbdbfd8a6	-0.09367494
213	0xbcb008a9	-0.021488504
214	0x3dbac446	0.091194674
215	0x3cef393e	0.0292021
216	0x3d329ec2	0.043608434
217	0x3dbb8eec	0.091581196
218	0xbdb4f5a2	-0.08835913
219	0x3dd57462	0.10422589
220	0xbcafbc7e	-0.021452185
221	0xbce90b4d	-0.028447771
222	0xbd3d2b3a	-0.046183802
223	0xbd518461	-0.051151637
224	0x3ccf9500	0.025339603
225	0xbd28befb	-0.04119776
226	0x3da3e667	0.0800293
227	0x3df55983	0.11979964
228	0x3ddfe011	0.10931409
229	0xbd2c32a3	-0.04204048
230	0xbc6111a9	-0.013737121
231	0xbbd65230	-0.006540559
232	0x3d029689	0.031881843
233	0xbdb50462	-0.088387266
234	0xbe11d18c	-0.14240092
235	0xbd88ca86	-0.06679253
236	0xbc7641f2	-0.015030371
237	0x3e003d2a	0.12523332
238	0xbd4caf78	-0.049972028
239	0xbb05f7c5	-0.0020441872
240	0xbd69cbc2	-0.057079084
241	0x3d35cf4c	0.044387147
242	0x3dc61bc1	0.096732624
243	0xbd87cfc6	-0.066314265
244	0x3cd31477	0.025766594
245	0xbd9193f8	-0.07108301
246	0xbd959d23	-0.07305362
247	0x3b24a745	0.0025124114
248	0xbdcbae2f	-0.09945332
249	0x3ceb0de6	0.02869315
250	0xbced01f5	-0.028931597
251	0xbd7bd3bf	-0.061481234
252	0x3c28c666	0.010301208
253	0xbdb5f702	-0.088850036
254	0xbc33b8ce	-0.010969354
255	0x3dce543e	0.10074662

bias f4 [64]
0	0x3dfd8429	0.12378723
1	0x3dac0cc3	0.084008716
2	0x3d2a19e8	0.041528612
3	0x3b58d10f	0.0033083593
4	0xbbffc414	-0.0078053568
5	0xbca5220d	-0.020157838
6	0xbcb96996	-0.022633355
7	0xbd067c9f	-0.03283369
8	0x3dba9173	0.091097735
9	0xbd4b80d2	-0.0496834
10	0x3dcfc9be	0.10145901
11	0x3dbac2f5	0.09119216
12	0x3cb093e1	0.02155489
13	0x3c419042	0.011814179
14	0x3e186064	0.1488052
15	0x3dd6e817	0.104934864
16	0x3d10d521	0.035359506
17	0x3ac2badb	0.0014856713
18	0x3e429153	0.1900075
19	0x3dc5c42c	0.096565574
20	0xbe0cfa42	-0.13767341
21	0xbddab4c2	-0.10679008
22	0xbc741253	-0.014896947
23	0x3d97f765	0.07420234
24	0xbc141d70	-0.009040222
25	0xbd456b0c	-0.04819779
26	0x3d73d43f	0.059528586
27	0xbdb48b3a	-0.08815618
28	0x3c944a04	0.0181017
29	0xbd99d0b2	-0.075105086
30	0x3c1e9f84	0.009681586
31	0x3d7229be	0.05912184
32	0xbca30638	-0.019900426
33	0x3d91aa9e	0.07112621
34	0xbdc97b50	-0.09837973
35	0xbd0999c0	-0.033593893
36	0x3dfd96b4	0.1238226
37	0xb9af7e98	-0.0003347292
38	0xba62980e	-0.0008643874
39	0xbd91ee71	-0.07125557
40	0xbd03e9f8	-0.032205552
41	0x3daca88e	0.08430587
42	0xbdf3096c	-0.118670315
43	0x3d002b74	0.03129144
44	0x3cf79423	0.030222004
45	0xbcf8b904	-0.03036166
46	0xbd7423b0	-0.059604347
47	0x3cf8bfe2	0.030364934
48	0xbd86fd08	-0.06591231
49	0xbdbdd167	-0.09268456
50	0x3e043058	0.12909067
51	0x3d6b8065	0.057495493
52	0xbd1c6660	-0.03818357
53	0x3cb90c20	0.02258879
54	0xbd2d5486	-0.042316936
55	0xbde723fd	-0.11286161
56	0x3e2356d1	0.15951087
57	0x3db2575b	0.08708068
58	0x3d158b6b	0.036509912
59	0x3cfbfdfe	0.030760761
60	0x3dd7c90e	0.10536395
61	0xbcc60f04	-0.024177082
62	0x3db425c9	0.087962694
63	0x3d515ece	0.051115803

weight f4 [32, 64, 3]
0	0x3d7c0a92	0.061533518
1	0x3d1db6cb	0.038504403
2	0x3d45598c	0.0481811
3	0x3c45ab1a	0.01206472
4	0x3cc31192	0.02381209
5	0x3a9ecae3	0.0012114908
6	0x3d102ba6	0.035197876
7	0x3db22a3f	0.08699464
8	0x3dca109a	0.09866448
9	0xbd90c0b2	-0.07068004
10	0xbe27a62f	-0.16371988
11	0xbe3e48d9	-0.18582477
12	0x3b442dab	0.0029934447
13	0x3da7b269	0.08188326
14	0x3be629e5	0.007024037
15	0x3c3fa4ec	0.011697035
16	0x3cefa59b	0.029253772
17	0xbc394c12	-0.0113096405
18	0xbcf6d463	-0.03013057
19	0xbd548dee	-0.051893167
20	0xbc7245ae	-0.014787121
21	0x3cc28419	0.02374463
22	0xba4d9017	-0.00078416005
23	0x3d6e625e	0.05819928
24	0xbcdbdc84	-0.026838548
25	0xbb4e72ff	-0.0031501648
26	0x3cab2f44	0.020896561
27	0xbc222381	-0.00989616
28	0x3c4e66a0	0.01259771
29	0xbdd3bcce	-0.10338746
30	0xbd67b664	-0.056570426
31	0x3daa603d	0.08319137
32	0xbd4fc3dc	-0.050723895
33	0x3c8d6ed0	0.017264754
34	0x3d5a25ec	0.05325882
35	0x3d8a9e0e	0.06768428
36	0x3c269933	0.0101683615
37	0xbd1b1168	-0.037858397
38	0xbd846a6d	-0.064656116
39	0x3c92e198	0.017929837
40	0xbd62a1bc	-0.055330023
41	0x3d7a00d0	0.06103593
42	0x3c4f4050	0.012649611
43	0xbca93719	-0.020656155
44	0xbc8fe8d1	-0.01756707
45	0xbcb14275	-0.021638134
46	0x3c8c5630	0.017130941
47	0xbd3e5753	-0.046469998
48	0x3d585d49	0.05282334
49	0x3d938ea5	0.07204942
50	0x3d13321c	0.03593646
51	0x3bcecc26	0.0063109575
52	0x3c731138	0.014835648
53	0xbd302943	-0.0430081
54	0x3c9ef958	0.019406006
55	0xbd52498c	-0.05133967
56	0x3bd7b26c	0.006582549
57	0xbd4f04d0	-0.0505417
58	0x3cb8a951	0.022541674
59	0x3d3b0d58	0.045667022
60	0x3b90d45c	0.0044198465
61	0xbd307335	-0.04307862
62	0x3d1abc8c	0.03777747
63	0x3cc1c200	0.023652077
64	0xbd69abb7	-0.057048526
65	0xbd64c29d	-0.05584966
66	0xbc198ba7	-0.009371675
67	0xbd515073	-0.051102113
68	0xbdbde092	-0.09271349
69	0x3d0e68b7	0.034767833
70	0xbd888daa	-0.06667645
71	0x3ce6bb17	0.028165383
72	0x3d4e3fe3	0.050353896
73	0x3d5fbdd8	0.05462441
74	0xbcc3ab47	-0.023885382
75	0x3b72124b	0.0036937173
76	0xbc834dc2	-0.016028289
77	0x3d812c06	0.06307225
78	0x3cce5f74	0.025192
79	0xbd8f2418	-0.06989306
80	0xbccd29aa	-0.025044281
81	0x3d1e4e05	0.038648624
82	0x3c1f873c	0.009736832
83	0x3c7a7979	0.01528775
84	0xbb3ab060	-0.0028486475
85	0xbd77e2e3	-0.06051911
86	0x3d7b34bc	0.06132959
87	0x3d1bf22b	0.038072746
88	0xbd004602	-0.031316765
89	0xbd8e5549	-0.069498606
90	0xbba6f936	-0.005095626
91	0x3c231495	0.009953638
92	0x3cbb743b	0.022882571
93	0x3ce640bf	0.028107045
94	0xbc2de502	-0.010613682
95	0x3ce7c70d	0.028293157
96	0xbd41a2f5	-0.04727455
97	0x3d83a2d7	0.064275436
98	0x3cbf4a43	0.02335084
99	0x3d5ccbe9	0.0539054
100	0x3d30cd15	0.04316433
101	0xbb2e7233	-0.002661836
102	0x3c511bd5	0.012762983
103	0x3b643301	0.003482044
104	0xbced8201	-0.028992655
105	0x397cae13	0.0002409744
106	0x3d27109d	0.040787328
107	0x3d3a0224	0.045412198
108	0x3cc105fd	0.023562426
109	0x3d1d76dd	0.038443435
110	0xbce50c57	-0.027959986
111	0x3cf60769	0.03003283
112	0x3c74c0ab	0.014938514
113	0xbdbf808c	-0.0935069
114	0x3bae2d03	0.0053154244
115	0x3d830df9	0.063991494
116	0x3a969786	0.0011489249
117	0x3d1a20fb	0.03762911
118	0x3d79681f	0.060890313
119	0xbc1fe508	-0.009759195
120	0xbd315a68	-0.04329911
121	0xbce1de13	-0.027571714
122	0x3d4b3adc	0.04961668
123	0xbc8d10ac	-0.017219864
124	0x3de11b58	0.109915435
125	0xbaa6fd87	-0.0012740352
126	0x3d0f8c72	0.03504605
127	0xbca91d6e	-0.020643916
128	0xbce11888	-0.027477518
129	0xbc71ce34	-0.014758635
130	0x3d45144c	0.04811506
131	0x3b0f2ac0	0.002184555
132	0x3b9031de	0.004400476
133	0xbd45a747	-0.04825523
134	0xbda53967	-0.08067589
135	0xbd302d84	-0.043012157
136	0xbd036c12	-0.032085486
137	0xbdfc6039	-0.123230405
138	0x3d84f6db	0.064923964
139	0x3d8fb75d	0.07017396
140	0x3d9becb5	0.07613508
141	0xbdad887c	-0.08473298
142	0xbdbe3068	-0.092865765
143	0xbc41dd39	-0.011832529
144	0x3d730df0	0.059339464
145	0x3cca59b4	0.024700977
146	0xbd529622	-0.05141271
147	0xbd4c478d	-0.049872924
148	0xbc08ec13	-0.008357066
149	0xbe018f11	-0.12652232
150	0x3d482230	0.04886073
151	0x3d7ae965	0.06125774
152	0x396a38de	0.00022337164
153	0x3cdf2f3a	0.027244199
154	0xbd62a651	-0.055334393
155	0xbb143429	-0.0022614098
156	0xbd8a7236	-0.06760065
157	0x3d0074f9	0.031361554
158	0xbccc7cad	-0.024961794
159	0x3d87e8b1	0.06636179
160	0x3c4b80c6	0.012420839
161	0x3db19a63	0.08672025
162	0x3d8f2623	0.06989696
163	0x3d6e7aab	0.058222454
164	0x3d32d5a7	0.043660786
165	0x3d9f0a9b	0.07765695
166	0x3d36fd89	0.044675384
167	0xbd317efd	-0.043333996
168	0xbd7fc81a	-0.06244669
169	0xbd0fa640	-0.035070658
170	0xbcc2f8ef	-0.023800341
171	0x3ca69d60	0.020338714
172	0xbc3e7f76	-0.011627069
173	0xbd14e393	-0.036349844
174	0xbd489b44	-0.048976198
175	0x3d1c3b6a	0.0381426
176	0xbc371267	-0.011173821
177	0x3dbbf37f	0.091773026
178	0x3d0a46c2	0.033758886
179	0x3db20e2e	0.08694111
180	0x3d183eab	0.03716914
181	0x3d043dcc	0.032285497
182	0x3dbb38df	0.09141707
183	0x3c26aa1f	0.010172396
184	0xbd3cbd68	-0.04607907
185	0x3a987b99	0.0011633515
186	0x3c1be4f0	0.009515032
187	0x3c99612c	0.018723093
188	0x3d69b0d7	0.057053413
189	0xbc107788	-0.008817561
190	0xbd47abfc	-0.048748
191	0x3d8aeba7	0.06783228
192	0xbd155303	-0.03645612
193	0xbd0237b4	-0.031791404
194	0x3d0c5bc0	0.034267187
195	0x3d42588e	0.047447734
196	0xbb056b27	-0.0020358057
197	0x3c7e0fd2	0.015506702
198	0xbd7e6dec	-0.06211655
199	0x3d766696	0.060156427
200	0x3c5d5f87	0.013511545
201	0xbda5ca7d	-0.08095262
202	0xbc86c3b8	-0.016450748
203	0x3d83b038	0.064300954
204	0xbc150cc9	-0.0090972865
205	0x3d63066c	0.055426046
206	0x3d59d197	0.053178396
207	0x3c953951	0.018215807
208	0x3d0be6ab	0.03415553
209	0x3d0cca37	0.034372535
210	0xbd0c7019	-0.034286592
211	0x3da11139	0.07864613
212	0xbd054149	-0.032532964
213	0xbd0eedea	-0.03489486
214	0xbd774fa4	-0.060378686
215	0x3c8ec956	0.017429989
216	0xbd82be26	-0.06383924
217	0xbd1654c3	-0.03670193
218	0xbd1c1224	-0.038103238
219	0xbd918fb5	-0.07107488
220	0x3d7af101	0.061264995
221	0x3d42f586	0.04759743
222	0xbd5961a3	-0.05307163
223	0x3c42f862	0.011900039
224	0xbd0d2274	-0.034456685
225	0x3d7090d8	0.058731884
226	0x3d82e250	0.06390822
227	0xbd5d9284	-0.054094806
228	0x3dec2ffb	0.11532589
229	0x3d1c35a8	0.038137108
230	0x3b895ea9	0.0041921926
231	0xbd564037	-0.052307334
232	0x3d5a1879	0.053245995
233	0x3bc07534	0.0058733467
234	0x3d76be03	0.060239803
235	0x3d23f13b	0.040024977
236	0xbd8c324e	-0.06845532
237	0x3c7aae03	0.015300277
238	0xbd24237a	-0.040072896
239	0xbd7fd7e2	-0.06246174
240	0x3ae2e8c8	0.0017311806
241	0xbca9492b	-0.020664772
242	0x3ced4ec4	0.028968222
243	0x3d32e58d	0.043675948
244	0xbd30e946	-0.043191217
245	0xbd58f967	-0.052972224
246	0x397223ac	0.00023092207
247	0x3cc0ca78	0.023534045
248	0x3bab232d	0.005222699
249	0x3d25fde1	0.04052532
250	0x3d7920e9	0.0608224
251	0xbd0fb556	-0.035085045
252	0x3d5d1167	0.053971674
253	0xbc029ddf	-0.00797221
254	0xbd3e76f9	-0.04650018
255	0x3c16288e	0.009164942

bias f4 [32]
0	0xbd266b6a	-0.04062978
1	0xbd6ba497	-0.057530012
2	0x3d742a23	0.059610497
3	0x3c779beb	0.015112857
4	0xbc88d395	-0.016702453
5	0x3de6fcda	0.11278696
6	0xbd43e121	-0.04782212
7	0xbd63f0e1	-0.055649642
8	0x3d81cacb	0.06337508
9	0xbd5e8475	-0.05432554
10	0xbd7a4ad4	-0.061106518
11	0x3d1cec92	0.03831155
12	0x3d3ea327	0.046542313
13	0x3b1dc94a	0.0024076276
14	0xbc97834a	-0.01849522
15	0x3cbb208d	0.02284267
16	0x3dd43a5d	0.103626944
17	0xbd85d3ce	-0.06534539
18	0x3d144133	0.03619499
19	0xbbb62a8c	-0.005559271
20	0x3da5f488	0.08103281
21	0xbc17ad44	-0.009257618
22	0x3cba8e4a	0.022772927
23	0xbd90e6ee	-0.07075296
24	0xbda0c2d1	-0.07849658
25	0x3c812d77	0.01576875
26	0x3dcbd7fe	0.099533066
27	0x3b13dc83	0.0022561855
28	0x3da38786	0.079848334
29	0xbd9aa701	-0.07551385
30	0x3c9fec20	0.019521773
31	0xbd1ab48f	-0.03776985

weight f4 [32, 64]
0	0x3db6d64f	0.08927595
1	0xbdc348ac	-0.095353454
2	0x3ddd10c7	0.10794216
3	0x3d9ec7a6	0.07752924
4	0xbe128ca5	-0.14311464
5	0x3ddaa4f0	0.106759906
6	0x3e7361be	0.23767754
7	0xbd2595bb	-0.040425997
8	0xbd003b6c	-0.03130667
9	0xbddb6bd6	-0.107139274
10	0xbd9c3a89	-0.07628352
11	0xbcdcee48	-0.02696909
12	0x3dde5737	0.10856479
13	0x3ce51917	0.027966065
14	0x3da6b708	0.08140379
15	0xbd7ff7ec	-0.062492296
16	0xbd58bd42	-0.052914865
17	0xbbf3b325	-0.007437127
18	0x3bf8ecaf	0.0075965743
19	0xbde21473	-0.11039057
20	0x3dbed50c	0.09317979
21	0x3dd41230	0.103550315
22	0xbcde581f	-0.027141629
23	0xbe12c115	-0.14331467
24	0x3dc19079	0.09451384
25	0x3c0c0165	0.008545254
26	0xbbedecbf	-0.0072608883
27	0x3dc2896b	0.09498867
28	0xbd0d9444	-0.034565225
29	0x3db4e61e	0.08832954
30	0x3c5f3211	0.013622777
31	0xbd1b142a	-0.037861027
32	0xbdd18b70	-0.10231674
33	0x3dcbf499	0.09958763
34	0xbdee37be	-0.11631726
35	0x3dc02622	0.09382273
36	0xbe03d8cc	-0.1287567
37	0x3dbbefd8	0.09176606
38	0x3e740978	0.23831737
39	0xbaaba81e	-0.0013096367
40	0x3d63b899	0.055595968
41	0xbc4568fe	-0.012048958
42	0xbd16e24b	-0.036836904
43	0x3db0d1f7	0.086337976
44	0x3e0a5458	0.13508737
45	0xbdbcf78e	-0.09226905
46	0xbd5237ea	-0.051322855
47	0xbc8ef4eb	-0.01745077
48	0x3a3472f2	0.0006883583
49	0x3d9edc4c	0.07756862
50	0xbc95a06b	-0.01826497
51	0xbdee00c7	-0.11621242
52	0x3de0cf50	0.10977042
53	0xbd70860a	-0.05872158
54	0xbdd1a3b7	-0.10236304
55	0xbd319eb0	-0.043364227
56	0xbdb919e6	-0.09038143
57	0x3dea5b37	0.11443179
58	0x3d36a752	0.044593163
59	0x3d2f5eb7	0.042814936
60	0x3d92044b	0.07129725
61	0xbd4bdae6	-0.049769305
62	0x3d6786eb	0.056525152
63	0x3cd1fb92	0.025632653
64	0x3d8bed93	0.06832423
65	0x3ca3f381	0.020013573
66	0xbcea3d19	-0.028593587
67	0x3d91e01d	0.07122824
68	0xbd843ddb	-0.064571105
69	0x3debecfe	0.11519812
70	0xbc11eafb	-0.008906121
71	0xbde62b18	-0.11238688
72	0xbc0a5d3d	-0.008445081
73	0x3d8d270b	0.068922125
74	0x3c9abb39	0.018888103
75	0xbddbfa18	-0.10741061
76	0x3d8a336b	0.067480884
77	0x3ddd8602	0.108165756
78	0x3e011c39	0.12608422
79	0xbc6cbbd8	-0.014449082
80	0xbd876e84	-0.06612876
81	0x3d06baba	0.03289292
82	0x3d668832	0.05628223
83	0xbddb98f0	-0.1072253
84	0x3d016d31	0.031598274
85	0x3d88d2e5	0.0668085
86	0xbb309965	-0.00269469
87	0x3dcd6296	0.100285694
88	0x3c68f171	0.01421772
89	0xbcbe9e09	-0.023268716
90	0x3da15c56	0.0787894
91	0xbd690e40	-0.056898355
92	0x3cba540c	0.022745155
93	0x3de8ec7c	0.11373231
94	0x3c7294a2	0.014805945
95	0xbcd6faf3	-0.026242709
96	0x3da0d79d	0.07853625
97	0x3d163440	0.036670923
98	0xbe06dc9b	-0.13170092
99	0x39fcab7f	0.0004819296
100	0xbd1392f6	-0.036028825
101	0x3b9ce60c	0.004788166
102	0xbdbf39a9	-0.0933717
103	0xbda0c258	-0.07849568
104	0xbda35ab1	-0.079762824
105	0x3dbf9106	0.09353833
106	0x3d53c57a	0.051702
107	0x3c37465d	0.0111862095
108	0xbcb92dde	-0.022604879
109	0xbdbd20b7	-0.092347555
110	0xbcff1442	-0.03113759
111	0x3d3af0ab	0.045639675
112	0x3cf956b8	0.030436859
113	0xbdba9d1a	-0.09111996
114	0xbdfeb6b4	-0.124371916
115	0xbdf7c33a	-0.120977834
116	0xbdaa8745	-0.08326582
117	0x3daf06dc	0.0854623
118	0x3dc522ea	0.096258
119	0xbb1cb613	-0.0023912236
120	0xbdfcdc63	-0.12346723
121	0xbdb0971d	-0.086225726
122	0x3da64518	0.08118647
123	0xbdbf854e	-0.09351598
124	0xbdbdf352	-0.09274925
125	0x3d6cf118	0.057847112
126	0xbe1d2bb1	-0.15348698
127	0x3c0f4251	0.008743838
128	0xbc0ede49	-0.008719989
129	0x3d922e98	0.07137793
130	0xbdb1cac8	-0.086812556
131	0xbda8d301	-0.08243371
132	0x3d1b289c	0.037880525
133	0xbd3ca38f	-0.04605442
134	0x3e01561b	0.12630503
135	0x3cc42a8d	0.023946071
136	0x3df55f95	0.119811215
137	0x3d622a15	0.055215914
138	0x3d8141a1	0.06311346
139	0x3d84c69a	0.06483193
140	0xbe138714	-0.14406997
141	0xbd01bc79	-0.031673882
142	0xbdff1fcc	-0.12457237
143	0xbd339aa0	-0.043848634
144	0x3d7c1c68	0.061550528
145	0xbe498a3e	-0.19681641
146	0x3dc2bf03	0.09509089
147	0xbdcfa774	-0.10139361
148	0xbcafed1e	-0.021475371
149	0xbdf7c5d0	-0.120982766
150	0x3db075a1	0.08616186
151	0xbdada84e	-0.08479367
152	0xbdb8ab56	-0.09017055
153	0x3db40362	0.08789708
154	0x3d98d64a	0.074627474
155	0x3d04b34a	0.032397546
156	0x3df2b564	0.11851004
157	0xbe2225ce	-0.15834734
158	0xbc3b9d9f	-0.011451154
159	0x3e0b532d	0.13605948
160	0x3de937bf	0.11387586
161	0xbd000c18	-0.031261533
162	0xbdcb46f7	-0.09925645
163	0x3d25ac38	0.040447444
164	0x3d612879	0.05497024
165	0x3c3d994f	0.011572196
166	0x3d9d9c58	0.07695836
167	0x3d8eff41	0.069822796
168	0x3e09598b	0.13413064
169	0xbddb49a9	-0.10707409
170	0x3d00fa30	0.031488597
171	0x3dad25e5	0.084544934
172	0xbda6d5fc	-0.08146283
173	0xbdce84b5	-0.100839056
174	0xbdd80a32	-0.105488196
175	0x3dcd8bc4	0.10036424
176	0xbbff8f9e	-0.007799103
177	0xbc5e5ba3	-0.013571653
178	0xbdaa9e17	-0.083309345
179	0x3d5ccf9a	0.05390892
180	0x3d8e0db8	0.069362104
181	0xbd82e9ed	-0.06392274
182	0x3de99d87	0.11406999
183	0x3e021b25	0.12705667
184	0x3c80649f	0.01567298
185	0x3d220db8	0.039563864
186	0x3e037444	0.1283732
187	0xbc4d3a11	-0.012526051
188	0xbd6aa952	-0.057290383
189	0xbe0d7c84	-0.1381703
190	0xbe0394f8	-0.12849796
191	0x3c80b6ed	0.015712226
192	0x3d423fdc	0.047424182
193	0xbdbd8ae7	-0.09255009
194	0x3dfdf5d8	0.124004066
195	0xbb37fd0c	-0.0028074412
196	0x3c1c1236	0.009525826
197	0xbbec4d10	-0.007211335
198	0x3d88229c	0.06647226
199	0x3d39198b	0.045190375
200	0xbdaff80e	-0.085922346
201	0x3b94a14e	0.0045358306
202	0xbd6a558f	-0.0572105
203	0x3cb48289	0.0220349
204	0x3de21368	0.11038858
205	0xbd7a4455	-0.061100323
206	0x3be2c02d	0.006919882
207	0x3df5752e	0.11985241
208	0x3d081d36	0.033230983
209	0xbc4496ee	-0.011998875
210	0x3deb89d8	0.11500901
211	0xbbef57fe	-0.0073041907
212	0x3db23c8d	0.087029554
213	0x3e0c8c7e	0.13725469
214	0xbd2a15e3	-0.04152478
215	0x3cf5c992	0.030003343
216	0xbda5b4b0	-0.08091104
217	0x3ddb527a	0.107090905
218	0x3c374760	0.011186451
219	0xbd8d7615	-0.06907288
220	0x3cbed858	0.02329652
221	0xbca27f2a	-0.019836027
222	0xbda92ae9	-0.082601376
223	0x3d1d460d	0.038396884
224	0x3dc5c2a4	0.096562654
225	0x3dc42968	0.0957821
226	0xbcfeebf6	-0.031118374
227	0x3cba5718	0.022746608
228	0x3e0058e1	0.12533905
229	0xbdcf826d	-0.101322986
230	0x3b24c92d	0.0025144324
231	0xbd0411a8	-0.0322434
232	0x3da111c9	0.078647204
233	0x3d7dd7fb	0.061973553
234	0xbd9b0a17	-0.07570284
235	0xbc060a61	-0.008181185
236	0xbd94e8ca	-0.072709635
237	0xbd44ad2a	-0.048016705
238	0x3d9584d0	0.073007226
239	0xbdcbff6a	-0.09960826
240	0xbc3943e0	-0.011307687
241	0xbd300f05	-0.042983074
242	0x3dd58306	0.10425381
243	0x3dcab5a4	0.098979264
244	0x3d825fa9	0.06365902
245	0xbce4e547	-0.02794136
246	0xbd0d3c5e	-0.0344814
247	0x3ddaab01	0.10677148
248	0x3d0a4e2c	0.033765957
249	0xbda6cd2c	-0.08144602
250	0x3d858833	0.065201186
251	0x3c690e9d	0.0142246755
252	0xbc89d8fc	-0.016827099
253	0xbd572223	-0.05252279
254	0x3de71d12	0.112848416
255	0xbd43835d	-0.0477327

bias f4 [32]
0	0x3e383b2e	0.17991325
1	0x3e22b7a1	0.15890361
2	0x3d61e228	0.05514732
3	0xbe2c92c2	-0.16852859
4	0xbdc2a523	-0.095041536
5	0xbde8c455	-0.11365572
6	0xbda84e8e	-0.08218108
7	0xbca617be	-0.020274993
8	0xbe1ba59a	-0.1519989
9	0x3d782bd8	0.060588688
10	0xbdd1015e	-0.10205339
11	0x3d8ce044	0.06878713
12	0x3db83d4d	0.08996067
13	0xbd4f2223	-0.050569665
14	0x3e3b6d65	0.1830345
15	0x3d7041a2	0.058656342
16	0xbe0c17dc	-0.13680977
17	0xbdf823a9	-0.12116177
18	0xbcce6e62	-0.025199119
19	0x3e3557f2	0.1770933
20	0x3dcfb5b6	0.101420805
21	0x3da33df3	0.079708
22	0x3e0cc923	0.13748603
23	0xbe25862b	-0.16164462
24	0x3e0b49e8	0.13602412
25	0x3d8f028c	0.06982908
26	0x3e597df1	0.21239449
27	0xbe176c30	-0.14787364
28	0xbd2b8df9	-0.041883443
29	0xbc6550f9	-0.013996356
30	0x3de24c79	0.11049742
31	0x3e4d389e	0.20041129

weight f4 [32, 32]
0	0xbe2ffab1	-0.17185475
1	0xbe465d8d	-0.19371624
2	0xbda6ff30	-0.08154142
3	0xbd27823a	-0.040895678
4	0x3c11976b	0.0088861985
5	0x3d601c43	0.054714452
6	0xbd992d9a	-0.07479401
7	0xbe11627c	-0.14197725
8	0xbbc84964	-0.0061122645
9	0xbd2596d6	-0.04042705
10	0x3d936cef	0.07198512
11	0x3c0e8abe	0.008700071
12	0x3da4dce7	0.08049946
13	0x3c28e6f4	0.01030897
14	0xbddc689b	-0.107621394
15	0x3dffb4f4	0.12485686
16	0x3d7a0ec3	0.061049234
17	0x3dafc35e	0.08582185
18	0xbde99fe8	-0.11407453
19	0x3d1dea5c	0.03855358
20	0x3dd4565e	0.10368036
21	0x3d0e2291	0.034700934
22	0xbd83786a	-0.064194515
23	0x3deb21c0	0.11481047
24	0x3e1cb045	0.15301616
25	0xbe2ce4da	-0.16884175
26	0xbe40e117	-0.18835865
27	0xbce5e654	-0.02806393
28	0x3cd99cdc	0.026564054
29	0x3d2eef71	0.042708818
30	0xba58644c	-0.00082546915
31	0x3dd0933e	0.10184334
32	0xbccc3525	-0.024927685
33	0x3e0e0a7b	0.13871185
34	0x3e0cde24	0.13756615
35	0xbe291f04	-0.16515738
36	0x3dac38b8	0.08409256
37	0x3d85197a	0.06499
38	0xbd5040a2	-0.05084289
39	0xbdc399dd	-0.095508315
40	0xbe08faff	-0.13376997
41	0xbcdbb5fc	-0.026820175
42	0x3e3d0ffd	0.1846313
43	0xbd67c139	-0.056580756
44	0xbd98bff3	-0.074584864
45	0x3e125c65	0.14293058
46	0x3e336a7b	0.17521088
47	0x3e46b7ac	0.19406003
48	0xbe58afef	-0.21160863
49	0x3d721d7d	0.059110153
50	0xbded5318	-0.115881145
51	0x3e53b16b	0.20673148
52	0xbd6357a6	-0.05550351
53	0x3d8d9a25	0.06914166
54	0x3d32cc6c	0.043651983
55	0x3c61bb32	0.013777541
56	0x3c62fc5b	0.013854112
57	0xbdbee187	-0.0932036
58	0x3df944d8	0.12171334
59	0x3e0e720a	0.1391069
60	0xbc0de94c	-0.008661579
61	0xbca32ec5	-0.019919762
62	0xbc76972b	-0.01505069
63	0x3d954997	0.07289427
64	0x3d77b2d9	0.060473297
65	0xbd60d7d4	-0.05489333
66	0xbdaf80bb	-0.08569475
67	0x3dd7b616	0.10532777
68	0xbc67f7f7	-0.0141582405
69	0x3d908e11	0.07058347
70	0xbde442a4	-0.11145523
71	0x3d71b984	0.059014812
72	0xbe179760	-0.14803839
73	0xbdefa55e	-0.11701463
74	0xbe16edb4	-0.14739114
75	0xbdf2391e	-0.118273005
76	0xbe0fad28	-0.14030898
77	0x3da7eaf4	0.081991106
78	0x3e2ac0b2	0.1667507
79	0x3d752fc4	0.059860006
80	0xbd8e30fc	-0.06942937
81	0x3c995912	0.01871923
82	0xbda30b9d	-0.079611994
83	0xbd86453d	-0.06556175
84	0xbe212398	-0.15736234
85	0x3cd744fa	0.026278008
86	0xbe1bfd7f	-0.1523342
87	0x3e6daa48	0.23209488
88	0xbcd5f6a2	-0.02611858
89	0x3df83297	0.12119024
90	0x3dbe4d23	0.092920564
91	0x3e2245f8	0.15847003
92	0xbe8696a1	-0.26286796
93	0xbe3de344	-0.18543726
94	0xbe0d9c72	-0.1382921
95	0xbdf1b6d5	-0.118024506
96	0xbdf14643	-0.117809795
97	0xbcb26358	-0.021775886
98	0xbe013589	-0.12618078
99	0xbabbe6be	-0.0014335734
100	0x3e1873d8	0.14887941
101	0xbe11953d	-0.14217086
102	0x3e0b4bb8	0.13603103
103	0xbe42e6c9	-0.1903335
104	0x3d24bff8	0.04022214
105	0x3e3c8bc3	0.1841269
106	0xbb34ab32	-0.002756786
107	0x3da4ba5b	0.08043357
108	0xbdc5633b	-0.09638067
109	0xbd34d933	-0.04415245
110	0x3ddfad7d	0.10921762
111	0x3deb91e7	0.11502438
112	0x3e10ed87	0.1415311
113	0xba726280	-0.0009246245
114	0xbcbbefea	-0.022941548
115	0x3c7ff9d2	0.015623527
116	0xbd9286aa	-0.071545914
117	0x3dd24dc9	0.102687426
118	0x3d66f14e	0.05638247
119	0x3dd56a0f	0.1042062
120	0x3db6728f	0.08908569
121	0x3dc79f10	0.09747136
122	0xbd56bd83	-0.052426826
123	0xbe1d439a	-0.15357819
124	0x3e100fb3	0.14068489
125	0x3d2702e2	0.040774234
126	0x3e062230	0.13098979
127	0x3c3f448e	0.01167406
128	0x3e26ae10	0.16277337
129	0xbd0d6a5d	-0.034525264
130	0x3ddc254f	0.107493035
131	0xbca2f877	-0.019893868
132	0x3e1fb344	0.15595728
133	0xbc513d5e	-0.012770979
134	0xbe57285c	-0.2101149
135	0x3e0cd214	0.13752013
136	0x3e454279	0.19263639
137	0xbd756773	-0.05991311
138	0xbe13a5b6	-0.14418682
139	0x3e4ac28a	0.19800773
140	0x3e0c7872	0.13717821
141	0xbd99c3d2	-0.07508053
142	0xbd5ee2a6	-0.054415368
143	0x3c9d2552	0.019182835
144	0xbd25d74c	-0.040488526
145	0x3d6bbd87	0.057553794
146	0xbe1fe38a	-0.15614143
147	0xbe07ba4b	-0.13254659
148	0xbe495a7a	-0.1966342
149	0x3c8f118b	0.01746442
150	0x3c8ef3c4	0.01745022
151	0x3d61bc25	0.05511107
152	0x3d9b1339	0.07572026
153	0xbc6fde0c	-0.014640342
154	0x3db1f395	0.08689038
155	0x3dae345c	0.085060805
156	0xbd0f1d73	-0.034940194
157	0xbde5c7da	-0.11219759
158	0x3a468da8	0.0007574209
159	0xbd47f016	-0.04881295
160	0xbb591ee4	-0.0033129985
161	0xbdee9c55	-0.11650912
162	0xbe1bc2d4	-0.1521104
163	0xbcf88eb7	-0.03034149
164	0xbde8460b	-0.11341485
165	0xbdb36fd7	-0.08761566
166	0xbc7eb1f8	-0.015545361
167	0xbe1eb163	-0.15497355
168	0xbd388198	-0.045045465
169	0x3d8855a5	0.066569604
170	0x3d867945	0.06566099
171	0x3e097dbe	0.13426873
172	0xbe1fabae	-0.15592834
173	0xbd1f8ac6	-0.038950704
174	0x3e0c3d5e	0.13695285
175	0x3e2fcd88	0.17168248
176	0x3c627808	0.013822563
177	0xbde2601b	-0.11053487
178	0x3e009c50	0.12559628
179	0xbba76eb2	-0.0051096315
180	0x3dea4efb	0.114408456
181	0xbd0653bc	-0.0327947
182	0xbe0907dd	-0.13381906
183	0x3e09cc88	0.13456929
184	0x3e286707	0.16445552
185	0xbd5bc4eb	-0.053654592
186	0xbdd4e18e	-0.10394584
187	0x3d0282da	0.03186307
188	0x3e00a206	0.12561807
189	0x3ddc8f20	0.107694864
190	0x3e2ec4ed	0.17067309
191	0x3e09923f	0.13434695
192	0xbdf2dea5	-0.11858872
193	0xbb2e088a	-0.0026555383
194	0x3dd09127	0.101839356
195	0x3cd6226f	0.026139466
196	0xbdd84301	-0.10559655
197	0x3d2ff9cb	0.04296283
198	0x3d703141	0.058640722
199	0xbd4a7244	-0.04942538
200	0xbe45cff3	-0.19317608
201	0x3d86bfb4	0.06579533
202	0xbe1f5177	-0.1555842
203	0x3e4d8809	0.20071425
204	0x3ca4d5aa	0.020121414
205	0xbe186c5c	-0.14885086
206	0x3de87f06	0.11352353
207	0x3dc66096	0.09686391
208	0xbdddc893	-0.10829272
209	0x3bf2c170	0.0074083135
210	0x3d42b91f	0.047539826
211	0x3e3a2679	0.18178739
212	0xbe15743e	-0.14595124
213	0x3e033e4b	0.12816732
214	0x3e27150c	0.16316622
215	0x3d75994d	0.059960652
216	0xbdac92a1	-0.08426405
217	0x3ddcb014	0.10775772
218	0x3cd643fd	0.026155466
219	0xbdc6e148	-0.09710938
220	0x3de5c14c	0.11218509
221	0x3e2e53d0	0.1702416
222	0x3e449c08	0.19200146
223	0x3cacac8b	0.021078369
224	0xbd60b7a5	-0.054862637
225	0x3cd3247a	0.02577423
226	0x3e1d2587	0.15346347
227	0xbdf61918	-0.12016505
228	0x3d92ba70	0.071644664
229	0xbd0b5192	-0.03401334
230	0xbd4bd616	-0.049764715
231	0x3da377da	0.07981844
232	0x3dd0c845	0.101944484
233	0xbd1b7433	-0.037952613
234	0xbe6aa060	-0.2291274
235	0x3e0c09e7	0.13675652
236	0xbde85a02	-0.11345293
237	0xbe6eb3ca	-0.23310772
238	0x3db94399	0.09046096
239	0x3cf0ebfd	0.029409403
240	0xbd12fc69	-0.03588525
241	0xbcee5d58	-0.029097244
242	0x3e0a8a8f	0.13529418
243	0xbc33130a	-0.010929832
244	0xbd5c2154	-0.05374272
245	0xbcaa1f5b	-0.020766905
246	0xbd53571b	-0.051596742
247	0x3e16f95c	0.1474356
248	0xbcaab077	-0.020836098
249	0xbd992d44	-0.07479337
250	0x3d352871	0.04422802
251	0xbcb506ac	-0.022097908
252	0x3dc49fed	0.09600816
253	0x3e2c55e2	0.16829637
254	0x3e0d7fee	0.13818333
255	0xbdba6b9d	-0.09102557

bias f4 [32]
0	0xbe3e6630	-0.18593669
1	0xbd8c14d6	-0.06839912
2	0xbe32859b	-0.17433779
3	0xbcbf1223	-0.023324078
4	0xbb50f544	-0.003188447
5	0x3c816491	0.015795024
6	0x3e4549f7	0.19266497
7	0xbdc5ea58	-0.09663838
8	0xbe2bdae4	-0.16782719
9	0xbe2da2bb	-0.16956608
10	0xbc1bc693	-0.009507793
11	0xbdeab90a	-0.11461075
12	0xbd91a5d1	-0.07111705
13	0x3cb0d372	0.0215852
14	0x3d5fbc8c	0.05462317
15	0xbd953623	-0.072857164
16	0x3c85cb62	0.016332332
17	0xbe0451c4	-0.12921816
18	0x3df2eeb5	0.11861936
19	0xbd82189e	-0.063523516
20	0x3ce95d7c	0.02848696
21	0xbdcde3f9	-0.10053248
22	0x3d01ca54	0.031687096
23	0x3cffd588	0.03122975
24	0xbda74484	-0.08167365
25	0x3c209e21	0.009803326
26	0xbc4473b4	-0.011990476
27	0x3e08ebab	0.1337115
28	0xbe459518	-0.19295156
29	0xbc92fdd9	-0.01794331
30	0xbe2da259	-0.16956462
31	0xbdeab992	-0.11461176

weight f4 [32, 64]
0	0xbd92e3e7	-0.07172375
1	0xbb9b784c	-0.004744565
2	0xbdf32b72	-0.11873521
3	0x3d9cd698	0.07658118
4	0x3dfa9c6c	0.12236866
5	0xbd1ffcf4	-0.039059594
6	0x3e0725ca	0.13198009
7	0x3c3e6a63	0.011622044
8	0xbd8ce3ab	-0.06879362
9	0xbddf5786	-0.10905366
10	0x3d9c71a7	0.07638865
11	0xbd1b44ce	-0.037907414
12	0x3cb27736	0.02178536
13	0xbd7631a2	-0.060105927
14	0x3dba815b	0.09106704
15	0x3d908651	0.07056869
16	0xbe1ca28c	-0.15296382
17	0xbdb3123a	-0.08743711
18	0x3db4295a	0.0879695
19	0x3da83983	0.082140945
20	0xbd9dbe2d	-0.07702289
21	0xbd67669a	-0.056494333
22	0xbcb54990	-0.022129804
23	0x3d5b64cb	0.05356292
24	0x3dac5118	0.08413905
25	0x3d83ee7a	0.0644197
26	0xbe06878c	-0.13137645
27	0x3da99136	0.0827965
28	0x3d45e10f	0.048310336
29	0xbe01ce1a	-0.12676278
30	0x3df1b3c0	0.11801863
31	0xbd3747ce	-0.044746213
32	0x3da179fd	0.078845955
33	0xbd331eb7	-0.043730464
34	0xbdac92eb	-0.0842646
35	0x3df319ee	0.1187018
36	0xbd49097b	-0.049081307
37	0x3cc51807	0.024059309
38	0x3cf86a54	0.030324139
39	0xbda3f6d8	-0.08006066
40	0x3dbc6fad	0.09200988
41	0x3dc23349	0.09482438
42	0x3c988e9b	0.018622687
43	0xbd7b1138	-0.061295718
44	0x3ce747f9	0.028232561
45	0x3d98ffc7	0.07470661
46	0x3cb0bf4c	0.021575592
47	0x3d8140d1	0.06311191
48	0xbde48a00	-0.11159134
49	0xbdfe36c9	-0.12412793
50	0xbd38db69	-0.04513112
51	0x3d4ec3aa	0.05047957
52	0x3d880295	0.066411175
53	0xbbfcd9fa	-0.0077164145
54	0xbd48740f	-0.048938807
55	0x3e04fc65	0.12986906
56	0xbe2afc37	-0.16697775
57	0xbd26b5ef	-0.04070085
58	0xbdf0bcef	-0.11754786
59	0xbb94cca0	-0.0045409948
60	0xbdd8691c	-0.10566923
61	0x3d55eafe	0.05222606
62	0x3df79180	0.12088299
63	0xbbb596ae	-0.005541644
64	0x3d53cdf9	0.051710103
65	0x3d8508ef	0.064958446
66	0xbe032b15	-0.12809403
67	0xbbaea4c6	-0.005329701
68	0xbdeb256a	-0.114817455
69	0xbcb8567f	-0.022502182
70	0x3e1acfaf	0.15118288
71	0x3d64e668	0.055883795
72	0xbd8ca7f0	-0.06867969
73	0xbd9e011a	-0.07715054
74	0x3dfaea0b	0.122516714
75	0x3dd58519	0.10425777
76	0x3d3a9af0	0.045557916
77	0xbd2ac54c	-0.041692063
78	0xbcb70c67	-0.022344781
79	0x3dfcda7e	0.123463616
80	0xbd9bef32	-0.07613982
81	0xbdad44d9	-0.08460397
82	0xbe2199a1	-0.15781261
83	0xbda2b9c6	-0.0794559
84	0x3dfdad76	0.12386601
85	0x3d2b5752	0.041831322
86	0xbdcafa97	-0.099110775
87	0x3ddb5c03	0.10710909
88	0xbd855d66	-0.06511955
89	0x3dd74ecf	0.105130784
90	0x3d109bbb	0.035304766
91	0x3e1a7b28	0.15086043
92	0x3db7cd6a	0.089747265
93	0xbc18dc36	-0.009329846
94	0x3dd0e286	0.10199456
95	0x3cbe2174	0.023209311
96	0x3c102e00	0.00880003
97	0x3dbaa62f	0.09113728
98	0xbc09019b	-0.008362199
99	0xbdce25b9	-0.10065789
100	0x3de21550	0.11039221
101	0x3db22c14	0.086998135
102	0xbc8bcd81	-0.017065765
103	0x3d48b27e	0.04899835
104	0xbc5719ce	-0.013128711
105	0xbd8678a1	-0.06565977
106	0x3d919570	0.07108581
107	0x3da22547	0.07917266
108	0x3e225b53	0.1585515
109	0xbd80103c	-0.062530965
110	0x3d76c818	0.060249418
111	0x3d049009	0.032363925
112	0xbd98a733	-0.07453766
113	0x3e025423	0.12727408
114	0x3d9c39e8	0.07628232
115	0xbd9d3ad7	-0.076772384
116	0xbd81ab22	-0.06331469
117	0x3d5d838b	0.054080527
118	0xbd93c053	-0.07214417
119	0x3d851590	0.06498253
120	0xbc77f34d	-0.015133691
121	0xbcacfbfb	-0.021116247
122	0xbd63d118	-0.05561933
123	0x3b281807	0.0025649087
124	0xbdf4e201	-0.11957169
125	0x3da152ab	0.07877096
126	0x3e361b83	0.17783932
127	0x3cb09b8e	0.02155855
128	0x3917ceef	0.00014477571
129	0x3db4ffac	0.08837828
130	0x3d052274	0.03250356
131	0xbdd93e34	-0.106075674
132	0x3deaa8eb	0.11458
133	0xbd469cf5	-0.04848953
134	0x3db720e3	0.089418195
135	0xbdf6849a	-0.120370105
136	0x3de383ba	0.11109109
137	0x3deecf05	0.116605796
138	0xbdec319b	-0.11532899
139	0xbcd35405	-0.0257969
140	0xbd6884aa	-0.056767143
141	0x3d1b2ba2	0.03788341
142	0xbd9769fe	-0.07393263
143	0x3bdcf22e	0.0067427373
144	0xbcb56729	-0.022143917
145	0x3d2d0c4a	0.042248048
146	0xbe3d2ee0	-0.18474913
147	0xbd8e727d	-0.06955431
148	0xbde9efe4	-0.11422709
149	0x3de59ddb	0.11211749
150	0xbd877961	-0.06614948
151	0xbe025eb1	-0.12731434
152	0x3bba8805	0.0056924843
153	0xbac36dc2	-0.001491003
154	0x3da7e863	0.08198621
155	0x3aa17b5c	0.0012320089
156	0x3c8cb8cf	0.017177967
157	0x3e08ffce	0.13378832
158	0xbdd30489	-0.103035994
159	0x3d67b70a	0.056571044
160	0xbc9f4910	-0.019444019
161	0xbd70b559	-0.058766697
162	0xbdf601d2	-0.12012066
163	0x3d12f8b1	0.0358817
164	0xbca19bbb	-0.019727578
165	0xbd4b26ef	-0.049597677
166	0xbddb343d	-0.10703323
167	0x3d0cc22b	0.03436486
168	0x3d72441b	0.05914698
169	0xbd2b130a	-0.041766204
170	0x3e13268d	0.14370175
171	0xbd657282	-0.056017406
172	0x3de59ad3	0.11211171
173	0x3dc5fa5b	0.09666892
174	0x3d55f8a3	0.05223907
175	0xbde6a276	-0.11261456
176	0xbd1b57c9	-0.037925515
177	0xbcdf851f	-0.027285157
178	0x3e07076d	0.13186426
179	0x3dda559f	0.10660862
180	0xbccc2d3d	-0.024923915
181	0x3d84e913	0.06489768
182	0xbcd3bc78	-0.025846705
183	0x3da6d7cb	0.08146628
184	0xbe2f404c	-0.17114371
185	0x3d43d9d3	0.047815155
186	0x3da0db1c	0.07854292
187	0x3dfaccb8	0.12246078
188	0xbda902fd	-0.08252523
189	0xbc1254d2	-0.008931356
190	0xbda6029e	-0.08105968
191	0xbd45a499	-0.048252676
192	0x3e1a7e23	0.1508718
193	0x3d8c281d	0.068435885
194	0xbcf97c21	-0.030454697
195	0xbdeca2af	-0.11554467
196	0xbe2622fa	-0.1622428
197	0x3e11fbcd	0.1425621
198	0xbcc4f2e3	-0.024041599
199	0xbcb94124	-0.02261407
200	0x3dc1f123	0.09469821
201	0x3db994a3	0.09061553
202	0xbdc564cc	-0.09638366
203	0x3d48c1e0	0.04901302
204	0xbc2525a8	-0.010079779
205	0x3de9e76d	0.11421094
206	0x3db72f87	0.08944612
207	0x3d589eb0	0.05288571
208	0x3da59a82	0.08086111
209	0x3de84dce	0.11342965
210	0xbd0a27e2	-0.03372944
211	0xbd8e6e54	-0.06954637
212	0xbe040d21	-0.12895633
213	0xbd0f61c6	-0.035005353
214	0xbd9e70fe	-0.07736395
215	0x3d73b345	0.059497137
216	0x3d9b0bb3	0.07570591
217	0x3df8550a	0.12125595
218	0xbc3fbffd	-0.011703488
219	0x3d8a2b8e	0.06746589
220	0x3b93d6a0	0.0045116693
221	0x3d4fa656	0.05069574
222	0x3ca02891	0.019550594
223	0xbd46ead5	-0.048563797
224	0xbdb0199f	-0.08598637
225	0x3db2e1a2	0.08734442
226	0xbd73db65	-0.059535403
227	0xbd998f5c	-0.07498047
228	0xbe1fec7e	-0.15617558
229	0xbd8f0d94	-0.06985012
230	0xbdc7293d	-0.097246625
231	0xbc697df0	-0.014251217
232	0xbdda1c5c	-0.1064994
233	0x3da90212	0.08252348
234	0xbd5575c6	-0.05211427
235	0xbcf22995	-0.029560843
236	0xbdb4d30f	-0.08829319
237	0x3d3b9418	0.04579553
238	0xbe13ba2e	-0.1442649
239	0xbc068692	-0.008210795
240	0xbdb5d234	-0.08877984
241	0x3de2e47d	0.11078737
242	0xbc9a1912	-0.018810783
243	0xbba6c91d	-0.0050898925
244	0x3d41ded0	0.04733163
245	0x3ba7d383	0.0051216497
246	0x3de9f154	0.11422983
247	0xba66c711	-0.0008803467
248	0x3ca42419	0.020036744
249	0x3cd5f028	0.026115492
250	0xbe04420f	-0.12915824
251	0xbd0751b3	-0.0330369
252	0xbe081d5b	-0.13292448
253	0x3d9a7ce3	0.075433515
254	0xbb7bc1b8	-0.0038415026
255	0xbdc27c10	-0.09496319

bias f4 [32]
0	0xbcf5070e	-0.02991059
1	0x3e1442e9	0.14478649
2	0x3e02f6c6	0.12789449
3	0xbd7e77cc	-0.062125966
4	0xbde82320	-0.113348246
5	0xbd036f2e	-0.03208845
6	0xbdb8df52	-0.0902697
7	0x3e0b5174	0.1360529
8	0x3d667270	0.05626148
9	0xbc0f7ed5	-0.008758266
10	0xbd86ffac	-0.06591734
11	0xbd5fa099	-0.054596517
12	0x3d85170e	0.06498538
13	0xbca54e50	-0.020178944
14	0x3e5e1be1	0.21690322
15	0x3d658662	0.05603636
16	0x3d50a92f	0.050942596
17	0xbd6b4928	-0.057442814
18	0x3d9ff834	0.07811013
19	0xbd3fd984	-0.0468383
20	0x3dc8aa17	0.09798067
21	0xbd85cff2	-0.06533803
22	0xbc9e262c	-0.019305311
23	0xbe19b3b5	-0.15009959
24	0xbd8ec69b	-0.06971475
25	0xbcece372	-0.028917048
26	0xbc1dea7a	-0.009638423
27	0xbe06004a	-0.13086048
28	0x3d873136	0.06601183
29	0x3ddc937d	0.10770319
30	0x3d55bcd9	0.052182052
31	0x3d1c2084	0.038116947
