SwarmNet - PyTorch/models/model.pkl (torch, 80187 bytes, 14 tensors)

weight f4 [32, 7, 3]
000000 57 28 42 3b ba 36 28 3e ce 10 3a 3e e4 a2 0d 3e
       0.0029626095 0.16427127 0.18170473 0.13831669
000010 ec 4e 09 3e 43 00 26 bd 5b 63 73 bd df 05 2e 3e
       0.13409013 -0.040527593 -0.059420925 0.16994427
000020 19 60 e1 bb 83 86 25 3e ac 0e ca 3d 06 d8 15 bd
       -0.006877911 0.16164593 0.0986608 -0.03658297
000030 9e 44 f9 3d 6b 93 54 bd 45 4f ab 3d a2 bc 01 3c
       0.12171291 -0.0518984 0.08364729 0.007918509
000040 de e7 4f be a8 6e 45 bd 6c 0f 46 3e fd 00 37 bd
       -0.20303294 -0.048201233 0.1934182 -0.044678677
000050 b6 b7 b8 3d b9 88 3f be e2 2e be bd 01 5d 30 3e
       0.09019415 -0.187045 -0.09286286 0.17222978
000060 33 df 9f 3d 72 8d 37 3d 47 74 b6 3d 82 0b 13 3e
       0.07806244 0.044812627 0.08908897 0.14359859
000070 30 a3 4d be e4 c5 51 be c4 ec 5e 3e 77 0e 56 3d
       -0.20081782 -0.20485646 0.21770006 0.05225989
000080 d7 47 06 be d5 cc 3e 3e a1 87 7f bc c5 6e 25 3e
       -0.13113342 0.18632825 -0.015596301 0.16155536
000090 e1 95 1d be af 3d 25 be 8f cb 26 3d c6 f3 1c 3e
       -0.15389206 -0.16136812 0.040721472 0.15327367
0000a0 03 d9 2a be ef c5 06 be 9e 2a f9 3d a7 fd 54 be
       -0.16684346 -0.13161443 0.12166332 -0.20799886
0000b0 7a 25 08 3e 37 1d ca bc c6 b4 b6 bd 86 2c b1 bd
       0.13295546 -0.024672134 -0.089211985 -0.0865107
0000c0 b0 f4 82 bc ec 71 02 be 1f 3d 23 bd 6c eb 75 be
       -0.015985817 -0.1273877 -0.03985321 -0.24015588
0000d0 23 6d c4 3d 3d a2 67 be 18 b1 a5 bd 38 ec 75 bd
       0.09591129 -0.22620483 -0.080904186 -0.06003973
0000e0 c9 40 1b 3e 90 a9 a2 bc 8e e2 38 be 8c db 5b 3e
       0.15161432 -0.019856244 -0.18055174 0.21470469
0000f0 ee 70 be bd d4 36 11 3e 00 df 8f bd 75 ed 1f be
       -0.092988834 0.14181072 -0.07024956 -0.15617926
000100 e7 f9 21 bd ab 9b 02 bd a9 ed 2c be 2d db ad 3d
       -0.039544966 -0.031886738 -0.16887535 0.0848907
000110 aa 3d 51 be bc f5 bd 3b 16 4c 1b be 73 fd 56 3d
       -0.20433679 0.005797116 -0.15165743 0.0524878
000120 ca 92 f5 3d 34 65 be bd 0d 11 4f bd f7 33 04 3e
       0.119908884 -0.09296647 -0.05055337 0.12910448
000130 5f 10 05 3e 4f fd 4a 3c 50 85 72 3d 1e ee d1 3d
       0.12994526 0.012389495 0.059209168 0.102504954
000140 78 90 06 bd cf 14 54 bd 5f 64 ff bc 05 f1 0f 3e
       -0.03285262 -0.051777657 -0.03117579 0.14056785
000150 9a ae 8f 3d 71 4a d1 bd ab 4e c4 bc 30 10 2c 3e
       0.070157245 -0.10219277 -0.023963293 0.1680305
000160 19 6e a2 bc d2 0d 4f 3e 65 9f 37 3e 3c be 6c 3d
       -0.01982789 0.20220116 0.17931898 0.05779861
000170 94 0c b8 bc 5e ae f4 3d b3 71 39 bd b3 76 a4 bc
       -0.022466935 0.119473204 -0.045274448 -0.020076131
000180 2f cf ac 3a 26 4b 58 bd 5b 81 42 3e 54 7f 39 3e
       0.0013184304 -0.052806042 0.18994658 0.18114978
000190 17 95 2a be aa f1 0d bd f1 d2 f2 bb 65 26 40 be
       -0.16658436 -0.034654297 -0.0074104 -0.18764646
0001a0 70 33 d2 bc 91 82 c3 3d ba 5f dc 3d 7f 75 09 bd
       -0.025659293 0.09546388 0.10760446 -0.03355932
0001b0 40 a1 be bd 03 3e 18 be 8c a2 c0 bc ea f3 e1 3d
       -0.093081 -0.14867406 -0.023515008 0.11032851
0001c0 d6 62 14 3e b2 94 4a 3e a3 7f f8 bc 1a 3c 2b 3e
       0.14490828 0.19783285 -0.0303343 0.16722146
0001d0 8a c0 36 3e d0 0c a4 3d e7 69 b5 bd 97 29 be 3d
       0.17846885 0.08010256 -0.0885809 0.092852764
0001e0 67 ba 14 be e5 da 56 be 7d 6f 3c be 79 b8 ed bd
       -0.14524232 -0.20981939 -0.18401904 -0.11607451
0001f0 ce 07 a7 3c f3 d1 86 3b e1 69 03 be d5 91 14 3d
       0.020389464 0.0041143834 -0.12833358 0.03627189
000200 f3 38 33 be f7 11 ee 3d 21 99 3f 3d f2 eb 3c 3d
       -0.17502193 0.1162452 0.046776894 0.046123452
000210 e3 2d a1 bd 2a 60 67 bd 72 30 47 3e 2b 0c 27 be
       -0.0787008 -0.056488194 0.19452074 -0.16313235
000220 d9 74 4c 3e 0c 1e d2 3d 20 da b5 bd e5 09 e4 bd
       0.19966449 0.10259637 -0.08879495 -0.111347
000230 64 ec 6b be 18 78 b7 3d 6d 77 0e 3e 61 58 22 3e
       -0.23039395 0.08958453 0.13912745 0.15854026
000240 2a a0 70 3d e8 41 56 bb ab b8 99 bd 23 a8 42 be
       0.058746494 -0.0032693092 -0.07505926 -0.19009452
000250 90 0f 94 bc 08 51 1a bd e0 30 29 3e 8a 51 12 be
       -0.018073827 -0.037674934 0.1652255 -0.14288917
000260 c7 bb f2 3c 85 31 19 3e 9c d1 b7 bd c1 f5 c6 3d
       0.029630555 0.14960296 -0.08975527 0.097148426
000270 aa 98 a1 bc f9 55 82 3c f6 a6 ab 3d b1 11 53 be
       -0.019726116 0.015910136 0.08381455 -0.20612217
000280 da c3 63 be 0e 71 08 3d 54 36 23 be f1 58 08 be
       -0.2224268 0.033310942 -0.15938693 -0.13315178
000290 e3 85 4d 3d d9 13 0f 3d 34 a4 4f 3e 3b ee 21 be
       0.050176512 0.034931038 0.20277482 -0.15813534
0002a0 d5 0a b5 bd 5e 5f 0d 3e bb ec 3f be 49 8e fe 3c
       -0.08839957 0.13805911 -0.1874265 0.031073706
0002b0 38 0e fe bd 74 8f 17 3e 78 35 df 3d 0b 6d 8c 3d
       -0.12405056 0.14800817 0.1089887 0.06856736
0002c0 09 fe 30 3e 00 1f aa bd dc 0a 07 3d 5d 97 67 be
       0.17284407 -0.08306694 0.03296934 -0.22616334
0002d0 42 4d d7 3d ff 2b bf bd 85 38 76 3d d0 5d 22 bc
       0.10512783 -0.093345635 0.060112495 -0.009910062
0002e0 b0 48 04 3e f1 de 08 3b c1 bf a2 bd 5e 24 59 be
       0.12918353 0.0020884837 -0.079467304 -0.21205279
0002f0 e3 25 9d 3d 77 bc f6 bd d2 f5 29 be db 96 c7 bd
       0.07673242 -0.120476656 -0.1659768 -0.0974557
000300 32 05 dc bc 08 e4 5d bd 48 00 bf bd 98 0f dd 3c
       -0.026857946 -0.054172546 -0.093262255 0.026984975
000310 fd b7 6d 3c d6 7f 56 3e 5a 82 7e 3d 0a 20 82 3d
       0.014509198 0.20947203 0.06213603 0.06353767
000320 5c e1 59 3e 01 7a 19 3d 65 32 05 be ef a9 86 bd
       0.21277374 0.037469868 -0.13007505 -0.06575381
000330 4a 54 8f 3c 0c 4b 22 be 48 32 6b bc 07 6b 11 be
       0.017496247 -0.1584894 -0.01435525 -0.14200984
000340 5f c3 8c 3d 38 77 62 3e 3e f8 6e 3d 5e d8 1d be
       0.068732016 0.22115791 0.05834221 -0.15414569
000350 d5 25 4a 3e 4c a1 4c 3e 7f 25 0e 3e c4 a8 94 3d
       0.19740994 0.19983405 0.13881491 0.07258752
000360 ca d3 93 3d 96 e5 0e 3d 01 8c 84 bd e4 1f 42 3c
       0.0721813 0.03488692 -0.06472016 0.011848424
000370 ad f4 c5 3c 07 0e d1 bd 58 f5 8a bd 72 d0 90 bd
       0.024164522 -0.10207754 -0.06785077 -0.07071008
000380 7f ba 0b 3e ab 1b 25 3a 62 3d 32 be 26 7d fa 3c
       0.13645361 0.00062983733 -0.17406228 0.030577254
000390 5c 6d 81 3d 45 aa 40 3d 9f 38 50 be 64 21 8a 3d
       0.06319687 0.04703738 -0.20334099 0.0674465
0003a0 19 da 52 3d 34 c6 1d 3b db d6 bf 3c bd 58 3e 3e
       0.051477525 0.0024074437 0.02341788 0.18588538
0003b0 d2 9a 6d 3c b3 04 06 3e 60 ed d4 3b 62 a6 c5 bd
       0.014502244 0.1308773 0.006498024 -0.09650876
0003c0 08 79 58 3e ba 64 a2 3d fe 2f 62 bd 6b 36 38 3e
       0.2113992 0.07929368 -0.05522155 0.17989509
0003d0 31 4b 6a be 77 ab b3 bd 11 b7 dc 3c d3 e1 46 3e
       -0.22880246 -0.08772939 0.026942762 0.19422083
0003e0 40 c6 fc bd ac 5e 3b be 4d 6c 48 be cb 6d fb bd
       -0.12342501 -0.18297833 -0.19572563 -0.12276801
0003f0 07 b3 3a 3d fc b6 43 3e 60 5f 5c be d8 70 13 be
       0.04558089 0.19112772 -0.21520758 -0.14398515

bias f4 [32]
000000 3f 74 4d bd d8 1f d0 bc 22 d3 86 3a fb af 93 bd
       -0.05015969 -0.02540581 0.0010286311 -0.072113
000010 7f e1 25 3d 9a c9 d9 3d 43 b3 10 3e 00 fa c4 3d
       0.040498253 0.106341556 0.14130883 0.09617996
000020 6b 3c 4e 3e 93 45 f5 bd 01 cd d3 3b 0f 63 c0 3d
       0.20140235 -0.11976161 0.0064636474 0.09393894
000030 1d 2c 16 3b ff f3 74 bd d3 cd f7 3d b2 7b c6 bc
       0.0022914477 -0.059803005 0.12099805 -0.024228904
000040 ea 2b 4a be f3 c7 23 3c 23 65 8d 3d 0a db 46 3e
       -0.19743314 0.009996402 0.06904056 0.19419494
000050 80 f6 6b 3d 91 6d 17 3e e5 ae 3d 3e b6 9c 61 3d
       0.057608128 0.1478789 0.18523748 0.05508109
000060 79 91 da bd e3 70 38 be c4 96 e6 3d 54 03 4e be
       -0.10672278 -0.18011813 0.11259225 -0.20118457
000070 1f 44 6f 3d 5e 8b 37 be a4 77 29 be 1b 6c 25 3d
       0.058414575 -0.17924258 -0.16549546 0.0403863

weight f4 [64, 32, 3]
000000 02 b2 95 bc 75 1f 39 3c 85 0b 52 bc 67 55 0c 3c
       -0.018273357 0.011299004 -0.012820129 0.008565283
000010 76 e7 88 3d 9f 96 63 3d 5d 0e b4 3c 5b 17 85 3d
       0.06684773 0.055563565 0.021979505 0.06498595
000020 dd f5 69 3d 0d f5 8d 3d 85 36 fa 3c e6 96 ae 3d
       0.05711924 0.06931505 0.030543575 0.08524875
000030 c3 f8 6b bd c2 10 76 bd 27 8d 0f 3d 7e f7 f4 bc
       -0.057610285 -0.060074575 0.035046723 -0.02990317
000040 80 39 46 bc ae df 2b 3d 5a 21 2d bd 5b 9d b7 3d
       -0.01209867 0.041961364 -0.042268135 0.0896556
000050 c5 51 b8 bc 20 f5 bf bd 8b b1 36 3b eb 25 56 3d
       -0.022499928 -0.09372926 0.002787682 0.052282255
000060 02 5a ca 3d af f7 ba bd 62 50 b3 3d 93 32 83 3d
       0.09880449 -0.09129273 0.08755566 0.06406131
000070 1f b0 62 bd 16 99 31 3d de 1e c4 3d c0 9e 85 bd
       -0.055343743 0.043358885 0.095762 -0.0652442
000080 c0 1c d2 3c 0c fc b3 3c f3 87 9f bd 0f db 28 3d
       0.025648475 0.021970771 -0.07789602 0.041224536
000090 24 b2 38 3c 05 14 0d 3d f4 b1 0f 3d d8 8f d4 bd
       0.011272941 0.03444292 0.03508182 -0.103789985
0000a0 52 ea c4 3b 5c 4f aa bd f2 f6 d3 bb 95 b6 a6 bd
       0.0060093785 -0.08315918 -0.006468647 -0.081402935
0000b0 88 85 c0 3d 9f 92 bf bd 09 fc c4 bc da ff 03 3d
       0.09400469 -0.09354138 -0.024045961 0.03222642
0000c0 6a 6e 98 bc 23 91 2a 3d 06 d6 82 bd d7 f4 96 3d
       -0.018607337 0.04164232 -0.06388478 0.07370918
0000d0 2d f4 82 bd fd 6f bf bd d4 d9 da bb 4f e4 ea 3c
       -0.06394229 -0.09347532 -0.006678799 0.02867332
0000e0 97 4b 9d 3d c5 13 b3 3d 2e a3 b7 bd 6f 9d a0 bd
       0.07680433 0.08744005 -0.08966671 -0.07842528
0000f0 8a 69 ae bd f7 85 7e 3d bb af 86 bd ed f7 a1 bd
       -0.08516224 0.062139478 -0.06576487 -0.07908616
000100 84 b9 4a bd 53 fa 5b 3d e3 fb 12 3d f4 ba 02 3d
       -0.049493328 0.053705525 0.03588475 0.031916574
000110 52 67 4b bd 4c c2 b8 bd b3 1a 9d bd 19 97 92 3d
       -0.04965908 -0.09021434 -0.07671108 0.07157726
000120 6e fa 86 bd 77 f1 87 bd 64 f3 d8 3c d7 da 1a bd
       -0.065907344 -0.06637853 0.026483245 -0.03780636
000130 89 21 c6 bd 9c 4b 9a bd 20 3f a4 3d d8 56 af 3d
       -0.09674365 -0.075339526 0.08019853 0.08561486
000140 23 f9 a2 bc 35 ff 58 bc 01 f7 42 bd 21 0c 07 3d
       -0.019894188 -0.01324444 -0.047598843 0.03297055
000150 cf fa 68 bd 63 34 d1 bd aa b5 b4 bd d5 97 59 3d
       -0.056879815 -0.1021507 -0.08823712 0.053123314
000160 d3 7d a7 3d 61 d1 38 bc a6 bb 01 bd 25 41 99 3d
       0.08178296 -0.011280389 -0.031673096 0.074831285
000170 a1 21 81 bc 5e 63 a1 3d 7d 7d 79 bd d9 aa 05 ba
       -0.015763106 0.07880281 -0.06091069 -0.00050990056
000180 0f e2 5a 3c 0c bf 82 bc 10 9a 52 3d a8 b5 a0 3c
       0.013359561 -0.015960239 0.051416457 0.01961787
000190 91 1e a7 bd fb ee c0 bd 73 29 b0 3d 90 90 87 bd
       -0.08160127 -0.09420582 0.08601656 -0.0661937
0001a0 6c 57 d4 3c db e2 f2 3c 39 38 80 b9 fe 25 99 3c
       0.025920592 0.029649189 -0.00024455952 0.018694874
0001b0 7b de 92 bd 4d 64 94 bc 8f 32 bc 3d 4d a0 98 bd
       -0.07171341 -0.018114233 0.09189331 -0.0745245
0001c0 55 5c 41 3d 89 f8 02 bc 1d fc 9b 3d 8d 14 d8 3b
       0.047207195 -0.007993826 0.07616446 0.0065942467
0001d0 7a 69 72 3c b5 bd 10 3b 7f 98 92 3d 75 ad 6f 3d
       0.014795655 0.002208573 0.071579926 0.05851503
0001e0 10 ef bd 3d f0 c8 15 bd 25 90 71 bd ec 31 16 3d
       0.09274113 -0.036568582 -0.058975358 0.036668703
0001f0 ad 8b d1 bc c3 6f d1 bc fc 51 92 bb c7 98 b8 3d
       -0.025579298 -0.025565987 -0.0044653397 0.09013515
000200 b7 4c 42 3d 6d ef ba 3d 28 35 6d bd e8 d3 31 bb
       0.047436442 0.09127698 -0.057912022 -0.0027134363
000210 2f bd 97 bc 30 76 76 bb 3d b0 94 bb d7 8e fc bb
       -0.018522827 -0.0037607066 -0.004537611 -0.0077074575
000220 4e da 97 bd 7e 0a e3 bd 32 bf fe bc 4a 33 ed bb
       -0.07414685 -0.110859856 -0.031097028 -0.00723878
000230 27 fb 31 bd 72 cc 94 bd 92 c5 3b 3c 52 63 99 bd
       -0.04345241 -0.07265557 0.011460679 -0.07489647
000240 72 99 6b bc da 51 83 bc fa 73 4f bd 19 85 63 bd
       -0.014379846 -0.01603024 -0.050647713 -0.055546854
000250 30 e3 ae bd a0 4d 12 bd 2b 9d 8b 3d 9d a1 b8 3c
       -0.08539426 -0.03571856 0.06817087 0.022538
000260 16 73 ac 3d 05 9e 5b bd 06 84 4b bd 9e 7d 2a 3b
       0.084203884 -0.053617496 -0.049686454 0.0026014815
000270 9b aa 2d 3d f3 3b 36 bc 27 74 33 ba de f8 5e bd
       0.04239903 -0.011122691 -0.0006845616 -0.054436557
000280 3d 0b d5 3d a3 6e 6b 3d c8 ac b4 3d 54 8a 58 3c
       0.10402534 0.05747856 0.08822018 0.013216574
000290 76 6a 91 bd 96 dc 7e 3d 6b f9 cb 3c 7c ac 2c bb
       -0.07100384 0.062222086 0.024899205 -0.0026347926
0002a0 8c 4d 59 3d 14 21 4d 3d 3b 30 ac bd 3b 57 07 3d
       0.05305247 0.050080374 -0.08407637 0.033042174
0002b0 a3 73 c1 bd 4a 13 34 bd 90 75 28 3c f1 63 cb 3d
       -0.09445884 -0.043963708 0.010281935 0.09931172
0002c0 84 ca a1 bd af 18 0a 3d f1 25 0f 3d 40 91 8a 3d
       -0.07899955 0.033714946 0.034948293 0.067659855
0002d0 f0 13 b9 bd c1 48 ab 3c 05 6b 69 3d b1 a6 72 3d
       -0.09037006 0.020908715 0.056986827 0.059241
0002e0 43 6c 85 3d 3c c2 a7 3d f7 c7 b3 3d f1 af 4d bd
       0.0651479 0.08191344 0.08778375 -0.05021662
0002f0 4e b5 bc bd 8b 63 84 bc 2e 48 52 bd cc 1b 27 3d
       -0.092142686 -0.016160747 -0.051338367 0.040797994
000300 ad a6 95 bc 18 79 7e bd 53 d2 8f 3b c7 06 0a 3d
       -0.018267954 -0.062127203 0.0043890863 0.03369787
000310 7f 6f 08 bc 16 54 04 3b 1f 0a 8c bc a5 4b 67 3d
       -0.008327364 0.002019172 -0.01709467 0.056468625
000320 ca 15 b6 bd 04 ba ce bd 13 69 0a 3d 57 88 45 3d
       -0.08890875 -0.100940734 0.033791613 0.048225727
000330 c5 62 32 bd f0 c6 a9 bd c7 b3 82 3d 15 77 af bd
       -0.043551225 -0.082898974 0.06381946 -0.08567635
000340 47 bd 26 bc b5 35 28 3c dd 67 b7 3d aa 6b 73 bd
       -0.010176963 0.010266711 0.08955357 -0.05942885
000350 38 e8 89 3d f7 bd 69 bc 8d 51 b1 bd 2e 62 84 bd
       0.06733745 -0.014266483 -0.08658133 -0.06464039
000360 3a 1d f8 3c 61 77 11 3d 83 47 73 bc 7f 4a 10 3d
       0.030287374 0.03551424 -0.014848593 0.035227295
000370 e4 cf ac 3d 1b 99 8e 3c b3 46 38 3d 26 33 2c bc
       0.084380895 0.01740699 0.0449893 -0.010510242
000380 43 42 be 3d d6 7a 89 bc a6 6c 9c bd b9 39 d3 3c
       0.09289982 -0.016782206 -0.076379105 0.02578436
000390 c8 50 4d bd ff 87 6e bd 84 d7 8c bd 30 4c 54 bd
       -0.050125867 -0.058235165 -0.06877044 -0.05183047
0003a0 c2 23 17 3d af 19 a1 3d ac 48 94 bd 1e 25 8c 3d
       0.036899336 0.07866227 -0.072404236 0.06843017
0003b0 b2 f2 b3 3c 33 54 f1 bc 4b da 30 bd 08 10 d1 3c
       0.021966312 -0.029459095 -0.04317693 0.02552034
0003c0 8d 0e d9 3c 8a 78 e2 bc e0 6f 20 bd 96 e0 3a 3c
       0.026496196 -0.027645368 -0.039169192 0.0114060845
0003d0 a4 68 ab 3d 28 90 76 3d 70 e3 7b bd 24 85 4b 3c
       0.08369568 0.060196072 -0.0614962 0.01242188
0003e0 e1 e8 91 bb f9 7f 3e 3d 56 4c 68 bd 0b f3 a8 bd
       -0.00445281 0.046508763 -0.056713425 -0.08249482
0003f0 ba 40 61 3d 9f 48 2b 3b eb 61 26 3d 6b 83 63 3b
       0.05499337 0.0026135815 0.040620726 0.0034715782

bias f4 [64]
000000 46 1b 77 bd 4c 67 82 3d 10 de 5f 3d 78 3c 47 3b
       -0.060328744 0.063673586 0.054655135 0.0030401032
000010 dd cf 4f bc c2 fe 30 bd c8 af b9 3d 44 17 c7 bd
       -0.012683836 -0.043211706 0.09066731 -0.097212344
000020 14 31 24 3d 72 b2 38 bd c0 d5 6c 3d 51 9b 4b 3d
       0.040085867 -0.045092054 0.057821035 0.04970867
000030 6e 2e 1c b9 37 7a 76 bd 2d 17 f7 3c b4 ab c8 bc
       -0.00014894616 -0.060175147 0.030162418 -0.024495937
000040 51 87 b7 3d 8b 3a 89 3d 59 ba fd 3c f1 9a 8f 3d
       0.089613564 0.06700619 0.030972647 0.070119746
000050 06 37 44 bd ec 6b bc 3c 70 69 7c bc 30 f8 79 3d
       -0.047904037 0.02300068 -0.015405998 0.061027706
000060 96 e2 aa bd cf 8f 00 3c 5e b5 77 bd 09 f6 be 3d
       -0.08343999 0.007846787 -0.0604757 0.09324271
000070 0d 86 07 3d 9a 2c 57 3d 2f 7e 96 3d d9 24 7b bc
       0.033086825 0.05253277 0.07348286 -0.015328609
000080 e3 a1 38 3d 7a 5f f1 bc 42 1a b9 3d 17 1b 2b bc
       0.045076262 -0.029464472 0.090382114 -0.01044347
000090 46 4a 95 3c 99 fd c7 3d 60 53 34 bc 3f c4 ab bd
       0.018223893 0.09765167 -0.011006206 -0.0838704
0000a0 0f 2e 20 bd dc 02 94 3a 11 39 a9 3d 79 50 88 3c
       -0.039106425 0.0011292356 0.08262838 0.016639935
0000b0 d4 1c bf bc 34 39 19 bd ba 83 b2 bd e5 d6 39 3d
       -0.023329176 -0.03740807 -0.08716531 0.045370955
0000c0 a0 33 ae bd 69 41 83 3d 84 cf 24 bd 53 ee 39 bd
       -0.085059404 0.0640896 -0.040236965 -0.0453933
0000d0 d3 08 f0 3c 2f a5 51 3d e7 f6 8f bd d2 98 00 3c
       0.029301083 0.051182922 -0.07029515 0.007848935
0000e0 bd 41 8c 3d 75 bd 96 bc 3b 80 60 bd 42 ff c4 3d
       0.06848476 -0.018400887 -0.05480979 0.09618999
0000f0 01 06 d9 bd 4b 0c f2 bc 82 14 e1 bd d7 39 a0 bd
       -0.10596848 -0.029546877 -0.1099024 -0.07823532

weight f4 [32, 64, 3]
000000 35 ad 37 bd 2d ba f5 3c c4 c6 72 bb 97 b1 e8 3c
       -0.044842917 0.029996002 -0.0037044743 0.028404994
000010 06 b1 2b 3c f9 71 ed bc 85 0f 82 3d 9c 17 6d 3d
       0.010479217 -0.02898501 0.06350616 0.057883844
000020 b4 0a 8e 3b e2 7b aa 37 66 6c c2 3c 89 55 77 3d
       0.004334772 2.0323267e-05 0.023733329 0.060384307
000030 56 28 90 3d e0 e0 c4 bc f6 7f 47 3d 13 b9 14 bb
       0.070389435 -0.02403301 0.048706017 -0.002269332
000040 bc c6 06 bd 56 be 3e bd f1 6c d8 3c 35 49 19 3c
       -0.03290437 -0.046568237 0.026419135 0.009355833
000050 2b b0 98 bd 29 b9 b1 bc 4c d3 ae 3d 46 9b 25 3d
       -0.074554764 -0.021694737 0.085363954 0.040431283
000060 95 4c 15 3b 2f a2 c4 3c a5 a5 1f bd 8b de 50 bd
       0.0022781242 0.024003116 -0.03897633 -0.050993484
000070 b3 f5 9a bd 2a 0e 3b 3c 61 e6 08 bd c8 db 85 bd
       -0.07566395 0.011416951 -0.03342283 -0.065360606
000080 d7 fa 7f bc 74 f7 57 3c 1a 5c ba bb 1b 5b 13 bc
       -0.01562377 0.013181556 -0.005687249 -0.008993889
000090 d8 79 7b bd 6a 10 83 bd 1e e2 1a 3d 1e ed 9f bc
       -0.061395496 -0.06399615 0.0378133 -0.019522246
0000a0 a1 c6 b2 3c 34 4d b5 3d 7e f4 ec bb 10 7f a9 bc
       0.02182323 0.08852616 -0.007231294 -0.020690471
0000b0 03 30 03 bd 03 6e f1 bd 9e d0 03 be fa e0 4d bd
       -0.03202821 -0.11788561 -0.1287255 -0.050263382
0000c0 58 d9 37 bc 77 84 f1 3b 57 05 fd 3c a3 d9 5a bd
       -0.011221252 0.0073705274 0.030886335 -0.05343021
0000d0 cc 6b f6 bc 78 94 58 bd 08 ec 84 b9 5a 4b a9 3d
       -0.030080698 -0.052875966 -0.0002535286 0.08266325
0000e0 f1 05 3a bc 19 47 cc 3c 03 fc 3f 3c b7 dd 81 3d
       -0.011353956 0.024936246 0.011717799 0.06341117
0000f0 3b cb 21 3d a2 bf 7e 3d d4 c5 b6 3b d5 a6 d2 bc
       0.039500456 0.062194474 0.005577782 -0.025714317
000100 46 28 ad bc 74 5a e6 3c 84 62 4f 3d b2 80 59 bd
       -0.021137368 0.028119303 0.05063106 -0.05310125
000110 aa 6c 87 3c 40 6f 83 bc 46 f7 fd bb 49 c8 fe bc
       0.016531307 -0.01604426 -0.0077504246 -0.031101363
000120 c3 02 64 3c b3 a5 4b bd 7f 27 e1 3b ac f9 67 3c
       0.013916674 -0.04971857 0.0068711634 0.0141586475
000130 a6 31 be bc 2c db 3d 3d af 03 d8 3c 4a a4 01 bd
       -0.023217034 0.046351597 0.026368944 -0.03165082
000140 95 e5 4c bd e6 c4 3d bd 7b 46 83 bc 88 ef a4 3c
       -0.050023634 -0.046330355 -0.016024819 0.020133749
000150 bd 06 43 3d 22 2c f9 bc e1 b1 7b 3d e2 af 81 3d
       0.047613848 -0.030416552 0.061448935 0.06332375
000160 48 dc f3 3c df 24 9c bc e6 f0 89 bd 4e 64 67 3d
       0.029768124 -0.01906055 -0.06735401 0.056492142
000170 de 91 d6 bc 04 4b a0 bd 2f d7 51 bc 23 31 6c bb
       -0.026192602 -0.07826808 -0.012807651 -0.003604003
000180 3f 1f 25 3d 0d 9e 6d 3d 37 81 52 3d d8 d1 c2 bc
       0.040313 0.058012057 0.05139276 -0.023781702
000190 fd d0 3b bd 3a ee 84 bc ef ad 64 bc 30 aa 23 3d
       -0.045853604 -0.016226877 -0.013957485 0.039957225
0001a0 e9 30 09 3d 5a 4e 32 bd 56 a4 21 3d e8 d4 9f bb
       0.03349391 -0.043531753 0.039463364 -0.0048776753
0001b0 0f 41 7f bd e5 12 bc bd 51 3e ab bc 9d 40 1e bd
       -0.062317904 -0.09183291 -0.020903738 -0.03863584
0001c0 41 e0 02 bd 55 52 28 bd 48 85 4f 3d bf 34 5e 3d
       -0.031952146 -0.041094143 0.050664216 0.05424952
0001d0 6d 5a 5c 3c cc 7d 21 3d b0 03 4a bd ae e7 77 3d
       0.013449294 0.03942661 -0.049319923 0.06052368
0001e0 7e 36 0c 3d de 5d 47 3c ab ed 84 3c 47 a0 0d 3c
       0.034231655 0.012168376 0.01622661 0.00864417
0001f0 57 d3 73 bd 11 41 54 3d 3f bc 8e 3d 09 fc 0f 3d
       -0.05952772 0.051819865 0.06969499 0.03515247
000200 d7 99 88 3d fc b6 12 3c 71 a2 60 bd a9 5b d0 3c
       0.066699676 0.00895476 -0.054842416 0.025434332
000210 74 8c 13 bd df d6 71 3c 8c c7 64 bd 63 5a 6d 3d
       -0.03602262 0.014760702 -0.055854365 0.057947528
000220 0c e7 51 3c e8 ae 73 bd b5 3a 5f bd 82 cd 7e 3d
       0.0128114335 -0.059492975 -0.054499347 0.062207706
000230 f2 6c d0 bc 04 f8 fb bc dc 94 16 bc e2 1e bd bc
       -0.025442574 -0.030757912 -0.009190764 -0.023086015
000240 b5 dd dd 3b 04 55 23 bd a3 d5 5d bd 94 5c 6c 3d
       0.0067708143 -0.039876 -0.054158818 0.057705477
000250 6d 00 8c 3c 83 85 18 bd be e8 82 bc 13 a7 8f 3d
       0.017090047 -0.0372367 -0.01598012 0.07014289
000260 e3 3d c6 bc d7 c5 03 3d 6c c7 3d ba 62 fc a8 3d
       -0.024199432 0.032171097 -0.0007239494 0.08251263
000270 de ed 93 3d a7 02 f4 3b 1f c4 91 bb 62 7d d6 bd
       0.07223104 0.0074466052 -0.0044484283 -0.104731336
000280 d3 30 99 bd da 85 11 3c a5 31 53 3d 01 fa 05 3d
       -0.074800156 0.00888201 0.051561017 0.032709125
000290 38 d2 6c 3c 0c 6b 16 bd 48 91 c9 3b 5e 30 15 3c
       0.014454417 -0.03672318 0.006151352 0.00910577
0002a0 6c b8 0b bd 45 d4 a1 3c 17 13 54 bd 9f 96 2d 3d
       -0.034111425 0.019754538 -0.051776018 0.04237997
0002b0 67 09 36 3d 6e 5c 33 3d 60 3c 35 bd 65 d5 a2 3b
       0.04444256 0.04378932 -0.04424703 0.0049692863
0002c0 4a 77 47 3d 3d c9 85 3c c4 17 35 3d cb 36 b4 bc
       0.048697747 0.01633131 0.044212118 -0.021998784
0002d0 9a 17 85 bd 23 94 08 bc d1 ec 3e 3d b5 ce 75 3d
       -0.06498642 -0.0083361 0.046612564 0.060011584
0002e0 7d b0 c7 bc cc c7 39 bd 50 12 78 bc 43 a6 82 bc
       -0.024376148 -0.045356557 -0.015141085 -0.01594842
0002f0 03 00 05 bd 8f 35 ad 3c 1e 80 6d bd 5a 0f 24 bc
       -0.032470714 0.021143703 -0.05798351 -0.010013426
000300 97 f5 8d 3d 28 0f 2d 3d 31 16 ee 3c 6f 0a b8 3b
       0.06931608 0.042250782 0.029063316 0.005616478
000310 44 ce be 3c cb 2f 97 bc c1 d9 ac 39 58 7d 3e 3b
       0.023291714 -0.018455407 0.00032968636 0.002906641
000320 40 16 55 3d 57 ee 91 3d 49 75 34 bc 8b 95 2e 3b
       0.052023172 0.07125538 -0.011014291 0.0026639428
000330 9e f6 6e 3d 8f 3b 68 3c 84 0b 5a 3d 6c fb e8 bc
       0.05834066 0.014174356 0.05323364 -0.0284402
000340 b8 98 fd bc 79 35 a5 3c 23 33 be 3c 62 5c 0a 3c
       -0.030956611 0.0201671 0.023217743 0.008444877
000350 42 33 1e bd c6 4f a8 bd 21 20 c1 3c 58 39 90 bd
       -0.038623102 -0.082183406 0.02357489 -0.070421875
000360 78 f8 07 3c e1 8e 9c 3c eb de a8 bc 3e 88 07 3d
       0.008298986 0.019111099 -0.020614108 0.033088915
000370 29 d9 cf 3c d5 db 0a bd 00 a0 56 3d cf 36 8b 3d
       0.025372105 -0.033901054 0.05239868 0.06797563
000380 79 b9 64 3d 61 bf 10 ba 70 91 c4 bc 9d 87 00 3d
       0.055840943 -0.0005521682 -0.023995131 0.03137933
000390 64 21 21 bd 3f fb f4 3c fb c6 66 3d b4 f3 6c 3d
       -0.039338484 0.02990496 0.056342106 0.0578496
0003a0 29 ae 36 3d 06 17 cf bb 34 8b 32 bd d5 d2 5f bd
       0.044599686 -0.0063198833 -0.043589786 -0.054644424
0003b0 cf be 79 bd ed 61 a1 bb de fa 83 3c 14 03 91 bd
       -0.060972985 -0.0049250037 0.016110834 -0.07080665
0003c0 bb 08 75 3d 42 bf 98 3d 59 cb 10 3c 52 e9 a2 bb
       0.05982278 0.074583545 0.008837544 -0.0049716616
0003d0 ac 00 f4 3c b8 94 55 bd 62 0f 6b 3d 40 90 a2 b9
       0.029785477 -0.052143782 0.057387717 -0.00031006522
0003e0 0a 24 ee bc 91 13 38 bc ca ce 17 bd 4e 75 a5 3c
       -0.02906992 -0.011235134 -0.037062444 0.020197537
0003f0 a3 39 10 3c 33 79 0b 3d 42 d5 6b 3d 04 f3 85 bd
       0.008802804 0.03405113 0.057576425 -0.06540492

bias f4 [32]
000000 33 84 61 3d d7 6c 54 3d 67 52 ea 3c 5b 51 c0 3c
       0.055057716 0.05186161 0.028603746 0.023476293
000010 3d 7e 6c bc f1 47 55 bc 08 b5 70 3d ec 4c 53 3d
       -0.014434394 -0.01301764 0.058766395 0.05158703
000020 7b cc 82 bd 72 35 82 3d 37 85 a7 bb 6a 11 cb bc
       -0.06386658 0.0635785 -0.005112316 -0.024788577
000030 ab b5 ad b9 1c 50 88 bd db 52 3e 3d 89 c9 48 bd
       -0.00033132485 -0.06655905 0.046465736 -0.049020324
000040 06 48 18 bd 79 dd 76 bd d3 fa 8f bb ac f3 a9 3c
       -0.037178062 -0.060269807 -0.0043939142 0.020746075
000050 95 50 a7 3b 4e fd 8f bd 6f cd 83 bd 28 e5 ec 3c
       0.0051060417 -0.07030736 -0.06435668 0.028917864
000060 48 c4 83 3c 06 65 16 bc 89 bf 00 3d 74 e6 8a 3d
       0.016084805 -0.009179359 0.031432662 0.06782237
000070 44 9b 4b 3d 04 c3 64 bc b2 58 46 bd 69 c2 47 3d
       0.04970862 -0.013962511 -0.04842443 0.04876939

weight f4 [32, 64]
000000 b6 10 90 3d 6b c7 8d bd fe 03 7d 3d 2b 37 8b 3d
       0.07034437 -0.069228016 0.061771385 0.06797632
000010 3a 29 c6 3d f4 03 40 3c b3 1b 20 bd 77 c8 4c 3d
       0.09675832 0.0117196925 -0.039088916 0.049995866
000020 72 9e 5c 3d db 6c a7 3c 9d d4 0b bc 27 91 f3 bd
       0.053862043 0.020437649 -0.008534578 -0.1189292
000030 df d3 64 3c 2e 07 73 3d 5a 5e 73 3d 9c 1c da bd
       0.01396653 0.05933302 0.059416153 -0.10649988
000040 c6 fd a0 bd 46 c1 b5 bd bf 41 04 bd b3 0f e8 3d
       -0.078609034 -0.088747546 -0.032289263 0.113311194
000050 cd 75 48 bc f0 99 24 3d 5c a8 0d 3d 00 78 ce 3d
       -0.012235117 0.04018587 0.034584388 0.10081482
000060 70 5f 20 3d 90 cb af 3c be 9a ce bd 9b 8d e8 bc
       0.039153516 0.02145937 -0.100881085 -0.028387835
000070 3c b9 d6 bc 04 1b cc bd 39 c1 ca 3d 11 97 49 bd
       -0.026211374 -0.0996609 0.099001355 -0.049216334
000080 a3 78 ce bd 62 48 df bd 0e 09 81 3d 35 07 b3 3d
       -0.100816034 -0.10902478 0.06300555 0.08741609
000090 12 e9 8d 3d a8 16 dd 3d 59 65 a7 3d df 19 95 3d
       0.0692922 0.10795337 0.081736274 0.07280325
0000a0 cc 90 cd 3d be 01 f8 3d d8 41 8b ba 32 84 f0 bd
       0.100373834 0.12109707 -0.0010624481 -0.11743964
0000b0 91 d1 de 3d 17 56 bc 3d ce 07 28 bd 61 ed 90 bd
       0.10879815 0.09196108 -0.041023068 -0.070765264
0000c0 5d 0b 9f bc 6c 1e b5 3d 34 2b ea 3c 29 5b cf 3c
       -0.019414598 0.08843693 0.028585054 0.025312023
0000d0 cb 1c e8 bc 98 80 71 3d 55 a6 1b 3e b5 7b e1 bd
       -0.028334042 0.058960527 0.1520017 -0.11009923
0000e0 1c ab d2 3d 7f d2 ff 3d dd 3f 99 bc f1 99 84 3d
       0.10286543 0.12491321 -0.01870721 0.064746745
0000f0 06 b1 55 3d 67 81 b7 3c 2d 9e 0c 3a 1f f3 2a 3d
       0.052170776 0.022400571 0.0005364146 0.041735765
000100 6b 41 5d 3d 90 86 5a 3d e8 ea cb bd 42 40 86 3d
       0.054017466 0.053350985 -0.09956914 0.06555225
000110 f5 b4 9e 3c a8 76 90 3d 77 e9 a4 bd c2 e5 86 3d
       0.019373396 0.07053882 -0.080523424 0.065867916
000120 7e e9 2e bd fe 5c e9 bd 89 08 15 3e f3 36 44 3d
       -0.042703144 -0.1139469 0.14554037 0.047903966
000130 b3 24 74 3d 97 4e ae bc a6 f3 ab 3d 13 91 12 be
       0.05960531 -0.021277709 0.083960816 -0.14313154
000140 71 5d c1 3c 2f d2 0f 3d c0 0f 01 bd 40 48 92 3d
       0.023604127 0.035112556 -0.03150916 0.07142687
000150 8c 60 c1 bc 04 ce 50 bd 07 a7 82 ba 71 cf 88 3c
       -0.023605607 -0.05097772 -0.0009967991 0.016700478
000160 26 b5 fb 3d 56 0a a7 bd aa 58 d9 bc 4e 82 f3 bd
       0.12290411 -0.08156268 -0.026531536 -0.11890088
000170 fc e9 62 bc 43 bb ad bd 06 b5 e3 3d 3b 26 64 bb
       -0.013849732 -0.08482983 0.11118512 -0.0034812826
000180 cd a1 65 bd a6 0b bf bc 4e d5 94 bc 07 f6 eb bd
       -0.05606251 -0.023320984 -0.018168118 -0.11521535
000190 4a ea fc bd 00 d0 43 bd f6 10 b3 bd 7b 1a d9 3d
       -0.123493746 -0.047805786 -0.087434694 0.10600754
0001a0 48 06 3f 3d 25 51 ac 3c 1b 3b ae bc c9 ff 08 3d
       0.04663685 0.021034786 -0.021268418 0.03344706
0001b0 fc ca c4 3c 57 8e 17 3d a5 b7 03 be e3 61 5c 3d
       0.024022572 0.03700098 -0.12863024 0.05380429
0001c0 50 dc ed bd ac ab 1d bd 56 0a c9 3d 6e 1c 03 be
       -0.11614287 -0.038493797 0.098164245 -0.12803814
0001d0 e1 3f af 3d e0 35 53 3c 60 2b 32 3d 2a 91 db 3c
       0.08557106 0.012891263 0.043498397 0.026802618
0001e0 0f b3 85 3c b8 92 e4 3d 27 4e da 3b 7d da 8f 3d
       0.016320733 0.11160797 0.0066621485 0.07024095
0001f0 b6 a7 39 bd 28 81 cb 3d 30 b8 11 bd 76 16 83 3d
       -0.045325957 0.09936744 -0.035576046 0.064007685
000200 92 92 6c bc ab 16 28 bd de 7f 8d 3d 17 c7 87 bb
       -0.014439242 -0.041037243 0.06909154 -0.0041436064
000210 7e 05 a7 bd 21 56 3e bc fd 95 ac 3d 2f dc d6 3c
       -0.081553444 -0.011617214 0.084270455 0.026228039
000220 46 2f 1e 3d 67 c6 b9 3d 0d 9d 86 bb 22 94 93 bd
       0.038619302 0.09071045 -0.0041080774 -0.072059885
000230 7a 00 71 bd 78 ae 6c bd 66 13 ca 3d e1 86 23 3c
       -0.058838345 -0.057783574 0.09866981 0.009980888
000240 7f fa 57 3d c9 0d 97 bc ea 6c 19 3c be 55 dd bd
       0.052729126 -0.01843919 0.009364346 -0.1080737
000250 4e 32 96 bd 52 5e ce bd 0d 7d 9e 3c ac f8 a4 bc
       -0.073338136 -0.10076584 0.019346738 -0.020138107
000260 60 47 cd bd 1c cc d5 3d 9c d5 0d 3d 36 2e fa bc
       -0.10023379 0.104393214 0.034627542 -0.030539613
000270 a2 bb b5 3d f2 2c 8d 3d 60 05 88 bb da 94 95 bd
       0.08873679 0.06893338 -0.0041510314 -0.07303782
000280 45 a9 b8 3d ea bf 40 3d 84 5f 6c 3d 30 86 51 bd
       0.090166606 0.047058024 0.05770828 -0.05115336
000290 8f 2d 76 3d 26 84 b7 3d 0e 5c 07 bd 25 90 93 3d
       0.06010204 0.08960752 -0.033046775 0.07205228
0002a0 b2 35 b1 3d a9 a0 0d bd fe 1d b8 bd 59 25 d3 3d
       0.0865282 -0.034577046 -0.089900956 0.10309858
0002b0 54 f6 d0 bd 22 c2 aa 3d af c2 a2 bd c4 b7 c1 bb
       -0.10203233 0.08337809 -0.07947289 -0.005911799
0002c0 1b e1 21 3d cf 1e e3 bd 00 41 f4 3d f3 c0 b3 3d
       0.039521318 -0.11089861 0.1192646 0.087770365
0002d0 73 5f c2 bd 82 27 fd bd 22 e0 fa 3c d1 12 b9 3d
       -0.09490862 -0.12361051 0.030624453 0.09036792
0002e0 d0 b7 71 3d 5e 0e b1 3c 1d 91 2c 3d 6a ad 85 3d
       0.059013188 0.021613296 0.04213058 0.06527217
0002f0 b9 1e 0d 3e 58 59 f6 bd a5 fd c3 3d 9a e3 86 3d
       0.13781251 -0.1202876 0.09569863 0.0658638
000300 94 53 85 bc f1 02 6d bd d2 05 fe 3d 1b 6a f3 bd
       -0.016275205 -0.057864133 0.12403454 -0.118854724
000310 ef 63 ea bc 3f 6f c5 3d 7c 68 9d bd a1 60 11 bd
       -0.028612105 0.09640359 -0.076859444 -0.035492543
000320 c2 74 db 3c 32 ac 0d bd 7f a6 8c bd 6a c5 d5 bc
       0.026789073 -0.034588046 -0.06867694 -0.02609511
000330 1a 6b a6 3c c0 8e f1 3d 84 05 bb 3d f4 72 e1 3b
       0.020314742 0.117948055 0.091319114 0.0068801586
000340 01 33 d1 3d b0 26 df bd 27 92 2e 3c 5b 8b b3 3d
       0.10214806 -0.10896051 0.010654963 0.08766814
000350 d4 1d ec 3c a4 63 7e 3d 2c c4 ac 3d da 6d 31 3d
       0.028822817 0.062106743 0.08435854 0.043317653
000360 3a 26 0b be b8 b6 d4 3d 36 a9 f6 bd cd 52 d3 3c
       -0.13588801 0.10386413 -0.12043993 0.025796318
000370 3e 99 81 bd 83 b6 89 bc 6a 50 69 bd 21 b3 7b 3d
       -0.06328057 -0.016810661 -0.056961454 0.061450128
000380 85 1a d6 3d 52 de be bd a5 ac 48 3d d6 2f e0 bd
       0.10454277 -0.09319748 0.04899277 -0.10946624
000390 23 ff 75 bc dd 27 33 3d 50 f6 22 bd 0f 02 19 3d
       -0.015014443 0.04373919 -0.039785683 0.03735548
0003a0 47 c8 84 bd 8e 10 92 3d 41 1e b5 3d 5b 34 b7 3d
       -0.06483512 0.07132064 0.08843661 0.08945533
0003b0 65 5c 76 3d b9 79 8f bd 8f a2 a8 bd 3f 2e a0 3d
       0.060146708 -0.07005639 -0.082341306 0.07821321
0003c0 18 7e 61 3c e7 61 0a be 8a 20 aa bd ea 73 7b bd
       0.013762973 -0.1351391 -0.083069876 -0.06138984
0003d0 1c 39 d3 bd 20 57 28 3c 8d 10 c3 3d 47 19 be bd
       -0.10313627 0.0102746785 0.09524641 -0.09282165
0003e0 91 d5 f1 bd f1 1a b3 3d 48 b1 7e 3d 92 3a 0e 3d
       -0.11808313 0.08745373 0.062180787 0.034723826
0003f0 cd 7e 74 bd 7e e0 d1 bd d9 5c e3 bc 97 01 48 bb
       -0.05969124 -0.102478966 -0.027754234 -0.0030518526

bias f4 [32]
000000 d6 fa 0f 3c fe 48 94 3d bb b2 cf 3d 58 5c 8f bd
       0.008787831 0.07240485 0.10141512 -0.07000035
000010 48 c1 53 bc 14 a2 ae 3d b1 bf e5 bd 9f 10 e3 3a
       -0.0129245 0.08527008 -0.11218203 0.0017323679
000020 52 c1 18 3c 85 32 b4 3d 7f 46 ab bc 1d 9d 15 bd
       0.009323435 0.08798698 -0.020907639 -0.036526788
000030 1f 4a 29 bc bc 78 e9 bd 48 aa 34 3d ac 46 ac 3d
       -0.010332613 -0.113999814 0.044107705 0.08411917
000040 90 84 57 3d 70 d0 9a 3d ad e8 08 3d 98 a0 b7 3d
       0.052616656 0.075592875 0.033425022 0.08966178
000050 ed a5 e7 3d ad 90 99 bc ab ae 9d 3d 49 b6 06 3d
       0.11310945 -0.018745745 0.07699331 0.032888684
000060 b1 f9 61 3d 56 18 b7 3d e7 1b f1 bd f3 dc 18 bd
       0.055169765 0.089401886 -0.117729 -0.03732009
000070 a1 0d 13 3d 2e dc c0 3d 52 83 ca 3d ba 3e e6 bd
       0.03590167 0.09416996 0.098883286 -0.11242433

weight f4 [32, 32]
000000 a0 37 b1 3b a7 24 1b be 60 3c bb bc 22 ff 9a 3d
       0.0054082423 -0.151507 -0.022855937 0.07568194
000010 50 51 09 be 4a 93 b8 3d 38 09 12 be 90 d0 ab 3c
       -0.13409925 0.09012468 -0.14261329 0.020973474
000020 73 f2 95 bd 09 8a 0e be 92 b0 07 be e9 16 26 be
       -0.07321634 -0.13919844 -0.1325095 -0.16219677
000030 30 e2 63 3c ea 50 bd 3d bf d2 c0 bd db 17 fa bd
       0.013908908 0.09243949 -0.094151966 -0.12211581
000040 0a 92 e4 3d 5a d7 df 3d 80 da e4 3b 6f c0 2e 3e
       0.11160667 0.10929747 0.006984055 0.17065595
000050 c0 4f 2c 3b e8 ea a7 3c 2b 3a 15 be 20 a1 1d bd
       0.0026292652 0.020497754 -0.1457297 -0.03848374
000060 e0 3a 02 be 65 d4 ec bd ff cb 09 3e 18 12 14 be
       -0.12717772 -0.115639485 0.13456725 -0.14460027
000070 34 d1 ec bd 80 12 9d bb 47 fb a0 bd 28 50 38 bd
       -0.1156334 -0.004793465 -0.07860427 -0.044998318
000080 ae 1f 05 3d 1f 3d 41 be eb d8 e2 3d 37 90 62 bd
       0.032500915 -0.18870972 0.1107653 -0.055313315
000090 28 a6 0e be 79 88 1e 3e 58 fa 03 bd 7f c1 98 bd
       -0.13930571 0.15481748 -0.03222117 -0.074587815
0000a0 8e 4b 18 be df d1 12 be 3a 06 92 bd c6 8f 33 be
       -0.14872572 -0.14337872 -0.07130094 -0.17535314
0000b0 65 74 0a bd e8 2c 08 be 3e 10 49 bd 02 46 76 bd
       -0.03380241 -0.1329838 -0.049087755 -0.06012536
0000c0 56 54 9a 3b 53 9d 2f be 0f 1a 8c bd 15 e9 2f 3e
       0.0047097607 -0.17149858 -0.06840908 0.17178757
0000d0 be 31 ae 3d 2d 54 db bd d9 d0 19 be dd 72 31 3e
       0.08505581 -0.10709415 -0.15021075 0.17328973
0000e0 7b fb 28 be 69 41 0a 3e 24 99 ed 3d 74 49 a4 bd
       -0.16502182 0.13501514 0.11601475 -0.080218226
0000f0 e5 b7 0a bd fc 3c 3f be 36 2a 1e 3d 7b 0c ba 3d
       -0.03386678 -0.18675607 0.038614474 0.09084412
000100 19 c7 91 bd 2f 70 08 be db 01 82 3d 4c 82 b7 bd
       -0.07118053 -0.13324045 0.0634801 -0.08960399
000110 42 b9 34 3d e6 20 b0 3d b7 87 da bd bb fe 18 3e
       0.044121988 0.08600025 -0.10670417 0.14940922
000120 95 b0 fd bd 40 d6 13 3e ec af 6b bd 77 07 b7 3d
       -0.12387196 0.14437199 -0.05754082 0.08936971
000130 93 93 d7 bd d7 0f 12 3e 15 fa d1 bc 73 45 23 3d
       -0.105261944 0.14263855 -0.025631944 0.039861154
000140 af 68 16 3e e0 f3 aa 3d 21 cf b8 3c 16 9c 1c be
       0.14688371 0.08347297 0.022559704 -0.15293917
000150 48 60 62 bc e1 e6 ae bd f3 09 60 3d 01 fb 41 bd
       -0.013816901 -0.085401304 0.05469699 -0.047358517
000160 60 af ec 3c 7a e3 0b be 0d a6 c4 3d dc 14 1e 3e
       0.028892219 -0.13660994 0.09601984 0.15437645
000170 e1 e7 eb bd 57 f5 36 be 65 cd 1a 3e c0 6a aa bd
       -0.11518837 -0.17867027 0.15117414 -0.08321142
000180 87 3c db b8 a2 3a cd 3c 00 6e 8b 3d 65 2c d8 3d
       -0.00010454008 0.025052372 0.0680809 0.105553426
000190 b7 45 c5 bc fa 43 ff 3d 90 2f 17 bd ac 4a 31 3d
       -0.024081094 0.124641374 -0.036910594 0.043284103
0001a0 1e a1 82 3c 76 2b 89 3b aa 17 25 3e f5 b6 4a 3d
       0.015945967 0.004186089 0.16122308 0.049490888
0001b0 77 09 28 be 81 a1 b6 bc 96 d6 9c bd b5 8e c6 bd
       -0.1640986 -0.022293808 -0.076581165 -0.09695188
0001c0 4c 89 2b 3d 2e 66 cb 3d 67 91 e7 3d 53 1e 04 be
       0.041878983 0.099315986 0.1130703 -0.12902193
0001d0 3e ab d4 bd d3 8f d2 3d 90 19 db bd eb 0b 31 3d
       -0.10384224 0.102813385 -0.10698235 0.043224256
0001e0 fa a1 34 3e f2 78 74 bd 3d 88 b7 bd 7b 35 81 bc
       0.17639914 -0.059685655 -0.08961532 -0.015772572
0001f0 8a c7 26 bd 75 a1 f7 bb a3 44 82 3c 30 9f 24 3e
       -0.04071764 -0.007557089 0.01590187 0.1607635
000200 df fb 1e be 9c 4f 26 3d d5 7d b5 bd 16 5c cd 3d
       -0.15525769 0.040603265 -0.08861891 0.100273296
000210 51 5a b2 bd 80 e3 81 3a d0 7f ef bd d7 60 25 3e
       -0.08708633 0.0009909719 -0.116943 0.16150223
000220 73 c4 96 bd 18 07 91 3d 16 1b a2 3d b0 a5 53 bd
       -0.073616885 0.07081431 0.079153225 -0.051671684
000230 95 cc 03 be 46 9f d3 bd 42 7e ef 3d 99 cb 0a 3e
       -0.1287101 -0.10333113 0.11694004 0.13554229
000240 09 c6 10 be 93 44 13 3e 06 94 6d bd e5 51 0d 3e
       -0.14138044 0.14381628 -0.058002494 0.13800772
000250 c0 dd 7d 3c 7c f3 07 be 42 75 ec bd 4a 38 ab 3d
       0.015494764 -0.13276476 -0.11545803 0.08360346
000260 6b 98 21 3e ac 5d 2d bd a0 54 70 3d 05 80 0c be
       0.15780799 -0.04232566 0.058674455 -0.1372071
000270 44 83 16 be 88 57 97 bc 7f 6c 0a be 93 a8 fb bd
       -0.14698511 -0.018474355 -0.1351795 -0.12288012
000280 9c aa 2e 3e 75 c3 6c bd 44 bb 89 bd 66 3a aa 3d
       0.1705727 -0.05780359 -0.06725171 0.0831192
000290 60 6c f2 bd 7f 93 72 3d eb fb c3 bc ad 0a 11 3e
       -0.11837077 0.059222694 -0.023923835 0.14164229
0002a0 ed de 10 be 9f 74 b5 3d ea 8b 2a be ec 55 bf bd
       -0.1414754 0.08860134 -0.16654935 -0.0934256
0002b0 9e 97 ad 3d 50 e3 66 3c 98 2e db bd 79 32 b7 3d
       0.08476184 0.014092281 -0.107022464 0.08945174
0002c0 95 78 08 3e 38 6a 13 be e3 a5 28 3d 1e 8d 3e bd
       0.13327248 -0.14395988 0.041173827 -0.0465213
0002d0 7d 1e 0e be 82 fc d0 bd f5 44 27 3e c4 d7 22 be
       -0.13878818 -0.10204412 0.16334899 -0.1590262
0002e0 13 40 31 be 7f c9 57 3c 84 0a ff bd b7 d7 71 3d
       -0.17309599 0.013170599 -0.124531776 0.059043612
0002f0 4f 69 1b be 2f f3 84 3d 51 4b f2 bc 96 8a e3 ba
       -0.15176891 0.06491696 -0.02957693 -0.0017360027
000300 f4 2e 96 bd ac 0f 49 3d ee af a4 3d 70 b2 6f 3d
       -0.07333174 0.04908721 0.080413684 0.05851978
000310 67 11 0c 3e 10 c6 fd bd b8 2c 8a bc 1a 43 65 bd
       0.13678513 -0.12391293 -0.016867027 -0.055972196
000320 90 c0 05 3d 0c 74 58 bd 5a aa 80 3d 54 4e 6d 3d
       0.032654345 -0.052845046 0.06282492 0.057936028
000330 be cd 30 be e4 2c bd bd 5b e0 1a 3e 53 be 06 be
       -0.17265984 -0.09237078 0.15124647 -0.1315854
000340 22 38 de 3d c1 1d e7 bd 56 24 0b be e4 3b 30 3d
       0.1085055 -0.11284972 -0.1358808 0.043025866
000350 d8 84 dd bc d6 fd c9 bd 12 f3 f6 3d d0 f4 03 be
       -0.027040884 -0.098628685 0.12058081 -0.12886357
000360 5f ad 18 3e 35 ad 8d bd dc 5e 96 bd 6a 3b 2b be
       0.14909886 -0.06917802 -0.07342312 -0.16721883
000370 ac c3 2c 3d ab fe af bd 42 f8 16 be c8 26 6c 3d
       0.042178795 -0.08593496 -0.1474314 0.057654172
000380 57 9a 30 bd 5a 54 35 be 32 d3 1a 3d 71 0e 05 bd
       -0.04311594 -0.17707959 0.037799068 -0.032484476
000390 a4 e2 2f be f3 4f 21 be 3e 8a 0f be 0a 7a 30 bc
       -0.171763 -0.15753154 -0.14017579 -0.010771284
0003a0 bf 0b 0f 3e 5f c1 02 3c 00 cf ee bc 6c 36 bc 3c
       0.13969325 0.007980674 -0.02915144 0.02297517
0003b0 c2 ee 73 3d 68 8c 86 bc 5d 54 b6 bd c8 7e 62 3d
       0.05955387 -0.016424373 -0.0890281 0.05529669
0003c0 a7 c1 06 bd ee c3 9b bd 03 b9 fd 3d 20 18 2c 3e
       -0.032899525 -0.0760573 0.12388804 0.16806078
0003d0 c5 a8 0d bc 53 c7 32 be 48 78 1a 3e 1a 85 b8 bd
       -0.008646195 -0.17458849 0.15084946 -0.09009762
0003e0 97 5c 1c be 50 05 b2 3c 2b 5e a4 3d f6 3c 0c 3e
       -0.15269695 0.021731049 0.080257736 0.1369513
0003f0 c4 e4 04 be 71 d7 40 bd 84 db b0 bc 2a a9 75 bd
       -0.12977892 -0.04708046 -0.021589048 -0.05997578

bias f4 [32]
000000 57 ff 08 be 70 4d 13 be 2f 91 d3 bd ea 8a df 3d
       -0.13378654 -0.14385009 -0.10330426 0.10915168
000010 2a 44 a3 3d 0c 4e bf bc 8c 8e 4f 3d aa 8c 2c be
       0.07971986 -0.023352645 0.050673053 -0.16850534
000020 53 20 00 be d2 e4 95 3d 68 6f 8e 3d f3 f7 48 bc
       -0.1251233 0.07319035 0.06954843 -0.012266147
000030 00 25 b2 bc 26 86 e2 3d 10 01 05 3d 64 aa fa 3d
       -0.021746159 0.11060743 0.032471716 0.12239531
000040 9e 0b d5 3d 2a 4d 2a be ba c5 bc 3c 75 e4 81 3d
       0.104026064 -0.16630998 0.023043502 0.06342403
000050 2e 1d 90 3d f2 57 ec bd 3a 86 88 bb 03 33 0a 3e
       0.070368156 -0.11540212 -0.0041663917 0.13496022
000060 2b 48 94 3d 49 3f 1d 3e 88 63 1f be 86 f5 2f be
       0.072403274 0.15356173 -0.15565312 -0.17183504
000070 68 8a 87 3d 7f 9d c4 3c 14 c2 d7 bd 50 63 00 3c
       0.06618196 0.024000881 -0.10535064 0.007836178

weight f4 [32, 64]
000000 af ef fc bc 8d d0 de 3d 23 7c 03 be 89 4e 19 3d
       -0.030876009 0.10879622 -0.12840323 0.037428413
000010 02 65 84 3d bc 6f 7d bc 50 11 39 bd eb 11 43 bd
       0.06464578 -0.015468534 -0.045182526 -0.04762451
000020 7f f5 a9 3d 8e d2 08 3e b1 7c e3 bd 40 0b 57 3d
       0.08298778 0.1336157 -0.111077674 0.052500963
000030 0d 78 85 3b 0e 20 1f 3e 20 e6 05 ba 39 29 44 3d
       0.004073149 0.15539572 -0.00051078387 0.047890875
000040 18 0d 60 bc a1 88 b9 bc 8e f5 d1 3d 97 b8 2f bd
       -0.013674997 -0.022648158 0.10251914 -0.042900648
000050 4d 7c 3e 3c 12 a1 b2 bd 35 64 8f bd 3f b5 3c bc
       0.011626315 -0.08722128 -0.07001535 -0.011517822
000060 0c d3 02 3e ed 37 3e bd c5 9d cf bd 2e 54 34 3c
       0.1277582 -0.046440054 -0.10137514 0.011006398
000070 40 97 8d 3d b0 d6 95 3d 91 94 70 3d 9e 44 03 be
       0.06913614 0.07316339 0.058735434 -0.12819144
000080 40 92 bf bb 40 d8 28 3e 44 6b 8c bc 85 06 08 bb
       -0.005846292 0.16488743 -0.017140992 -0.002075584
000090 64 1f 1b bd 08 fa f2 bc 94 5b 17 3d 7a 93 66 bc
       -0.037871733 -0.02966024 0.03695257 -0.014073247
0000a0 e4 c3 99 bd 0c f9 e4 bd 80 da 11 3b 85 1d 4c bc
       -0.07508066 -0.111803144 0.002225548 -0.01245821
0000b0 8d 64 f9 b9 c5 38 3e 3d 08 74 d0 bd 6b 91 96 3d
       -0.00047567897 0.04644086 -0.10178381 0.07351955
0000c0 e2 18 ca 3d f8 f4 c4 bd 0a 29 85 3d fb 77 8c bc
       0.09868027 -0.096170366 0.06501968 -0.017147055
0000d0 23 8e 6e 3d f0 4e c2 3c 4e 33 c9 bd ce 9b 88 3d
       0.05824102 0.023719281 -0.09824239 0.066703424
0000e0 15 80 b6 bd ca 28 9b 3d 5a 27 a9 bd f9 8d 97 3d
       -0.089111485 0.07576139 -0.08259459 0.07400126
0000f0 45 1a e0 bd 34 27 89 3d 2b 1d ec bb 20 2b 9b bd
       -0.109425105 0.066969305 -0.0072056255 -0.07576585
000100 ee 2c 1f bd c4 24 5d 3d 88 d9 9b bd c5 55 1e bd
       -0.038861208 0.05399014 -0.0760985 -0.038656015
000110 68 e7 c5 bd 9d 5c b7 bd 0e b1 23 3d 6e 19 73 3d
       -0.09663278 -0.089532115 0.039963774 0.059350424
000120 24 f1 8a 3b 1f 35 55 bd 62 2a 93 3d 16 94 8b 3c
       0.004240172 -0.052052613 0.07185818 0.017038386
000130 cc 29 bc 3d 7d b6 8d bd 20 bc b7 bd 54 8c b4 bd
       0.091876596 -0.069195725 -0.08971429 -0.08815828
000140 92 94 91 3d c7 47 87 3d fa 91 99 3b d6 77 74 bd
       0.07108416 0.06605487 0.004686591 -0.059684597
000150 26 ed c4 bd 2c 30 03 3d e6 29 7e 3d dd d1 06 3d
       -0.09615545 0.032028362 0.062051676 0.032914985
000160 a7 66 42 be 43 9d e8 bd 81 a6 ba 3d bc 9c df bd
       -0.18984471 -0.1135812 0.09113789 -0.109185666
000170 fd 64 2b bd e7 3f 7a bd 33 19 43 bc 1c 0d b8 3c
       -0.041844357 -0.0610961 -0.011907863 0.022467189
000180 b0 87 2e bd 6a 4a bb 3c e6 cd 46 3d 52 8a 27 3c
       -0.04260987 0.022862632 0.048536204 0.010225849
000190 92 80 c6 bd 6e 99 2f bd e0 02 e2 3c 0e 37 37 bd
       -0.096924916 -0.04287093 0.027589262 -0.04473024
0001a0 9d 52 f0 3c c5 c8 b3 3b ac 19 47 3d cd 4b ec bc
       0.029336268 0.00548658 0.048608467 -0.028844738
0001b0 c9 df 86 bb 27 68 e3 3a 60 0b e3 bc e9 09 18 3d
       -0.0041160327 0.0017349765 -0.027715385 0.037118826
0001c0 80 5e 04 bb 44 9d a0 bd 34 f4 50 bc 67 0e 45 bd
       -0.0020197928 -0.07842496 -0.012753535 -0.04810944
0001d0 f5 2d 72 3d a8 b8 ac 3c 9f 58 90 bd a0 1b 98 bc
       0.05912586 0.021084145 -0.07048153 -0.01856786
0001e0 07 90 02 3e 98 46 a0 3d 0c 09 ab bd d5 c6 30 bd
       0.12750255 0.07825965 -0.08351335 -0.04315837
0001f0 35 ce 34 bd f3 2f b2 bc 3e e2 c2 bd 6b d0 65 3d
       -0.044141967 -0.02175138 -0.095158085 0.056106966
000200 5e ce af bd 9f 27 3a bd 11 06 06 be 70 14 83 3d
       -0.08584283 -0.045447942 -0.13088252 0.064003825
000210 a8 a6 a1 3d ef da d8 bd dc 48 10 be e8 e7 bf bd
       0.07893115 -0.10588633 -0.14090294 -0.093704045
000220 44 a5 44 bd 73 d1 5f bc 9f 64 9d bc 7f 34 c6 bc
       -0.048009172 -0.013660776 -0.019213019 -0.024194954
000230 54 e4 aa bd b4 e7 b5 3a 64 33 8b bd f9 48 fa 3c
       -0.083443314 0.0013878257 -0.06796911 0.030552374
000240 4e 61 20 3d a4 11 5b bc f5 e6 84 bd 1f 46 b2 bd
       0.039155297 -0.013370905 -0.06489364 -0.08704781
000250 18 98 f1 bd e8 af 4c 3d d6 32 ac bd a8 e1 db bd
       -0.11796588 0.049972445 -0.08408134 -0.107364
000260 c4 6a ed 3d 58 70 1e 3d 9a 8e 5f 3d 81 a6 5a 3c
       0.115926296 0.038681358 0.054579355 0.013345362
000270 75 03 be 3b 62 a7 f9 3c 95 74 d8 3d fa bb 50 3d
       0.005798752 0.030475322 0.10569111 0.05096052
000280 18 ab 42 bd ba b8 a6 bc b5 c5 a5 3d 9a 29 19 3b
       -0.04752645 -0.020351756 0.0809435 0.0023370744
000290 e2 58 84 3d 95 e0 dc 3d 14 0d 3f bd 78 3a bf bd
       0.064622656 0.10785023 -0.04664333 -0.09337324
0002a0 13 36 aa 3d 8f 2b e4 3b a0 41 b3 3c 5e 4a a9 3d
       0.08311095 0.0069632004 0.021881878 0.082661375
0002b0 fa e4 e8 bd 71 ea a7 bc 10 7f bd 3c e6 bb 84 3d
       -0.11371799 -0.020497533 0.023131877 0.06481151
0002c0 74 5a e4 3d 9e a7 9d 3d 8f 03 ca 3d 2a 61 c9 3c
       0.11150065 0.07697986 0.0986396 0.024582464
0002d0 e5 8d 2b bd 58 b7 e9 bd 8f 62 a7 3d 2a 9b 97 bd
       -0.041883368 -0.11411923 0.081730954 -0.07402642
0002e0 81 d0 9e bd 2d c6 10 be f4 9c cc bd 4a c9 83 bd
       -0.07754613 -0.14138098 -0.09990874 -0.06434877
0002f0 bf 9c 8a bd 67 e2 63 bd c5 a2 50 3c f2 2f a6 bd
       -0.06768178 -0.055635836 0.01273412 -0.081146136
000300 1d 9a 08 be ee ff a1 3b 7f 40 bf bd 41 8c e4 3d
       -0.1334004 0.0049438393 -0.093384735 0.11159564
000310 c1 49 ec bd 05 cd fc bb 09 08 95 bd 0c 06 0c 3d
       -0.11537505 -0.00771487 -0.07276923 0.034185454
000320 cd e0 82 bd 35 b3 1c bd d6 92 9c 3c 66 3b 36 3c
       -0.063905336 -0.038256843 0.019112986 0.01112256
000330 1e f2 3c bd 74 e4 17 bc 6a fd 0c 3e da c6 9b 3d
       -0.04612934 -0.009270776 0.13768545 0.07606287
000340 cf 5a c4 3d 1a d8 0a 3e c3 98 08 3e d9 12 ea bc
       0.09587633 0.13558999 0.13339524 -0.02857344
000350 ab 77 01 bd c6 36 d1 3d 01 ce a6 3b 62 a7 5e bc
       -0.031608265 0.10215525 0.0050904755 -0.013589712
000360 1d b4 5f 3d 05 1d dc 3d 26 26 a8 3c 22 19 6d bd
       0.05461513 0.107477225 0.020526003 -0.057885297
000370 a7 82 99 3d c1 fd 31 bd 03 4c d9 3d 00 42 70 3d
       0.07495623 -0.04345489 0.10610201 0.058656693
000380 36 41 ca bd fe ee e7 bd 09 4d 66 3c 07 62 ad bd
       -0.09875719 -0.11324881 0.014056453 -0.08465963
000390 28 c9 d9 3c 59 1b a4 bd 88 47 a9 bc 8e 81 bc bd
       0.026585177 -0.08013029 -0.020663992 -0.09204398
0003a0 f9 26 bc 3d fb 96 0e bb 68 1d 71 bd 63 e4 a5 3d
       0.09187121 -0.0021757472 -0.058865935 0.08100202
0003b0 ae d1 9e 3c fb 4a ce bc 8e c1 91 3d 27 fe 76 bd
       0.019387092 -0.025182238 0.07116996 -0.060300972
0003c0 10 9a 3e 3c 1f 6b a6 3d 02 49 41 3d 3e 14 2c 3d
       0.011633411 0.081259005 0.047188766 0.042011492
0003d0 86 b2 fa bd 0a 78 b9 bd e3 80 c1 3d 10 07 0f bd
       -0.12241082 -0.09056099 0.09448411 -0.034918845
0003e0 98 35 f3 3d 52 da 87 bd 9c 70 2a 3d c6 12 4c bd
       0.118754566 -0.06633438 0.0416113 -0.04982259
0003f0 53 31 c7 bd 1f 06 6e 3d fa e9 70 3c 53 4f 51 3d
       -0.09726205 0.058111306 0.014704222 0.05110104

bias f4 [32]
000000 12 d5 9d 3d 23 85 c1 3d d8 7d f6 3d 67 fd 28 3d
       0.077066556 0.09449222 0.120357215 0.04125729
000010 bb 58 90 3a 29 31 ba 3d b3 c4 96 bd b8 62 4e 3d
       0.0011012772 0.09091408 -0.07361736 0.050387114
000020 62 ce 63 3d 3b 1a a3 bd 98 4f ef 3d ef ec a0 bc
       0.055616744 -0.079639874 0.11685103 -0.019644229
000030 54 db 81 3d 59 71 df bd 8a b6 d2 3d 3e f7 6a 3d
       0.06340662 -0.10910291 0.10288723 0.057364695
000040 d1 a6 04 3d 15 57 08 be 90 f2 9e bd 6b 06 c2 3d
       0.03238565 -0.13314469 -0.07761109 0.094738804
000050 8e 43 d6 3d ba a6 40 3d 79 a5 96 3d 08 78 17 3d
       0.10462104 0.047034003 0.0735578 0.036979705
000060 53 eb 36 bd ec f1 d7 3d 55 23 89 b9 a7 b9 c1 3d
       -0.044658016 0.1054419 -0.00026157 0.094592385
000070 8b 19 db bd 85 64 d8 bd 15 17 af 3d 5d eb 05 be
       -0.10698231 -0.105660476 0.085493244 -0.13078065
