SwarmNet - PyTorch/models/model_40_step.pkl (torch, 80187 bytes, 14 tensors)

weight f4 [32, 7, 3]
00000000: c8ec 6cbc 3158 163e 3922 283e b0d2 243e
00000010: a0f6 1e3e d438 b7bc b4e4 92bd adb2 213e
00000020: 35c0 98bc 7c66 2e3e b3fb dc3d 4e9e dcbc
00000030: aaab 0b3e 50c9 2ebd b116 b33d 3569 15bc
00000040: eeb1 61be df10 87bd 7142 163e 5e1a bbbd
00000050: 863b 323d 9d0b 3abe e23d b3bd 92cf 353e
00000060: 12ce 933d 3fb5 1f3d 19a9 aa3d 28d1 193e
00000070: 17d5 46be 51eb 4abe f3a0 633e 6d4a 6a3d
00000080: 4ec5 00be 3f24 473e 001c 32bc d573 263e
00000090: e255 19be 5845 22be 73ce 2c3d 1fac 043e
000000a0: aa20 43be 950d 1fbe 66e2 f03d 3d2b 59be
000000b0: 0bee 033e 6239 2bbc f229 98bd 7680 92bd
000000c0: 9608 803b 614f dcbd 99b4 a4bc 5689 82be
000000d0: 3cb4 9b3d a5b3 80be 7440 1cbd fdba c9bc
000000e0: 43ca 303e de8b e93d 89ea 44bd e5a7 b03e
000000f0: c55f 21bd 7717 483e 6c77 88bc 54ab 17be
00000100: 2bde 00bd 75d6 c2bc 1049 5abe e0f9 263d
00000110: a93c 7ebe 7d18 883c 601c 10be 9017 823d
00000120: 91d3 1a3e 95ad 7abd 9a8a 95bc 05ff ff3d
00000130: 68a0 013e 5357 123c 30fa 113c 25f3 543d
00000140: e321 abbd 14b0 8cbd 9dfd 44bd 333c fd3d
00000150: 40f9 453d 89ef fdbd be76 3bbd 4cb0 4c3e
00000160: de44 bd3b 75fc 613e 0c2f 2e3e 346f 473d
00000170: 6ad9 00bd 0d18 033e b459 19bd 9b61 52bc
00000180: e883 ea3c 9b87 0ebd 8ef4 4b3e f2c8 243e
00000190: e193 3fbe 3022 63bd 13e1 a0bd 3280 84be
000001a0: b040 c6bd 2dd4 b03d d987 c93d 238e 2fbd
000001b0: 7cfd 03be a1f0 33be de33 30bd 4185 b73d
000001c0: 28e3 fd3d 63e4 343e 54f7 95bd 13f3 f83d
000001d0: 70f0 053e 3cf4 813d a35a d6bd 32f6 a43d
000001e0: 3d66 2ebe 665d 70be 28d6 55be 6fdd 0ebe
000001f0: 6505 48bb f453 9ebc 385a 0fbe c125 cc3c
00000200: c07c 3ebe 07bc e33d 1d7e 2e3d 2508 303d
00000210: 6054 b2bd c32e 85bd 9b4b 3e3e 45df 27be
00000220: 2c99 4c3e 1fd3 d33d dcd8 c7bd 1bbb eebd
00000230: 86c3 6cbe 1e4d b23d a2f4 0b3e 95e9 1f3e
00000240: 9b7b b33c 9d46 24bd fd29 e5bd a726 59be
00000250: 0810 23bd 6163 72bd b94e 263e 3274 1abe
00000260: 0e08 983c 892a 103e 0cd1 c9bd 26dc b43d
00000270: 7f57 ffbc 6cd8 973b 38c3 933d b880 56be
00000280: 06b8 59be 87f6 5d3d c372 31be 68a4 16be
00000290: 971e 143d afac bc3d ec1a 853e a7b9 cebd
000002a0: 3f23 b3bd 4ffc 0d3e b2b0 3fbe d680 353c
000002b0: a86e 12be 8830 093e f454 c13d 0a6d 5c3d
000002c0: eb9e 213e bfaf 08be 5dbc abbc 0497 90be
000002d0: 3eaf f13d 7c77 b8bd d348 673d 1fae b5bc
000002e0: 0f26 ef3d d615 2cbc b22c b8bd c7da 63be
000002f0: f4b8 873d 7d00 08be 5056 36be 74d4 dfbd
00000300: e2cb 8cbc a940 42bd 9a43 b7bd 69db 813c
00000310: 85a1 593b db0e 4b3e 3a47 9e3d a9de a33d
00000320: bf9c 6b3e 7a27 223d ed85 00be 11c2 6fbd
00000330: f314 843b dcf6 2fbe 7fb8 e1bc 5ae3 f5bd
00000340: 6eb5 b93d c9f0 783e 5f16 a83d 38a6 05be
00000350: 1b36 623e 3c79 5e3e 009e 173e 7770 973d
00000360: 9feb 8f3d 9ad1 073d f1b6 87bd b948 503c
00000370: 21c8 ce3c 6adb cebd ebda 71bd 32c9 85bd
00000380: fae5 0d3e f12d 0ebc 9805 3cbe 6433 aa3c
00000390: aa64 9cbc ba62 10bd d23d 92be db2c 993d
000003a0: a79a 713d 8dab 253c 2c46 1e3d 0eba 493e
000003b0: be1a ae3c bb50 f83d eb62 38bb 561a d8bd
000003c0: e7b2 6c3e b9b5 d03d 2b56 fbbc f7d9 2e3e
000003d0: 63bf 72be 4137 bcbd b9b5 433c 1c3e 373e
000003e0: 5150 0ebe 7a48 54be 1b56 61be b3a0 16be
000003f0: 4b74 183d ae28 3b3e fbde 64be 7dc9 15be
-0.01446075 0.1468208 0.16419305 0.16095996 0.15523767 -0.022365965 -0.07172528 0.15790816
-0.018646339 0.17031282 0.10790195 -0.026930954 0.13639703 -0.042672455 0.087445624 -0.009119322
-0.22040531 -0.06595015 0.14673783 -0.091358885 0.043513797 -0.18168493 -0.087520376 0.17754963
0.07217039 0.03899121 0.08333034 0.15021193 -0.19417225 -0.19816329 0.22229366 0.057199884
-0.12575266 0.1944742 -0.0108709335 0.16255124 -0.14974168 -0.15846765 0.042189073 0.12956284
-0.19055429 -0.15532525 0.11761932 -0.212079 0.12883775 -0.010450693 -0.074298754 -0.07153408
0.0039072735 -0.10757328 -0.020105647 -0.25495404 0.07602736 -0.25137058 -0.038147405 -0.024625296
0.17264657 0.11403631 -0.048075233 0.34503093 -0.039397974 0.19540201 -0.016658507 -0.1481145
-0.031461876 -0.023783902 -0.21316934 0.040765643 -0.24827828 0.01661324 -0.14073324 0.063521504
0.15119769 -0.061200697 -0.018254567 0.12499813 0.12658846 0.0089319525 0.008909747 0.051989693
-0.08356073 -0.06869522 -0.048093427 0.12364998 0.048333406 -0.12399203 -0.04576754 0.19989127
0.005776032 0.22068961 0.17010134 0.048690036 -0.031457342 0.12802143 -0.037439063 -0.012840654
0.02862735 -0.034797292 0.19917509 0.1609228 -0.18708755 -0.055452526 -0.078554295 -0.25879055
-0.09680307 0.08634219 0.09840364 -0.04286016 -0.12889665 -0.17572261 -0.043018214 0.08960963
0.12396842 0.17665248 -0.07322565 0.12155738 0.13080001 0.06345412 -0.10466506 0.080547705
-0.17031188 -0.23473129 -0.20882475 -0.13951658 -0.0030520794 -0.019327141 -0.1399926 0.024920346
-0.18602276 0.11119848 0.04260074 0.042976517 -0.087074995 -0.0650306 0.18583529 -0.16393764
0.19980305 0.103430025 -0.097581595 -0.11656781 -0.23121461 0.08706115 0.13667539 0.15616448
0.021909526 -0.040106405 -0.11189649 -0.21206151 -0.03981021 -0.059176806 0.16240968 -0.15083387
0.018558528 0.14078726 -0.09854326 0.088310525 -0.031169651 0.004633954 0.072149694 -0.2094754
-0.21261606 0.054190185 -0.17328934 -0.14711154 0.036161985 0.09212624 0.25997102 -0.10094004
-0.08746957 0.1386578 -0.18719748 0.01107808 -0.14300025 0.1339742 0.09440032 0.053814925
0.15783279 -0.13348292 -0.020963842 -0.28240216 0.11801003 -0.09007165 0.056465935 -0.022177754
0.11677181 -0.010503253 -0.089929 -0.22251426 0.06627074 -0.13281436 -0.17806363 -0.10929194
-0.017187063 -0.047424946 -0.08948441 0.015851693 0.0033207845 0.19829886 0.07728429 0.080014534
0.23009013 0.03958843 -0.12551089 -0.058534686 0.0040308177 -0.17184013 -0.027553795 -0.120062545
0.09067808 0.24310602 0.08207392 -0.13051689 0.22090952 0.21725935 0.14806366 0.07394498
0.07027363 0.033158876 -0.0662669 0.012712651 0.025241913 -0.10100444 -0.059046667 -0.065325156
0.1385726 -0.0086779455 -0.18361509 0.020776458 -0.01909097 -0.035250403 -0.2856279 0.074792586
0.05898538 0.010111702 0.03864114 0.1969988 0.021252986 0.12124773 -0.0028135132 -0.10551898
0.23115121 0.10190911 -0.030680737 0.17075334 -0.2370582 -0.09190226 0.0119451815 0.17894787
-0.13897826 -0.20730773 -0.22005503 -0.1470974 0.03722028 0.18277237 -0.22350685 -0.14627643

bias f4 [32]
00000000: 84f7 8bbd 850a 2ebd 406a 8c3d 9562 c4bd
00000010: 87c9 843c e8e5 9f3d 2a97 0b3e 457c b33d
00000020: 1ea4 413e 402a 07be d93b d8bb ef03 a33d
00000030: a98a 24bb 01f9 3dbd f601 d13d 017b 17bd
00000040: 0f9b 3cbe ff58 b13c 442f d53c e761 453e
00000050: 0c6e 773d 456d 283e 656a 303e b82c 923d
00000060: 7ca2 e3bd bcf4 2cbe 4139 eb3d ac3e 4abe
00000070: 76ee 933d 6f41 2ebe 58d2 2ebe da8d 273d
-0.06834319 -0.0424905 0.06856203 -0.095891155 0.016209377 0.07807523 0.13631883 0.08763937
0.18910262 -0.13199711 -0.0065989313 0.07959735 -0.0025107062 -0.046380047 0.10205452 -0.03698254
-0.18418525 0.021648882 0.026023515 0.19275628 0.060407683 0.16447933 0.17228086 0.07137436
-0.11114976 -0.16890234 0.1148553 -0.1975047 0.07223217 -0.17017148 -0.17072427 0.040906765

weight f4 [64, 32, 3]
00000000: cecd 03bc 70a1 bd3b e7c2 8dbb e9aa 18b9
00000010: b342 703d d66b 423d a4da 9f3c ae89 7f3d
00000020: 72df 5e3d 891c 833d 6284 ce3c d87c a33d
00000030: 261b 4ebd 6bf2 8abd f93d fc3c bd97 06bd
00000040: 0e4c 93bc 8f32 253d 422e 62bd cb6e d43d
00000050: baf2 123b 5d6c c7bd b14c d2bb b108 683d
00000060: fa80 be3d a673 cabd aca1 ab3d 10c9 733d
00000070: 4cfe 66bd 572b 443d f6ee d93d 8337 e1bd
00000080: d0da 6c3b c8b7 d33c 666e 43bd 9dae 0c3e
00000090: a364 9f3c 043b 4e3d 0c7e 1f3d 94fa d1bd
000000a0: f54c f13b 7750 a7bd a04e 72bc 073f b7bd
000000b0: b8ef b53d 4d00 babd 268a b7bc c7c3 0e3d
000000c0: 77f0 a9bb 2812 af3c 448f 92bd 628a 8f3d
000000d0: acda 8ebd 6476 c9bd 21de 22bc 1b25 d03c
000000e0: 2268 963d 9c32 a43d c72a d1bd 25cf adbd
000000f0: 674a b7bd 4198 9b3d ab61 81bd 227e bcbd
00000100: 5931 83bd 93d5 ea3d 62e2 0d3d 62df 083d
00000110: a570 49bd 010e c4bd ffa2 a8bd 7535 863d
00000120: a592 acbd 8338 84bd 2da7 5f3d 4e52 37bd
00000130: 795c d4bd a385 a8bd 0606 9b3d 682f a63d
00000140: e031 c7bc 4a32 3bbc 23a6 2dbd 762c f73c
00000150: cba5 37bd 2812 d3bd c5d3 e4bd 76c5 203d
00000160: 88a0 973d 928f 1bbd d5c6 e1bc 5f88 ac3d
00000170: ecf8 87bb 818d 833d aca4 8fbd 1e78 09bc
00000180: 0874 95ba 2bfe edbc ebaa 223d 17f1 44bc
00000190: dd74 e2bd 4228 f8bd ad91 913d 535a a6bd
000001a0: 5ea2 303c d500 1f3d c669 0d3c c9ed d63c
000001b0: a2c1 a1bd 8df7 cabc 6741 af3d 9c8c a7bd
000001c0: edb7 233d 956c 79bc 52a6 9d3d ff8d b63b
000001d0: acc2 443c 21e0 adba 35c2 893d d131 5a3d
000001e0: e17c b43d f7ba 29bd 132c 83bd ed8f 123d
000001f0: 2fbe dabc 7f58 dcbc 34d7 a1bc 1bf9 993d
00000200: e494 053d 41ca a13d 4825 8fbd fa90 64bc
00000210: e513 c4bc dbd0 dfbb b342 afbb 6adc 27bd
00000220: 0773 ddbd ee1f 0abe 6eff 0abd b80b 7fbc
00000230: 1c5d 72bd a935 9bbd 4732 023c c4fa a0bd
00000240: 7cb0 6ebc 55ab 57bc dc86 35bd 4a16 43bd
00000250: 53ab 94bd 3010 8cbc 7847 903d 91ff cb3c
00000260: 0550 af3d e7f0 42bd 31a7 35bd 2abd d63b
00000270: 4cc6 3b3d b631 05bc c14f d53a 836b 79bd
00000280: 157c c13d 1128 373d ebbf af3d 4873 1e3c
00000290: a129 9abd 0c7a 6b3d 85c8 a73c 43be e7bb
000002a0: 97c1 443d 467d 303d 5fdf bdbd 83bf 563d
000002b0: 1475 9abd cd33 cbbc ec89 8b3c f373 db3d
000002c0: 3797 8fbd e0fe b53c ad70 c63c ad01 6c3d
000002d0: 25e8 d8bd 9a7e dc3b bb6b 323d 2a31 4c3d
000002e0: 14e0 633d a677 943d 5de8 9a3d 24fd 7ebd
000002f0: 4e4a d5bd e133 dcbb 4dcf 2bbd d6af 493d
00000300: fbe7 00bd 096c 97bd 5613 bdbb c76a c73c
00000310: 4669 91bc 1fdd f4bb f5a4 debc 69b4 3d3d
00000320: d0d3 cabd 1211 dfbd 580c d33c 896c 243d
00000330: 1377 4abd d9bf b3bd e89b 763d 29f7 a6bd
00000340: 1f4a d9bb 96c9 563c f9fe b63d 67f2 71bd
00000350: 477d 8b3d c712 8cbc fb9f b6bd 9ab6 88bd
00000360: bac3 d53c 6f28 003d 2fd6 9cbc 2417 f93c
00000370: 38d8 a23d 5905 4b3c dc1a c93c 51a1 e2bc
00000380: 5e74 a33d f4b3 57bc acf3 91bd aa68 013d
00000390: cb46 febc ee58 27bd 3d26 59bd 7fe9 7cbd
000003a0: e8fa df3c a94a 8e3d dc5a a5bd 5481 763d
000003b0: a3e7 5f3c e2cf 06bd 7bf0 41bd b621 ab3c
000003c0: dab4 903c 4047 15bd 3114 44bd 016c c93a
000003d0: c317 973d eed6 4d3d 789a 85bd a5e4 0c3c
000003e0: 8ef9 09bc 0750 2d3d 6a55 78bd 9026 b0bd
000003f0: 96b2 5f3d 193c 0b3b d617 243d 2718 453c
-0.008044673 0.005787067 -0.0043262127 -0.00014559519 0.05865736 0.04746612 0.019513436 0.06238716
0.054412313 0.06401927 0.02520961 0.079827964 -0.05031886 -0.06784519 0.03079127 -0.032859553
-0.017980602 0.04033142 -0.055219896 0.103726946 0.0022422508 -0.097374655 -0.0064178337 0.056648914
0.09301944 -0.098853394 0.08380446 0.05951792 -0.05639486 0.047892895 0.10641281 -0.10996916
0.0036141165 0.02584447 -0.047712706 0.13738485 0.019457167 0.05034925 0.038938567 -0.10252872
0.0073639103 -0.08169644 -0.0147892535 -0.089475684 0.08883613 -0.090820886 -0.022404741 0.034854677
-0.0051861363 0.021370962 -0.07156232 0.07008816 -0.06975302 -0.09837034 -0.009940655 0.025408318
0.073440805 0.080174655 -0.10213237 -0.08486775 -0.08949738 0.075973995 -0.06317457 -0.092037454
-0.06405897 0.11466517 0.034639724 0.03341616 -0.04917969 -0.095729835 -0.08234214 0.06553165
-0.08426408 -0.06456091 0.05460279 -0.044756226 -0.103692 -0.08228614 0.07569508 0.08114511
-0.024315774 -0.011425564 -0.04239477 0.030172568 -0.044835847 -0.103061974 -0.11173204 0.039250813
0.07403666 -0.037978716 -0.02756063 0.08424448 -0.004149547 0.06423474 -0.070138305 -0.008390455
-0.0011402378 -0.02905186 0.03971378 -0.012020371 -0.11057446 -0.121170536 0.071078636 -0.08122697
0.010780899 0.038819153 0.008631175 0.026236432 -0.07898261 -0.024776245 0.085573964 -0.08181116
0.039970327 -0.015223642 0.07697739 0.0055711265 0.012009304 -0.0013265648 0.06726495 0.053270165
0.08812881 -0.04143807 -0.06404891 0.03578179 -0.026702015 -0.026897667 -0.019755937 0.07518216
0.032612696 0.07899905 -0.06989533 -0.013950581 -0.023935268 -0.0068303174 -0.0053485273 -0.040981688
-0.10812955 -0.13488743 -0.033935003 -0.015566759 -0.059170827 -0.07578594 0.007946557 -0.0786033
-0.014568444 -0.013163407 -0.044318065 -0.04762868 -0.0725924 -0.017097563 0.070448816 0.024902137
0.085601844 -0.047593024 -0.0443489 0.006553312 0.045843408 -0.008129528 0.0016274379 -0.060893547
0.09447495 0.044715945 0.08581527 0.00967104 -0.07527471 0.05748944 0.020481357 -0.0070722415
0.048036184 0.04308822 -0.0927112 0.052428734 -0.07541862 -0.024804974 0.01703354 0.10715475
-0.07011264 0.02221626 0.02422365 0.057618786 -0.10591153 0.0067289593 0.04355977 0.049851574
0.05563362 0.07249384 0.07563851 -0.062253132 -0.10414563 -0.0067200516 -0.041945744 0.049239956
-0.031471234 -0.07393653 -0.0057701273 0.024342908 -0.017750394 -0.0074726488 -0.027178267 0.04631463
-0.09903681 -0.10891928 0.025762722 0.04014257 -0.049429964 -0.087768264 0.060207278 -0.08152611
-0.0066311504 0.013109585 0.08935351 -0.059069064 0.06811004 -0.017098797 -0.089172326 -0.066754535
0.026094306 0.03128856 -0.0191451 0.030406542 0.07951397 0.012391412 0.02454894 -0.027664812
0.0798118 -0.013165463 -0.07126555 0.031593956 -0.031039616 -0.040856294 -0.053014982 -0.061746117
0.027341321 0.06947834 -0.08073971 0.06018193 0.013666066 -0.032913096 -0.04734848 0.020890098
0.017664362 -0.036444902 -0.04787082 0.0015367271 0.07377579 0.0502538 -0.06523603 0.008599435
-0.008421315 0.04231265 -0.060628332 -0.08601105 0.054613672 0.0021245538 0.040061794 0.012029684

bias f4 [64]
00000000: af9a 7ebd 3a84 7e3d 2e95 873d 16b2 ecbc
00000010: a7f7 00bd b0ac 2cbd 2d4b bd3d 47ad c1bd
00000020: c42b 5d3d 9ada 66bd f9fe 2d3d d75b ba3c
00000030: 2e3b c6bb 629c 78bd 3211 603d 582d f9bc
00000040: 7d03 233d 1599 9c3d 23d3 553d a88e a43d
00000050: 2240 3dbd 54a7 163d c5a0 9fbb 6832 813d
00000060: 293c c6bd 4c3c bb3b 901d 78bd 828a ca3d
00000070: f987 083d e1f3 823d 53b8 703d 4b04 b6bc
00000080: d79d 6e3d 793e 4cbc 1adb a93d 0be1 9e3a
00000090: e3a2 303c 299c d53d 7cdc 23bc 093c aebd
000000a0: 504e 3ebd 5691 45bc eec7 a43d f010 1b3c
000000b0: 80b9 75bc 2845 25bd a428 afbd 25b3 343d
000000c0: fa18 abbd 65ac 7a3d 4f11 28bd f6ce 4cbd
000000d0: d585 453d d7a8 633d 2517 a5bd 27ae 0c3c
000000e0: 8256 913d 1613 62bc e5be 6bbd 3e96 c83d
000000f0: 6561 f1bd 0999 0dbd bdeb 05be eddc 99bd
-0.062159237 0.06213782 0.06620251 -0.028893512 -0.03148618 -0.042156875 0.09242854 -0.09456878
0.053996816 -0.05636082 0.04247949 0.02274887 -0.0060495352 -0.060696013 0.0547039 -0.03041713
0.03979825 0.076463856 0.05220331 0.08035022 -0.04620374 0.03678067 -0.00487146 0.06308442
-0.096794434 0.005713975 -0.060575068 0.098896995 0.0333328 0.063941725 0.058769535 -0.022218844
0.058255997 -0.0124660665 0.082937434 0.0012121511 0.010781023 0.10430176 -0.010001298 -0.085075445
-0.046461403 -0.012058577 0.08045946 0.009464487 -0.01499784 -0.040349156 -0.085526735 0.044116158
-0.08354373 0.061199564 -0.04103213 -0.05000206 0.048223335 0.05558094 -0.08061055 0.008586443
0.07096578 -0.013798496 -0.057555098 0.097942814 -0.11786155 -0.034569774 -0.13078208 -0.075128414

weight f4 [32, 64, 3]
00000000: f78e b2bb 91da 733d 0446 2cbc 7f0a 063d
00000010: 7120 7b3c e894 c2bc 4f38 213d d912 0a3d
00000020: 413e a5bc 5254 52bc 8e6c 713c 6474 513d
00000030: 5324 823d 310a 0abd 5841 0d3d 6a17 b23b
00000040: 4b96 c9bc 54ae 1abd 266b 6d3c 6fd0 83bb
00000050: 3d92 b6bd 15c6 6ebc 5e08 b83d 12e5 2b3d
00000060: 51a7 c5bb 8604 993c 33f8 32bd a367 2abd
00000070: 3d41 7fbd a566 d63c 7ac8 81bc ee77 5dbd
00000080: 8275 30bc 035f b3bb 507c b4bc f205 bdbc
00000090: a410 3fbd 05b3 4bbd 8e2f 543d de42 debc
000000a0: 692f 313c 4b60 983d 3312 94bc ae0f 01bd
000000b0: 3741 2dbd 439a 1cbe e459 2bbe 190c bbbd
000000c0: 58d9 37bc 7784 f13b 5705 fd3c 86b1 2dbd
000000d0: 9619 9fbc a895 2dbd f7d5 e03b 11e5 b53d
000000e0: cf12 b8bb 47d8 c83c adbd 383c 14e2 803d
000000f0: bdec adbb a90b 423d e7a0 1c3d 04a3 97bc
00000100: cda5 60bc 2afd 113d 7eaa 5e3d fb1a 4abd
00000110: 836c a53c b270 a93c 6bf8 eb3c 3980 8a3b
00000120: 05ad cc3c 530e 20bd d5f3 8b3c 2c41 963b
00000130: f4e3 02bd a607 1d3d 67c8 fa39 316a 5cbd
00000140: dab5 93bd f034 74bd 94ab eebc c76d cd3b
00000150: abd1 853c a715 8cbd db38 863c 6107 a53d
00000160: b8e1 3a3d 33e4 39bb c285 8ebd 8cf4 623d
00000170: 7318 d9bc c7c1 ecbd be92 59bd 77e5 3abd
00000180: c370 24bb 239f 8b3c 850c 053c 89bb 0cbd
00000190: c86b 67bd c51f dabc 4a6f 09bc 865f 333d
000001a0: 990b 113d 5cef 30bd a49d 1b3d 9c54 08bc
000001b0: 8e2f bfbd d09e fcbd d800 5abd 80be d3bc
000001c0: 35a6 94bc 5947 d9bc 901a 663d cc06 653d
000001d0: 4b9a 573c cc7d 213d b003 4abd aee7 773d
000001e0: 22d5 003d e49d 1c3c a6c3 5e3c 8583 9f3c
000001f0: cb98 49bd a310 7c3d ca1a 863d b825 fe3c
00000200: d021 803d 3c0d 623c 7bdc 4dbd 3f98 f33c
00000210: 93eb 923d 0745 e83d 561d 233d 7c55 543d
00000220: a596 3c3b 13ff 96bd 4866 63bd b76e 7b3d
00000230: 6926 d6bc f83f c6bc 9acf be3a 40f8 28bc
00000240: 2445 58bc 4b75 71bd 0dc7 93bd 86d7 7f3d
00000250: 7ac8 b23c f3b7 05bd 3056 64bc 46c4 913d
00000260: 64a8 c3bc 80e4 4b3d c642 a23c 1a14 d93d
00000270: 9200 943d 78d7 033c b4c2 5bbb 915d c9bd
00000280: 6f7a 8fbd 4c74 653c aaed 2d3c 8afa 5cbc
00000290: 71fc 1dbd 15f3 b3bc 29a4 af3c 650a cb3c
000002a0: 9328 c2bc 343b f83c f284 28bd a12a 2a3d
000002b0: 8ec3 303d d758 2c3d 1489 8ebd 368b 94bc
000002c0: 2c30 f33c 86ee 0f3d 8758 863d a781 353a
000002d0: 5d99 6fbd b8a9 80ba e44b 5e3d 418c 973d
000002e0: f61f 32bc db22 04bd 88b8 7fbc 0d19 83bc
000002f0: dc1d 05bd a6bd 803c c526 82bd 9ec4 80bc
00000300: 9110 683d 5151 933c c15f 883a 4f96 303b
00000310: 7182 ad3c ada6 a0bc 2602 143c 034e 3c3c
00000320: 5c41 783d 8e8a 8f3d 7111 47bc f735 ce3a
00000330: 75a9 953d 4ec4 d33c 9ea0 7b3d d68c 67bc
00000340: 98a0 89bc 786b 0a3d b47b a73c a68e b53b
00000350: f38d 2abd c3cb 9bbd 2fcd 003d f3d2 7bbd
00000360: 450f 2fbb c456 053c 58ca 01bd 9061 243d
00000370: 9a22 063d a2f4 d5bc db45 293d e66d 693d
00000380: d81e 383d 5690 933c b97b 36bb 719f 613d
00000390: 8274 1fbd 1486 fa3c 92d9 693d b129 803d
000003a0: e61b 323d 60a7 4fbc 142b 22bd df67 50bd
000003b0: 1fa6 6cbd b474 243d 1085 6e3d 049d f5bc
000003c0: 635f 3e3d c8b5 793d 7ab9 a6bb 358f 5a3a
000003d0: 95c1 0c3d 4699 47bd e610 183d f1ce a7bc
000003e0: 1ee5 4abd 08be d0bb 6838 04bd be69 cd3c
000003f0: 6a05 b93d 67ee 813d d3be 1abd 31ba 92bd
-0.0054491716 0.059534613 -0.01051474 0.032724854 0.015327559 -0.023752645 0.03936034 0.03370938
-0.020171287 -0.012837486 0.014735354 0.05113639 0.063545845 -0.033701126 0.034486145 0.00543492
-0.024607798 -0.03776391 0.014490878 -0.00402265 -0.089146115 -0.014573594 0.08985971 0.041966505
-0.0060319086 0.018678915 -0.043693732 -0.041602742 -0.062318075 0.026171992 -0.015842665 -0.054069452
-0.010770204 -0.0054739728 -0.022031933 -0.023074124 -0.04664673 -0.049731273 0.051803164 -0.027131494
0.010814526 0.074402414 -0.018075084 -0.031509094 -0.04229852 -0.15293221 -0.1673351 -0.09133167
-0.011221252 0.0073705274 0.030886335 -0.042405628 -0.01942138 -0.04237905 0.006861444 0.088815816
-0.0056174765 0.024517192 0.011275691 0.06293121 -0.0053077624 0.0473744 0.038239386 -0.01851035
-0.013711405 0.035641827 0.054361813 -0.049342137 0.020193344 0.02068362 0.028804978 0.004226711
0.024984846 -0.03907616 0.017084042 0.004585406 -0.031955674 0.038337372 0.00047833027 -0.05381221
-0.0721242 -0.059620798 -0.02913455 0.00626919 0.016335329 -0.06840067 0.016384533 0.08058048
0.04562542 -0.0028364777 -0.06959106 0.055409 -0.026500916 -0.115603976 -0.05311846 -0.04562899
-0.0025091625 0.017043656 0.008120661 -0.034358535 -0.056499273 -0.026626477 -0.00838835 0.04379227
0.03541145 -0.04319702 0.037992135 -0.008320954 -0.09335242 -0.123349786 -0.05322346 -0.025847673
-0.01814566 -0.026523279 0.056177676 0.055914685 0.013159345 0.03942661 -0.049319923 0.06052368
0.03145326 0.009559128 0.013596451 0.019471893 -0.04921798 0.061539304 0.06548078 0.031023845
0.06256449 0.013797101 -0.050259095 0.029735683 0.071738385 0.11341291 0.0398229 0.051839337
0.0028776315 -0.0737287 -0.055517465 0.061384883 -0.026141362 -0.024200425 0.001455772 -0.010313094
-0.013200078 -0.05894975 -0.072157 0.0624614 0.02182411 -0.03264613 -0.013936564 0.07117514
-0.023884006 0.04977846 0.01980723 0.10599537 0.07226671 0.008046977 -0.00335328 -0.098322995
-0.07005774 0.014004778 0.010615746 -0.013487468 -0.038570825 -0.021966496 0.021440582 0.02478523
-0.023700988 0.030301668 -0.04114241 0.04154456 0.043155245 0.04207691 -0.06959739 -0.018132787
0.029686056 0.035139583 0.06559854 0.0006923922 -0.058495868 -0.0009816205 0.054271594 0.07399798
-0.010871878 -0.032259803 -0.0156079605 -0.016003156 -0.03249918 0.015715431 -0.06355051 -0.015718754
0.056656424 0.01798311 0.0010404513 0.002694506 0.021180363 -0.019610727 0.009033715 0.011493209
0.060609207 0.07008849 -0.012150154 0.0015732636 0.07307712 0.025850441 0.061432473 -0.014132699
-0.01680021 0.033793896 0.020444728 0.0055406867 -0.04163928 -0.07607224 0.03144568 -0.061480474
-0.0026711982 0.008138362 -0.03168711 0.040132105 0.032747842 -0.026117627 0.041326385 0.056989573
0.04495129 0.01801316 -0.002784474 0.055083696 -0.03892947 0.030581512 0.057092257 0.06257952
0.043483637 -0.012674183 -0.039591864 -0.05088031 -0.057775613 0.04015036 0.058232367 -0.029982097
0.046477687 0.060964376 -0.0050880285 0.00083373795 0.0343643 -0.048730157 0.03712549 -0.02048442
-0.04953491 -0.0063703097 -0.032280356 0.025074836 0.09034236 0.063443 -0.03777964 -0.071644194

bias f4 [32]
00000000: cca5 7e3d 472d dc3c 5e16 2a3d 2d86 563c
00000010: 0d82 43bc e63d 66bc 8cfe 823d a4db 453d
00000020: 9159 75bd 9b56 5d3d 5253 ad3b 958b 43bd
00000030: 6d7c bf3c eee9 8fbd c1f7 0f3d 61b9 60bd
00000040: 9932 4ebd 89ef 81bd 092e b93b eee0 a23c
00000050: c742 813b 89f1 93bd 98a9 73bd 707d e43c
00000060: 1e05 faba 93b7 48bc 73c6 393d 7fb5 893d
00000070: a038 f03c 50bd 84bc 79ca 62bd 55e2 c83d
0.062169835 0.026877059 0.041525237 0.013093513 -0.011932862 -0.014052844 0.06396207 0.04830517
-0.05989987 0.05403767 0.0052894736 -0.047740538 0.02337476 -0.070270404 0.035148386 -0.05486429
-0.050341222 -0.06344516 0.00565124 0.019882645 0.003944728 -0.072238036 -0.05948791 0.027891845
-0.0019075011 -0.012250799 0.04535527 0.06724071 0.029323876 -0.016203552 -0.055368874 0.098087944

weight f4 [32, 64]
00000000: 7454 983d 81bb 5abd 05dd 423d d149 5e3d
00000010: 26f5 e43d 8cc8 55bc 2117 40bc e5b5 183d
00000020: e8c1 473d dd4c a93c b210 793a 38fb 0bbe
00000030: 31e6 893b 4378 573d 2066 9e3d ffc5 aebd
00000040: 1616 adbd 1b2f 0dbe 234e 79bc abdb aa3d
00000050: ce53 a9bc 4b09 0b3d b571 7a3c 6056 b43d
00000060: d204 debd 7f40 1fbc d7f7 c1bd 4a4a 03bd
00000070: adb8 c4bc ec4a abbd fb42 783d d5b6 04bd
00000080: d43c bdbd f2c2 cebd 316d a63d 8e15 a43d
00000090: 8f92 1c3e 525e b83d 1f21 b33d e816 d83d
000000a0: ffdc 013e 7a23 ff3d 7ff1 6e3d de52 04be
000000b0: 3cef e13d 54d8 db3d 69cb 963d f712 9ebd
000000c0: 3cbb fbba dc52 d93c 4b4d f53c 0d21 5a3c
000000d0: 4345 cabc c2d6 5c3d cbed 173e 59b9 debd
000000e0: 2760 2c3e 3b91 ee3d 4899 84bc 64ce 873d
000000f0: bc3a 7fbc 8524 c23c 5cfa c03b e737 1b3d
00000100: 5f47 683d 06e7 e93c 1008 dabd 9f18 853d
00000110: 0c97 1e3d 7e81 1d3d 7214 60bd 4d3c 883d
00000120: a0e2 1bbd ef0b f3bd 3e8b 613e b558 213d
00000130: 0376 343d 6ab7 f73c 35b6 843d 543a d8bd
00000140: e7c2 e93c 2bee 133d d157 b2bc 4fba ef3c
00000150: c176 0bbd 0abc 44bd b8f5 40bc b97c 3f3c
00000160: 2d15 073e 68a3 30bd 4316 82bc 40f7 f1bd
00000170: 9012 e13a 2d12 89bd 2684 a13d 2ede 663b
00000180: 1b03 50bd 0c8a 0dbd 0658 9dbc fe0d ecbd
00000190: 03df 85bd d26e edbc c1e3 acbd feb7 993d
000001a0: de68 35bb 0755 0e3d a3c6 d2bd 1be3 073d
000001b0: 7571 4a3a b801 963d 4a94 12be 2f2e 603d
000001c0: 33de cfbd 1139 bdbb 9381 e53d 91d8 c9bd
000001d0: 5067 a63d b067 893c 7119 2a3d f6d9 b43c
000001e0: 728b 423d 2f5a 0b3e 7f49 9d3c 54c0 803d
000001f0: 8dd5 1cbd 0e58 ca3d a494 b7bd 38d5 343d
00000200: 9203 09bc df4d 58bd 16d6 803d 2dc4 4cbc
00000210: e81a 203b 8ff5 043b 5e2d 973d 774d 043d
00000220: 0825 673c 4483 ad3d c2e0 453e a0ad 48bd
00000230: d96b 75bd 5af0 27bd 0988 843d 68f3 cf3c
00000240: 4878 523d dbb4 c83c a0a6 04bd 118d d6bd
00000250: e848 9ebd fd60 c5bd d259 b13d 3e4d 02bd
00000260: dd30 1cbe 9351 ea3d 5647 653c fbeb f0bc
00000270: 0067 123e 64d2 a13d 736d 26bd 45f5 88bd
00000280: 4127 b63d 40fd 0c3c 13d9 943d 7cee 7abd
00000290: c416 963d 8af8 db3d 3220 d2bc 2c39 c1bc
000002a0: cb28 553d be8c dabc 16ac aebd 2104 a33d
000002b0: af9b aabd 1d8f d33d fee1 6cbd 2de5 383c
000002c0: 006f ba3b 4357 9fbd bb45 fa3d 74d1 023d
000002d0: 2049 07be 8650 f6bd b490 093d 1e05 a13d
000002e0: 8e37 063e 8b03 6f3d 24ca fa3c 71d2 433d
000002f0: 9d53 213e 5363 ebbd e527 133b 513c 143d
00000300: 08f3 913c 1519 8fbd 269c 023e aa89 fbbd
00000310: d5ad 06bd df5e 733d b7f4 b2bd 15fb b9bc
00000320: db42 243d fa5e e1bc bf59 62bd 1f78 56bd
00000330: e4f7 823c d7f9 dd3d b49b aa3d a38d be3c
00000340: ba90 d63d a409 b7bd 7230 f43a 35a3 9f3d
00000350: be3a bb3c 5d1a 6a3d 4c70 333d 852c 0b3d
00000360: 7372 c0bd bad9 3f3d 2d69 08be 14ee ee3c
00000370: 11ef d7bd 48ab 47bd f421 97bc 1c6b 903d
00000380: 0d03 c73d 69a7 e1bd 3ca3 cc3c dd64 b4bd
00000390: 7695 9a3d 2d13 f33c ccc8 39bd acd1 ac3c
000003a0: fb31 c6bd 152f 2a3d 8150 663d 2e9f 903d
000003b0: 63f0 c43c 950a bebd 884c 8dbd ba07 0c3d
000003c0: d060 7dbb 8cd9 55be e182 85bd 9f7e 80bd
000003d0: 2553 dbbd 5d95 db3b 4799 bc3d 54d0 eabd
000003e0: be4e 5cbe 4a2e bd3d 5743 913d 2ce1 963c
000003f0: 9f69 ef3b 95b4 89bd d6df 58bd 416d a1bc
0.07437983 -0.053401474 0.047574062 0.054269616 0.11179571 -0.013048302 -0.011724264 0.037282843
0.048768908 0.020666534 0.0009501084 -0.13670051 0.004208349 0.052604925 0.077343225 -0.085338585
-0.08451478 -0.137875 -0.015216383 0.083426796 -0.020669844 0.03394441 0.015285899 0.08805537
-0.10840763 -0.009719967 -0.094711 -0.03205327 -0.024013842 -0.083638996 0.060610753 -0.032400925
-0.09240118 -0.100957766 0.08126295 0.08011924 0.15290283 0.09002365 0.08746552 0.10551244
0.1268196 0.124579385 0.058335777 -0.12922236 0.110319585 0.10734621 0.07363016 -0.07718461
-0.001920558 0.026528768 0.029944083 0.013313544 -0.02469123 0.053915747 0.14836805 -0.10875196
0.16833554 0.11648794 -0.016186371 0.06631163 -0.015577968 0.023699054 0.00588922 0.03789511
0.05670869 0.028552543 -0.10646069 0.06498837 0.03871827 0.03845357 -0.054707 0.066521265
-0.038057923 -0.118675105 0.22025773 0.03939124 0.044057857 0.030238826 0.06480066 -0.10558
0.02853532 0.036115807 -0.02177039 0.029263644 -0.0340488 -0.04803089 -0.011777334 0.011687451
0.13191672 -0.043124586 -0.015879756 -0.11814737 0.001717167 -0.0669292 0.078865334 0.0035227644
-0.05078421 -0.03455548 -0.019207012 -0.11526106 -0.06536677 -0.028983507 -0.08441878 0.07505797
-0.0027680914 0.034749057 -0.10291793 0.03317557 0.0007722595 0.073245466 -0.1431438 0.054731544
-0.10149803 -0.005774625 0.11206355 -0.0985576 0.08125174 0.016773075 0.04152817 0.022076588
0.047496267 0.13608621 0.019200085 0.06286684 -0.038289595 0.09880076 -0.08963898 0.044148654
-0.008362668 -0.05280864 0.06290834 -0.012497944 0.00244301 0.0020287966 0.073817 0.03230044
0.01410795 0.084723026 0.1932402 -0.048993707 -0.059917305 -0.0410007 0.06471259 0.02538462
0.05138424 0.024500301 -0.03238547 -0.10476125 -0.077287495 -0.0963764 0.0865971 -0.031811945
-0.15253015 0.1144134 0.013994059 -0.0294094 0.14297104 0.07901457 -0.040631723 -0.066874065
0.08894206 0.008605301 0.07267966 -0.061262593 0.07328561 0.107407644 -0.025650118 -0.023586832
0.052040856 -0.02667844 -0.085289165 0.07959772 -0.083304755 0.10330031 -0.05783271 0.0112851085
0.0056895018 -0.07780316 0.12220331 0.03193803 -0.13211489 -0.120270774 0.033585265 0.07862304
0.1310713 0.05835299 0.030613966 0.047808114 0.15754552 -0.11493554 0.00224542 0.036190335
0.017816082 -0.06987206 0.12754878 -0.12282117 -0.032880623 0.059416648 -0.08738082 -0.022702733
0.04010282 -0.027511109 -0.05526137 -0.05236065 0.015987344 0.10838669 0.08330479 0.023260897
0.10476823 -0.08937386 0.001863016 0.07794801 0.022855159 0.05715405 0.043808267 0.033978004
-0.093968295 0.0468385 -0.13321371 0.029166259 -0.10543645 -0.04874733 -0.018448807 0.070516795
0.09717379 -0.11018259 0.02498018 -0.08808301 0.07548039 0.02967223 -0.04535751 0.021096073
-0.09677502 0.041548807 0.05622912 0.07061611 0.024040407 -0.09279362 -0.06899363 0.034187056
-0.003866244 -0.20883769 -0.06519104 -0.06274151 -0.10709218 0.006701155 0.09208923 -0.11465517
-0.21514413 0.092373446 0.07092922 0.018417917 0.007306292 -0.067238964 -0.05294784 -0.019705417

bias f4 [32]
00000000: 7642 533b ff79 9f3d 42e7 c43d c081 82bd
00000010: 08c1 20bc 00e0 cd3d b259 d6bd 6df1 9a3a
00000020: 0737 0d3c 0210 be3d 82e6 8fbc a2c4 15bd
00000030: f7cc 37bc 0cb9 c1bd 2bf0 2e3d c9b6 af3d
00000040: 540b 3a3d e879 8e3d 43fd 0b3d df05 ba3d
00000050: 750b e63d 802e 5fbc 4277 9f3d 3dcb 1d3d
00000060: b144 493d cbf0 a33d 007b e9bd 3383 05bd
00000070: c316 353d f588 ba3d 824b c73d 3964 d7bd
0.0032235659 0.07786941 0.096144214 -0.06372404 -0.009811647 0.1005249 -0.10466327 0.0011821218
0.008619077 0.09280397 -0.01756597 -0.036564477 -0.011218301 -0.09459123 0.04270951 0.085797854
0.04542096 0.069568455 0.034177076 0.09083151 0.11232654 -0.013621926 0.077864185 0.0385239
0.049137775 0.08004912 -0.114004135 -0.032595824 0.04421116 0.09108154 0.09731199 -0.10517163

weight f4 [32, 32]
00000000: a037 b13b a724 1bbe 603c bbbc 22ff 9a3d
00000010: 5051 09be 4a93 b83d 3809 12be 90d0 ab3c
00000020: 73f2 95bd 098a 0ebe 92b0 07be e916 26be
00000030: 30e2 633c ea50 bd3d bfd2 c0bd db17 fabd
00000040: 0a92 e43d 5ad7 df3d 80da e43b 6fc0 2e3e
00000050: c04f 2c3b e8ea a73c 2b3a 15be 20a1 1dbd
00000060: e03a 02be 65d4 ecbd ffcb 093e 1812 14be
00000070: 34d1 ecbd 8012 9dbb 47fb a0bd 2850 38bd
00000080: dcf1 163d 676a 5abe 70d9 d83d 66eb 5cbd
00000090: 39b7 20be 10b7 393e ed1b 05bd a230 e43d
000000a0: 06ee 3abe abb2 17be cb3e f8bd dd31 86be
000000b0: 30ce 3dbd 5ad7 64be b39d bb3c 3532 c8bd
000000c0: 97e4 963c 4c9f 4cbe 48fb c4bd 1fc3 183e
000000d0: cb76 b73d 46f7 c4bd 5082 29be 7b46 313e
000000e0: d1ca 3cbe f5c6 e63d 5da1 4e3d c222 26bd
000000f0: 147c 72bc b11e 2fbe 84b0 013d 976e a63d
00000100: b8cf b9bd 3af0 1bbe 80ff 2b3d 00af e4bd
00000110: de0f ab3c e620 b03d 0a1b 02be 33f0 f53d
00000120: 377b 1bbe 86c9 ff3d 4248 9cbd 7707 b73d
00000130: 0309 01be d70f 123e 2e5d 00bd 8bf3 dd3c
00000140: 64b9 013e 8a0c 863d f4b5 a8bb 1721 37be
00000150: a35b cdbc 730a d6bd 9f48 d53c f6e1 8abd
00000160: c871 3a3b 8f3a 25be 627c b33d 1ab6 093e
00000170: 4a93 0abe 4a5f 4fbe d4d8 063e 7be1 d5bd
00000180: 3835 453c f4b1 413d 25aa 983d 6899 c93d
00000190: 9232 3ebc 612d 223e 624a 0bbd a03a 223d
000001a0: 3b0e 4e3c 7598 933c 50d2 5d3e 9d16 1d3d
000001b0: 10ff 16be 02a2 093e b30c bdbd 85fb 54bd
000001c0: c536 323d 2b87 d43d 2dcf ec3d 4690 e9bd
000001d0: e36d d8bd 8145 c83d 9ec5 cbbd d837 433d
000001e0: 7519 333e c136 3ebd 2043 d1bd 629c cbbc
000001f0: e544 50bd 595e ba3b c8cc 443c 9aa3 1b3e
00000200: 3e35 24be 3cdf 103d fcac bdbd 7fc3 d93d
00000210: d0a9 b7bd 2807 6c3b 07c9 fabd 3582 2c3e
00000220: 4d3c 7dbd b56c 873d e70a a53d b6d8 74bd
00000230: 382d 09be cb91 d3bd f802 e03d 35c1 173e
00000240: 6195 07be 8856 0e3e 9b34 71bd 5172 0b3e
00000250: 38a0 ed3c a764 0ebe d3a6 ebbd 98c2 a03d
00000260: 31b4 293e ee22 10bd 8fe7 883d 256e 03be
00000270: bb10 1dbe 08a3 c0bc 1a1d ffbd 0b25 00be
00000280: 996d 223e 0443 80bd b4b6 81bd 4cbd 8c3d
00000290: 35d5 ecbd dd1b a6bb 2b24 a7bc 0a31 213e
000002a0: 8438 1cbe 05fd 8c3d 4db4 b8bd 9a6a 9fbc
000002b0: e8a7 a73d 6837 273c 5654 e6bd b0f8 ff3d
000002c0: 1dd9 1d3e 67a3 19be b3b9 213d 92cc 7bbd
000002d0: 2cc0 27be 6a02 c4bd b3c4 183e 6bc7 2abe
000002e0: 2852 24be 2a04 803a 1aff e1bd ff63 943d
000002f0: 2b75 1abe 19db 9c3d d8f7 4d3b 3c76 acbb
00000300: f42e 96bd ac0f 493d eeaf a43d 70b2 6f3d
00000310: 6711 0c3e 10c6 fdbd b82c 8abc 1a43 65bd
00000320: 90c0 053d 0c74 58bd 5aaa 803d 544e 6d3d
00000330: becd 30be e42c bdbd 5be0 1a3e 53be 06be
00000340: 2238 de3d c11d e7bd 5624 0bbe e43b 303d
00000350: d884 ddbc d6fd c9bd 12f3 f63d d0f4 03be
00000360: 5fad 183e 35ad 8dbd dc5e 96bd 6a3b 2bbe
00000370: acc3 2c3d abfe afbd 42f8 16be c826 6c3d
00000380: e634 00bd 526b 26be a481 173d 68c7 17bd
00000390: d7e9 35be 8722 1cbe 972f 06be 1722 b7ba
000003a0: 3f9f 1d3e db07 373b ca63 c83b d162 9e3d
000003b0: f190 793d 8391 693c e069 16be c6c7 823d
000003c0: 7fdc 7dbd 6c21 4bbd d2b7 ef3d 0d2f 2a3e
000003d0: 2385 9cbd 35b2 3abe e8dc 233e 5758 cdbd
000003e0: 1d18 10be fa37 8f3c a8b6 173e c130 0e3e
000003f0: 641c 02be 7900 27bd 6846 18bd e3c5 5abd
0.0054082423 -0.151507 -0.022855937 0.07568194 -0.13409925 0.09012468 -0.14261329 0.020973474
-0.07321634 -0.13919844 -0.1325095 -0.16219677 0.013908908 0.09243949 -0.094151966 -0.12211581
0.11160667 0.10929747 0.006984055 0.17065595 0.0026292652 0.020497754 -0.1457297 -0.03848374
-0.12717772 -0.115639485 0.13456725 -0.14460027 -0.1156334 -0.004793465 -0.07860427 -0.044998318
0.03685175 -0.21329652 0.10588348 -0.05393543 -0.15694894 0.18136239 -0.032497335 0.111420885
-0.18254861 -0.1481425 -0.12121352 -0.26209918 -0.046339214 -0.22347775 0.022902345 -0.09775201
0.018419547 -0.19982642 -0.096182406 0.14918183 0.08958205 -0.09617476 -0.16553617 0.17312042
-0.18436743 0.11268417 0.050446857 -0.04056049 -0.01480009 -0.17101552 0.03166248 0.08126562
-0.09072822 -0.15228358 0.04199171 -0.11166191 0.02088159 0.08600025 -0.12705627 0.12008705
-0.15183721 0.124896094 -0.076309696 0.08936971 -0.12601094 0.14263855 -0.031338863 0.02709367
0.12668377 0.065453604 -0.0051486436 -0.17883717 -0.02506811 -0.10451212 0.026035605 -0.0678138
0.0028449167 -0.1613562 0.087639585 0.13448372 -0.13532749 -0.20251194 0.13168651 -0.104433976
0.012036614 0.04728885 0.074543275 0.09843713 -0.011608737 0.15837623 -0.034006484 0.03960669
0.012576635 0.018017033 0.21662259 0.038351644 -0.14745736 0.13440707 -0.09230938 -0.05199768
0.043509264 0.10377344 0.11562953 -0.11404471 -0.10567834 0.09778882 -0.09949802 0.04766068
0.1749018 -0.046438936 -0.10217881 -0.024854843 -0.050846953 0.0056875166 0.012011714 0.15199128
-0.16035935 0.035369143 -0.0926151 0.10632991 -0.08967936 0.0036015008 -0.12245374 0.16846545
-0.061825085 0.06612531 0.0805872 -0.059776984 -0.13396156 -0.10330542 0.10938066 0.14819796
-0.13240577 0.13900197 -0.05888806 0.13617827 0.029007062 -0.13905583 -0.115064286 0.07849616
0.16572644 -0.03518956 0.06684791 -0.12834986 -0.15338413 -0.02351524 -0.124567226 -0.12514131
0.1586212 -0.06262782 -0.06333676 0.06872043 -0.115641035 -0.0050692395 -0.020402988 0.15741363
-0.15255934 0.06884197 -0.09018765 -0.019460011 0.081863225 0.010206081 -0.112465546 0.12498605
0.15414853 -0.1500374 0.039483737 -0.06147439 -0.16381902 -0.09570773 0.14918785 -0.16677634
-0.16046965 0.0009766866 -0.11034985 0.07245635 -0.15083759 0.07658977 0.0031428244 -0.005263118
-0.07333174 0.04908721 0.080413684 0.05851978 0.13678513 -0.12391293 -0.016867027 -0.055972196
0.032654345 -0.052845046 0.06282492 0.057936028 -0.17265984 -0.09237078 0.15124647 -0.1315854
0.1085055 -0.11284972 -0.1358808 0.043025866 -0.027040884 -0.098628685 0.12058081 -0.12886357
0.14909886 -0.06917802 -0.07342312 -0.16721883 0.042178795 -0.08593496 -0.1474314 0.057654172
-0.031300448 -0.16251877 0.03698887 -0.037055403 -0.17764984 -0.15247546 -0.13104092 -0.0013971952
0.15392779 0.0027928266 0.0061154114 0.077336915 0.060929243 0.014255884 -0.14688826 0.0638576
-0.06197786 -0.04959242 0.11704983 0.16619511 -0.07642581 -0.18232043 0.16002238 -0.10026615
-0.14071698 0.017482746 0.14815772 0.13885786 -0.12706143 -0.040771935 -0.03717652 -0.053411376

bias f4 [32]
00000000: 57ff 08be ae34 16be d869 00be cf53 013e
00000010: 7597 9a3d 9da7 bcbc 8c8e 4f3d 1237 2ebe
00000020: 4cc3 09be 4ef3 933d 686f 8e3d ad54 bdbb
00000030: 2609 ccbb d4a1 f53d 1001 053d 929c d63d
00000040: 0e56 c13d b84d 4dbe 74a8 ec3c b46d 823d
00000050: a687 933d f257 ecbd d6e2 b8bc 7c41 063e
00000060: 9daa 923d 68c2 1b3e 8863 1fbe 27e3 31be
00000070: 19de 743d 467e 9f3c 2c47 c5bd 5063 003c
-0.13378654 -0.14668533 -0.12540376 0.12629627 0.075484194 -0.023029143 0.050673053 -0.17013195
-0.13453406 0.07224141 0.06954843 -0.0057779164 -0.0062266765 0.11993757 0.032471716 0.10479082
0.09440242 -0.20049179 0.028888918 0.063685805 0.07203607 -0.11540212 -0.022569101 0.13110918
0.07161448 0.15210879 -0.15565312 -0.17371808 0.05978212 0.019469392 -0.096327156 0.007836178

weight f4 [32, 64]
00000000: a700 c0bc 2ef9 073e c8ef 0cbe 801c 083d
00000010: 0604 103d abec b53b c3a2 5bbd ac5b 00be
00000020: ac5e e7bc 0897 983d f4e3 1fbe 9c3a e0bd
00000030: 6b68 53bd 3e52 2f3e dc42 12bc a4a1 39bc
00000040: 683d cdbd a21e ef3c 29bd b83d 4b0f 8a3d
00000050: e205 e8bc 652c a7bd 07f3 c2bd 55e5 63bc
00000060: 52a9 0f3e 7f73 14bd ae70 dbbd ea5b da3b
00000070: d79f adbd d64a fd3d ba28 063e 3bbc 64be
00000080: 4092 bfbb a07b 3d3e 446b 8cbc 5faa a93c
00000090: b7eb 26bd 7d90 44bc 945b 173d 5586 f23c
000000a0: 0951 8fbd c153 c8bc 80da 113b 4367 f53b
000000b0: c3ab 90bb 7ab3 f43c 0874 d0bd 6672 a43d
000000c0: c051 bd3d d8a5 a0bd 142a 633d 6048 85bc
000000d0: a814 00bd f04e c23c 5845 4dbd ceea 893d
000000e0: 87e0 a4bd fc13 8c3d 5a27 a9bd 690f cd3d
000000f0: 8594 81bd b423 873d a3c8 e43b 202b 9bbd
00000100: 1836 68bc 2be9 a43d 76d0 c7bd 1afc 83bc
00000110: cd5e aebd b085 1ebd 9179 3a3d e11b a63c
00000120: cd56 e23c 0c2d 9abd 7955 7bbd c153 9bbc
00000130: faf9 ae3d af16 f5bc 8a28 a6bd 8b86 d5bd
00000140: 9315 b63d c9fb 793d ceea 95bc a8b6 b5bc
00000150: 59ce 12bd 1ab3 ee3c e5f4 463d d767 443d
00000160: e18b 6ebe 6f06 0cbe da94 ab3d 3e01 babd
00000170: 830f 09be 6ae0 ee3c 0c56 a8bd 3e68 1abd
00000180: b087 2ebd 9330 dbbc 81e1 f93c 78f2 7cbc
00000190: 2701 d2bd d958 e4bc e002 e23c 47de 92bc
000001a0: b852 1b3d bd4e 553d ac19 473d 6c88 dabc
000001b0: 8f25 99bc 49ec 45bd 600b e3bc 6904 4c3d
000001c0: 2249 d83b 63a7 6abd 1820 56bc 1545 d4bc
000001d0: 01b1 813d a8b8 ac3c 8be0 1abc 20c3 8abc
000001e0: 8c7e e83d 0c14 7b3d 0c09 abbd 0eef 17bd
000001f0: 5c3e ba3c 2608 9abc de82 c5bd 6bd0 653d
00000200: 2562 9dbd 092c a8bd 8fb7 71be 1ab4 693d
00000210: f943 6f3e 2949 03be 6d10 46be 8d63 66bd
00000220: e2f6 973c 6000 e5bc 5dc6 98bd 338e 3dbd
00000230: 9a05 93bd 0d23 d33c 9728 a1bd 0886 783c
00000240: f055 853d be1a 54bd 71bd a1bd 94a6 1fbd
00000250: d209 29be e8af 4c3d fa98 8bbd f59f ddbd
00000260: 927b 163e 8b31 a83c 809c 063d e90c b13c
00000270: 099f 15bd 0acd 2c3d 4dbf 503e 6527 3bbd
00000280: 18ab 42bd 49f9 88bd 5950 923d 5a3e 5c3c
00000290: e258 843d 6a66 123e 140d 3fbd 260a 1ebd
000002a0: 782c b13d 044d 733d a041 b33c 9cd2 b83d
000002b0: 1b26 f2bd bfbb 043c 107f bd3c 5d03 3a3d
000002c0: 7686 f33d 6326 933d 85aa 993d cf65 293d
000002d0: 2c7d 92bc 58b7 e9bd 8f62 a73d 2a9b 97bd
000002e0: 7ddb a5bd 3321 23be f49c ccbd 5984 6bbd
000002f0: c730 98bd 67e2 63bd 363d ae3c f22f a6bd
00000300: 24a2 11be 2878 153c 1f9c 93bd c035 de3d
00000310: f456 debd 9082 c43c 31cb 92bd f12f 923c
00000320: d53d 2dbd b563 e9bc 320e 943d 452b d8bc
00000330: 3eee 2bbd 4393 a6bb 050d cd3d 0995 7c3d
00000340: a923 883d 2e51 123e 7a43 113e e5b7 a3bc
00000350: 062a 51bd f9d6 dd3d 5e0d 7c3c 9784 6dbc
00000360: 616c d33d f0c2 be3d 81ba f23c 42ca 3dbd
00000370: 82f0 473e 63fd 62bd b4ee e53d e30b 63bb
00000380: 3641 cabd 7a0f aebd 4979 f73c 7df8 92bd
00000390: a775 1f3d 6e5b 69bd 8847 a9bc 86cf c8bd
000003a0: 0089 b13d ceb0 05bd 681d 71bd 3c5f 9c3d
000003b0: cd99 6b3c 17b5 91bc 8ec1 913d ea11 3fbd
000003c0: bba0 443c ad02 8a3d 38dc 333d 8468 483d
000003d0: 04e3 dcbd 0a78 b9bd d4c4 653d 92d7 10bd
000003e0: 501f 013e b293 3abd 9c70 2a3d 56ee 1fbd
000003f0: 8bd1 32be b86e 7f3d f739 1b3c 534f 513d
-0.023437811 0.13278648 -0.13763344 0.033230305 0.035160087 0.0055518947 -0.05362202 -0.1253497
-0.028243385 0.07450682 -0.15614301 -0.10948679 -0.051613253 0.17121217 -0.008927073 -0.011330042
-0.10021478 0.029189412 0.090204544 0.06741198 -0.028323118 -0.081627645 -0.0951901 -0.0139096575
0.14029434 -0.03624296 -0.10714851 0.006663789 -0.08477753 0.123677894 0.13101473 -0.22337429
-0.005846292 0.1850419 -0.017140992 0.020711122 -0.04075214 -0.011997339 0.03695257 0.02960507
-0.06997878 -0.024454 0.002225548 0.0074891164 -0.004415007 0.029870737 -0.10178381 0.08029632
0.09244108 -0.07844132 0.05546005 -0.016269863 -0.0312697 0.023719281 -0.05011496 0.067342386
-0.08050638 0.06839749 -0.08259459 0.10012705 -0.06327156 0.06598607 0.0069819256 -0.07576585
-0.014173053 0.08052286 -0.09756558 -0.016111422 -0.085141756 -0.038701713 0.04552609 0.020276966
0.02762928 -0.07528123 -0.06136081 -0.018960835 0.08543773 -0.029918043 -0.08113201 -0.10426053
0.08890834 0.061031137 -0.01830044 -0.022181824 -0.03584132 0.029138137 0.048573393 0.047950592
-0.23295547 -0.13674329 0.083780006 -0.09082268 -0.13384824 0.029159743 -0.08219537 -0.03769707
-0.04260987 -0.02675656 0.030503036 -0.015438668 -0.10254126 -0.027874397 0.027589262 -0.017928256
0.037920684 0.052077044 0.048608467 -0.02667638 -0.018694667 -0.048321042 -0.027715385 0.049808893
0.006600515 -0.05728854 -0.013069175 -0.025911847 0.06332589 0.021084145 -0.009452949 -0.016938746
0.11352262 0.061298415 -0.08351335 -0.037093215 0.022734813 -0.018802714 -0.096441016 0.056106966
-0.07684735 -0.08211524 -0.23605178 0.057056524 0.23365773 -0.12820877 -0.19342203 -0.056247283
0.01855034 -0.02795428 -0.0745971 -0.04627819 -0.07178803 0.02577355 -0.0786907 0.015168674
0.06510532 -0.051783316 -0.07897461 -0.03897722 -0.16507652 0.049972445 -0.06816287 -0.10821525
0.14695576 0.020531436 0.032864094 0.021612601 -0.03652862 0.042187728 0.20385475 -0.045691866
-0.04752645 -0.06688172 0.07144231 0.0134426 0.064622656 0.1429688 -0.04664333 -0.038583897
0.0865106 0.05939962 0.021881878 0.090245456 -0.11823674 0.008101403 0.023131877 0.045413364
0.11890881 0.07185056 0.07503227 0.041356858 -0.017881952 -0.11411923 0.081730954 -0.07402642
-0.08098505 -0.15930633 -0.09990874 -0.057499263 -0.074311785 -0.055635836 0.021269422 -0.081146136
-0.14222008 0.009122886 -0.07207512 0.10850096 -0.10856429 0.023988038 -0.07167662 0.017845126
-0.042295296 -0.028489927 0.0722927 -0.02638782 -0.041975252 -0.005083473 0.10012249 0.06166557
0.06647427 0.1428878 0.14185897 -0.019985149 -0.051065467 0.108320184 0.015384046 -0.014496944
0.10323406 0.09314525 0.029629948 -0.046335466 0.1952534 -0.05541743 0.1122717 -0.0034644536
-0.09875719 -0.08499046 0.0302092 -0.07176302 0.03893056 -0.05697196 -0.020663992 -0.09805207
0.08668709 -0.032639317 -0.058865935 0.07635352 0.014379931 -0.017786546 0.07116996 -0.046647944
0.012001212 0.067387916 0.04391119 0.0489278 -0.10785487 -0.09056099 0.056095913 -0.035361834
0.12609601 -0.04555101 0.0416113 -0.039045654 -0.17462747 0.06236145 0.009474269 0.05110104

bias f4 [32]
00000000: 1b1f 973d aa8e ec3d b284 f63d dde4 073d
00000010: cfad 3b3c e8f6 af3d 3f0d 92bd 4d1b 313d
00000020: b7e2 873d 915a b4bd 821e 1b3e da20 babc
00000030: d364 353d 6761 babd 5891 b43d a4d8 603d
00000040: c8f7 4b3d d7d9 19be 7015 acbd 8f56 fb3d
00000050: 6029 d13d 8016 4b3d 7297 8f3d 6d41 9fbb
00000060: 11e2 3fbd b54e ea3d 265e 1f3c 2e4d ba3d
00000070: be83 d5bd 1733 d0bd 4804 983d 0aff 26be
0.0737898 0.115506485 0.12037028 0.033177245 0.011455013 0.085920155 -0.07131433 0.043238927
0.06635039 -0.08806337 0.15148357 -0.022720743 0.044285607 -0.09100609 0.088167846 0.054894105
0.04979685 -0.15024506 -0.084025264 0.12272369 0.1021297 0.049582005 0.07011308 -0.0048600943
-0.046846453 0.114407934 0.009727037 0.09096752 -0.104255185 -0.101659946 0.074226916 -0.16308227

weight f4 [6, 32]
00000000: 14c2 2cbd 6209 f43d d995 4c3d b70e acbd
00000010: a2d0 27bc d5fe a33c 759d d73b f499 083c
00000020: 885b 42bd 6362 93bc 4cd9 e33d e91d b7bb
00000030: 006a 14bd 8573 6e3d 6aa0 1bbd 79e4 c63c
00000040: 0b10 2cba 3ab8 003e 96ee e5bd a01e ce3c
00000050: 916d 513d 2810 9bbc e427 16bc 3018 45bd
00000060: 018e f93b 0b75 093d 2700 d83c 692d ab3d
00000070: 15a9 7c3b 5725 063a 6eba dfbc f7ba d53d
00000080: 5560 40bc b9f4 993d 21ec 26be 5caf 39bd
00000090: c63b 503d d0cf 2a3e 8c29 593d 5d7a d5be
000000a0: 8242 dcbb c9a7 403e c1f1 813d 3369 fb3d
000000b0: 9a6a 063e 482b 84bd 324d 383c 1e53 5f3d
000000c0: 5965 9b3d 0424 9ebd 6b77 29be 1958 e63b
000000d0: 73b8 803c 4c56 cebd cfe1 6e3d de4e 8b3d
000000e0: 8aa9 62bd 08bc 40be eb00 f43c 48bb a8bd
000000f0: 54cb 50be a7c4 c3bd c57b 93bd ef6f cabd
00000100: 913e 0d3e 187b 883d 5d3e 3b3e 54dd 0fbe
00000110: 923e 2dbe 2a3b f93d 21ee de3d 8d3a 20be
00000120: 0055 cabd b9ae 3d3c 88d5 1fbe 6148 473e
00000130: e9ea a0bd 0a32 d23c 1d24 45bd cd6c f0bd
00000140: 88d2 4e3d 5143 d93c 63aa 8fbd b559 c9bd
00000150: 100c 083e 0f57 b33d a342 373d e6d8 e73d
00000160: 199c 70bd 6985 4c3e 9462 d73d ec72 833d
00000170: 7075 9abd 39bb 25be 8a10 633d a840 603d
00000180: 7028 eb3d 0b53 963d 03c3 3e3d 8a49 063c
00000190: d779 2e3c b5d6 90bd 2542 c9bc a74d aabd
000001a0: e87f c53b b1c5 1f3e 01ec 83bb 290f 5cbd
000001b0: cca3 4e3e 054e d33c 7dcc 3cbd 553a b93b
000001c0: cf3c 30bc b328 87bd a0ae c63c 1ba4 803b
000001d0: f0c8 94bd 018d f33d 6c7b bbbd f779 0b3d
000001e0: 0b24 073b 8497 f2bc c133 423d 477a 783d
000001f0: 849a 623d d5f5 40bc 048f 24bd fa93 933c
00000200: b1d6 8ebd 0997 1cbc d68f 013e ab67 06be
00000210: b2ac 65be d01f 353d 8484 2dbe 62ad aabd
00000220: 0d20 c23d 0b7d 4dbd 4dd7 683d b2e7 483c
00000230: f3e6 2bbd 4767 e53d e1c6 e9bc e23f 033c
00000240: ddd1 0a3e 0e97 1a3e 5418 083d a9e6 33bd
00000250: 0775 34bd 64c2 803e 4200 ae3e 4bcb 1bbc
00000260: cd0a 47be 1789 34bd 9fe7 1d3e 5224 333c
00000270: 5f9a bdbd 8189 c83c 2a3a b73d a676 b03d
00000280: a9ae 8d3d acca 53bc f0c3 193d 1e3a bc3d
00000290: d5f9 f93b 63f6 d0bd 4ea0 2abd d3b0 bcbc
000002a0: dc1e 833d 7473 363d b3c6 f83c fb98 03bd
000002b0: dffc 2ebd 2b76 47bc eea2 493c 33fd 953c
000002c0: 5213 05bd a69c 123e e272 d73a da18 c53c
000002d0: 1fad 7ebd a123 93bd 6bc8 c93b ad54 3abd
000002e0: 6c87 863b a493 ef3c 6b15 9cbc c739 84bd
000002f0: b23e 493d a453 caba 2350 8a3c 634a 03bd
-0.042177275 0.11915852 0.049947593 -0.08401244 -0.010242613 0.020018974 0.0065800496 0.008337487
-0.047450572 -0.01799125 0.111254305 -0.0055882824 -0.036233902 0.058215637 -0.03799478 0.024278866
-0.000656367 0.12570277 -0.11227147 0.025161088 0.05112988 -0.018928602 -0.009164784 -0.04811877
0.007615805 0.033558886 0.02636726 0.08358271 0.003855293 0.00051172584 -0.027310576 0.10436051
-0.011741717 0.0751738 -0.16301014 -0.04533325 0.050838254 0.16680837 0.053018138 -0.41694918
-0.0067217955 0.18814005 0.06344939 0.122759245 0.13126603 -0.06453568 0.011248874 0.054522626
0.0758769 -0.07721713 -0.1654946 0.007029545 0.015712952 -0.100750536 0.058320817 0.06802152
-0.055337466 -0.18821728 0.029785594 -0.08238846 -0.20390064 -0.09558993 -0.072013415 -0.09884631
0.13793398 0.06664103 0.18285508 -0.14049274 -0.169184 0.12169488 0.10885263 -0.15647335
-0.09879494 0.011577302 -0.156088 0.19461204 -0.078573056 0.025658626 -0.048130143 -0.11739502
0.050493747 0.026521357 -0.070149206 -0.098315634 0.13285851 0.087568395 0.044741284 0.11320667
-0.058742616 0.19972767 0.10516849 0.06418404 -0.07541931 -0.16184701 0.055435695 0.05474916
0.11482322 0.07340058 0.046572696 0.008196244 0.010649166 -0.07072202 -0.024567673 -0.08315592
0.0060272105 0.15602757 -0.0040259366 -0.053725395 0.20179671 0.025794039 -0.046093453 0.0056527057
-0.010756685 -0.0659956 0.02425319 0.003925813 -0.07264888 0.11892129 -0.091544 0.03405186
0.0020620849 -0.029613264 0.047412638 0.060663488 0.05532314 -0.011777361 -0.040175453 0.018014897
-0.06974543 -0.009557494 0.12652525 -0.13125484 -0.2242916 0.044219792 -0.16945082 -0.083338514
0.094787695 -0.05016808 0.05684595 0.012262272 -0.041968297 0.11201339 -0.028537216 0.008010836
0.13556619 0.15096685 0.033226326 -0.043921147 -0.04405692 0.25148308 0.33984572 -0.009508918
-0.19437714 -0.04407605 0.15420388 0.010933952 -0.092579596 0.02447963 0.08946641 0.086163804
0.069180794 -0.012926739 0.037540376 0.091907725 0.0076286593 -0.102032445 -0.041656785 -0.023033535
0.0640237 0.0445437 0.030368185 -0.032128315 -0.042721625 -0.0121741695 0.012306912 0.018309211
-0.03248913 0.14317569 0.0016437436 0.024059702 -0.06217682 -0.0718453 0.006157925 -0.04549091
0.004105499 0.029245205 -0.019053182 -0.06456333 0.049132057 -0.0015436304 0.016883915 -0.032053363

bias f4 [6]
00000000: 7484 80bd 5fc5 65bd 7163 973d 975a 90bb
00000010: 3b94 76bd d801 b2bb
-0.062752634 -0.05609643 0.07392014 -0.0044053304 -0.060199957 -0.0054323487
