SwarmNet - PyTorch/models/model_10_step_context.pkl (torch, 85819 bytes, 14 tensors)

weight f4 [32, 18, 3]
000000 a9 e0 3d 3d 3c 43 5b bd b2 c9 3b 3d 93 56 68 bd
       0.04635683 -0.053530917 0.04584665 -0.05672319
000010 09 1f e3 bd e6 42 bb bb 8d b3 f1 bd 91 3c 87 3d
       -0.11089904 -0.005714762 -0.11801825 0.06603349
000020 cc 54 cc bd bc e7 0d be b9 3a 00 be 4a 81 d0 3b
       -0.09977111 -0.13857931 -0.12522401 0.0063630687
000030 6a 7e 5d bd f7 a7 28 3e 78 f6 cf 3d 0d 72 e6 bd
       -0.054075636 0.16470324 0.10154432 -0.11252222
000040 6a 02 00 be e9 d6 06 be a9 3b 53 3d 0f 4c c5 3d
       -0.12500921 -0.13167919 0.05157057 0.09633648
000050 73 3e e0 bd fe 8d a9 3c 95 dc 8e bd 7b d0 65 3d
       -0.10949411 0.02069759 -0.069756664 0.056107026
000060 43 fe 0c 3d dd c9 7f 3d 76 5c e0 bb 6e 1b 5e bb
       0.03442217 0.06244837 -0.0068469597 -0.003389086
000070 36 32 e8 3c 1e c9 6b 3e 02 f2 f1 bb 6d 54 4d be
       0.028344255 0.23025939 -0.007383586 -0.20051737
000080 93 6c 69 be 05 98 33 3e d6 9e 80 bd 6d 5a bb bc
       -0.22795324 0.1753846 -0.062802956 -0.022870267
000090 db a5 32 3d 79 ce d1 3d 96 60 e9 39 bc f3 ef bc
       0.043615203 0.1024446 0.00044513185 -0.029291026
0000a0 ce bb ee 3c df 10 16 be 05 77 10 be 7b 88 c0 bd
       0.029142287 -0.14654873 -0.14107902 -0.094010316
0000b0 13 7d cf bd 3c 28 49 3d f5 56 21 3d 61 3d ce bd
       -0.10131278 0.049110636 0.03938957 -0.10070301
0000c0 e0 76 e0 bc 0b f7 e9 3d f8 67 7f 3e 95 dd f0 bd
       -0.027400434 0.11424073 0.24942005 -0.117610134
0000d0 87 cd 5a be b5 bc a2 be c7 a0 f1 bd d8 b4 9f 3d
       -0.21367465 -0.31784597 -0.11798244 0.07798165
0000e0 b8 b9 25 3c 07 f1 d8 3c c4 7d c8 bd 8a b3 29 3d
       0.01011508 0.026482118 -0.09789613 0.041430987
0000f0 44 d8 b4 bc 90 1c 56 bd cd ef bc bd d5 c1 10 3e
       -0.02207578 -0.052273333 -0.09225426 0.14136441
000100 6c 01 1a 3e 36 5d 74 3e 75 17 ec 3d 30 8f b1 3d
       0.15039605 0.23863682 0.115279116 0.08669889
000110 62 2b 34 3d 4a 00 28 3d 06 f3 eb bd c0 17 53 3d
       0.043986686 0.0410159 -0.115209624 0.05153632
000120 66 bd 9c 3c 80 eb e6 bd 35 53 b5 be 1f a1 a0 bd
       0.019133281 -0.11275387 -0.35415044 -0.078432314
000130 2b 07 8b bd 7e fb 8b 3c 79 6f 1e 3d 19 55 bc bd
       -0.067884766 0.017087694 0.038680527 -0.091959186
000140 64 9f 82 be a0 f3 08 3c 41 c5 68 be ab a8 8c bd
       -0.2551223 0.008358866 -0.22731496 -0.06868108
000150 43 51 b7 bb 20 a2 14 be a3 39 90 3d f2 3d 07 3e
       -0.005594404 -0.14514971 0.07042243 0.13207224
000160 ac 05 26 3e 76 8b 1b bb be b5 89 be 14 95 8e bd
       0.16213101 -0.0023734248 -0.2689647 -0.06962028
000170 94 d1 cd bd 4e ac 55 3b 76 3d be bd 68 44 98 bd
       -0.100497395 0.0032603922 -0.092890665 -0.074349225
000180 e6 e0 f0 bd 52 db 98 bd dc c3 e2 3d 33 bb 9f 3d
       -0.11761646 -0.07463707 0.110725135 0.07799377
000190 c6 20 aa 3d 25 24 56 bd 70 24 a5 bc 10 13 86 bd
       0.08307032 -0.052280564 -0.020158976 -0.06546605
0001a0 f7 74 a7 bc 6d 92 60 3e f0 30 c5 3c af c7 46 3c
       -0.020441515 0.21930857 0.024071187 0.012132569
0001b0 5d df 02 bd 5d b5 75 bd 99 3c e1 3c 46 dd 0d bc
       -0.031951297 -0.059987415 0.027494716 -0.008658713
0001c0 df 07 0c 3a 08 7f 5a 3d ab 84 e1 3c 9d 7d 7b 3d
       0.0005341749 0.053343803 0.027529081 0.06139909
0001d0 1e 5d d6 bd ef df e5 3d 73 29 be bc c5 b0 0f be
       -0.104669794 0.112243526 -0.023213124 -0.14032276
0001e0 35 1d c4 3d dc 7f bc 3d 6d b0 86 3e 3a 24 bf 3d
       0.09575883 0.09204075 0.26306477 0.093330815
0001f0 27 1c 23 3e 8b c0 b4 3d 8d ea 33 3e e9 c5 09 3d
       0.15928708 0.08825787 0.17569943 0.033636007
000200 52 09 0c 3d e4 e8 5b bc df 65 60 3c d2 ee ca bd
       0.034188576 -0.013422225 0.013696163 -0.099088326
000210 02 45 19 bd aa 16 a4 bd 83 36 3f be e8 9e 30 3e
       -0.037419327 -0.08012135 -0.18673138 0.17248118
000220 6c fd 29 3d c9 40 8a 3d 86 33 6c bd 45 1c fa 3c
       0.041501448 0.06750638 -0.057666324 0.030531058
000230 7b 3c 21 bb 72 bb 05 3e b0 32 29 3e 8b 7b f1 3d
       -0.00246027 0.13059786 0.16523242 0.11791142
000240 a5 db 3a be 5d b0 d7 3b 34 d3 fe bd 29 c7 49 bb
       -0.1824785 0.0065823034 -0.124426275 -0.0030788875
000250 e5 f8 f2 bd 3f 3e 70 bd 25 74 f6 bd af eb 41 3d
       -0.11863879 -0.058653113 -0.120338716 0.047343906
000260 e7 32 2d bd 34 06 5e 3c 4f fa 57 3d cb 7c 45 3e
       -0.042284872 0.013551284 0.052728947 0.19285886
000270 b2 46 a4 bc 86 57 96 bc 57 15 fe bd 90 1f 52 3e
       -0.020053241 -0.018352281 -0.12406414 0.20519853
000280 f9 53 82 3e 32 8e 08 3c 42 36 73 3d af 5b a2 bc
       0.2545469 0.008334683 0.059377916 -0.019819109
000290 f2 14 de bd 39 b0 b6 3d e1 3e ad bd 4f 53 ad 3d
       -0.10843839 0.089203306 -0.08459259 0.084631555
0002a0 4b 0b d8 bd 29 2c e7 3d 52 43 8e 3c 1b 88 ae bc
       -0.10549029 0.1128772 0.017366085 -0.021305135
0002b0 47 4a 6e 3d 6f a2 cc 3d fd 72 58 3e 52 5d ee 3d
       0.058176305 0.09991919 0.21137615 0.11638893
0002c0 95 9e 70 3e 62 7e d4 bd b0 d0 1a be 42 d1 d9 bd
       0.23497994 -0.10375668 -0.1511867 -0.10635616
0002d0 e4 c3 b3 3d cb c4 2f 3e ce 5c 38 3e 23 12 aa bc
       0.087775975 0.17164914 0.18004152 -0.020760601
0002e0 15 c7 81 3c f2 b2 73 3e 20 3d 83 3e e5 d2 81 3e
       0.015842 0.23798731 0.25632572 0.25356212
0002f0 eb a1 fc 3d a2 29 f0 bc d3 8a da bd 75 4e 7a 3d
       0.12335571 -0.029316727 -0.1067101 0.06110998
000300 cf 30 c8 bc 74 b6 0b be e4 f0 2b be 99 c2 ee 3c
       -0.024437336 -0.13643819 -0.16791111 0.029145526
000310 f6 50 1c be b6 61 ed bc 18 d2 b7 bc 71 d5 06 bd
       -0.15265259 -0.028977256 -0.022439048 -0.032918397
000320 13 e9 9d bd d5 34 e7 bc 86 00 31 be 3f fa 94 3d
       -0.07710471 -0.028223434 -0.17285356 0.07274293
000330 d3 f7 73 bd 0b 82 00 be 63 9c 5e 3d ca 4b 82 bd
       -0.059562515 -0.12549607 0.05434836 -0.06362112
000340 d4 27 0d 3e 1e 28 61 bd 0a fb f7 bd c4 99 ca bd
       0.13784724 -0.0549699 -0.12108429 -0.0989261
000350 eb 69 25 3d a1 c9 71 bc cc 85 e0 3d d2 37 f9 3d
       0.040384214 -0.014757545 0.1096302 0.1216885
000360 9c 11 18 bd da da 8e 3c 37 df ad 3c 68 73 09 be
       -0.03712617 0.017438341 0.021224601 -0.1342293
000370 dd 80 7a 3d 32 2f ee 3d 8b dc fd 3c 4a 04 13 3b
       0.06115805 0.116300955 0.030988952 0.0022432976
000380 b3 ad 9d 3c b3 82 93 bc 00 33 9a bc b2 9e a8 3c
       0.019247865 -0.018006658 -0.018823147 0.020583484
000390 48 d5 01 3e e5 f4 de 3d 9d a5 98 3b d5 97 ea 3d
       0.12679017 0.10886554 0.0046584145 0.11454741
0003a0 17 77 53 3d de b6 cb bd 19 9b 2f bc be e3 01 3d
       0.051627245 -0.099469885 -0.0107181305 0.031711332
0003b0 9d f9 83 be 35 62 b7 bd 76 2d bc bd f3 af 37 bd
       -0.25776377 -0.089542784 -0.091883585 -0.044845533
0003c0 23 f8 f8 3d bf 3c 89 3d 05 f0 3c be 41 7b 17 3b
       0.12156703 0.067010395 -0.18450935 0.0023114237
0003d0 4d f8 a3 3d 17 51 7a 3c 4d 5d ca bd a6 6b c5 bc
       0.08006344 0.015278122 -0.09881077 -0.024099182
0003e0 fe a2 fa bd 26 d5 70 bd d2 be 20 be 43 92 f0 3c
       -0.122381195 -0.058797024 -0.15697792 0.029366618
0003f0 04 19 9a 3c d0 3d f1 bd 7e b6 81 3d 3e 2a 5b be
       0.018810757 -0.11779368 0.06333636 -0.21402833

bias f4 [32]
000000 4e 11 ca 3c 23 d5 42 3d 09 4e 26 3e 26 f8 bb 3d
       0.024666455 0.047566544 0.16240706 0.0917819
000010 3d ce 76 3d e1 cc ab 39 ec 5a 9f 3d 59 36 e9 bb
       0.060255278 0.00032768308 0.07781014 -0.0071170744
000020 34 27 df bc 53 c4 dd 3d ee da ad bd e2 84 08 3b
       -0.027240373 0.108284615 -0.08489023 0.0020831157
000030 6f 3b ca bd 83 20 ad bd 4e d0 df bd a4 f8 d7 3d
       -0.09874617 -0.08453467 -0.10928403 0.10545471
000040 4b b4 d0 3d eb 26 60 bd d0 7b 0b bd 2c d2 bd bb
       0.10190638 -0.054724615 -0.034053624 -0.0057928767
000050 f8 fc 6a bd 61 9b 7b 3c 3a ab 31 be a6 e0 ba bd
       -0.057370156 0.015356869 -0.17350474 -0.091248795
000060 41 fe a5 3c b9 34 05 3e bc 6a 00 be a3 94 e6 bb
       0.02026284 0.13008393 -0.12540716 -0.007036762
000070 3e 67 35 3c 3a ba d3 bd fc e1 7e 3d fe 75 05 be
       0.011071978 -0.10338254 0.062227234 -0.13033292

weight f4 [64, 32, 3]
000000 37 ab 03 ba 5b 71 e8 bc e6 5e b3 bd db 9c 31 3d
       -0.00050227664 -0.028374365 -0.08758335 0.04336248
000010 93 c6 55 3d 24 ef 9b 3b b3 74 df bc dc f4 8c 3d
       0.05219133 0.0047587324 -0.027277326 0.06882641
000020 eb ba 72 3d 54 85 f1 bd 39 85 9d bd c3 86 31 bc
       0.05926029 -0.117930084 -0.07691426 -0.010835352
000030 70 0f bc bd de 6c f8 3c 9d e4 d2 bd d9 60 16 bd
       -0.09182632 0.03032535 -0.10297511 -0.036713455
000040 d7 21 b4 bd 44 98 cc bd 10 c1 3e bd 64 1f d9 bc
       -0.08795517 -0.0998998 -0.046570837 -0.026504226
000050 ae cb 90 bd 14 e2 b6 bd c8 8b 25 3d 67 0b 04 bd
       -0.07070099 -0.0892984 0.04041651 -0.032237437
000060 98 27 28 3c e4 54 e2 bc c6 10 a0 3d e4 89 bd bc
       0.010263346 -0.02762837 0.07815699 -0.02313704
000070 02 80 9b 3d be 65 1c bd c0 cf 98 3d ce 61 9e 3d
       0.07592775 -0.038182966 0.074615 0.077334985
000080 18 6c 88 3d 1c f4 3d bd 2f 36 72 bd 17 92 b0 3d
       0.06661242 -0.04637538 -0.059133705 0.086216144
000090 cc ec b6 3d f6 ed c1 3d 94 ba f9 3d ee 05 76 bd
       0.08931884 0.094692156 0.1219379 -0.06006425
0000a0 79 c3 6e bc e1 06 41 3d 76 73 70 3d 30 19 3e 3d
       -0.0145729715 0.0471257 0.058703862 0.04641074
0000b0 e3 95 85 3d 0f d0 ae 3c de c2 4c 3d 48 16 58 bc
       0.06522729 0.021339444 0.049990527 -0.013188906
0000c0 d6 0f d2 bd 29 fb fa bc 38 e8 b7 bd e1 ff b5 bd
       -0.10256927 -0.03063734 -0.08979839 -0.08886696
0000d0 9c f3 93 bd e1 ab ba bc 07 e4 e1 3c ba 02 f3 b9
       -0.07224199 -0.022787036 0.027574552 -0.00046350603
0000e0 c0 56 02 3e 47 b5 8f 3d bd d9 5d 3c 0d 2c 50 bd
       0.12728405 0.07016998 0.013540682 -0.05082326
0000f0 c5 fa 94 bd 3d 6c c1 3d 8b a0 8c bd ab 64 8b 3d
       -0.07274393 0.09444473 -0.06866559 0.0680631
000100 4a 42 d9 bc 0d 06 82 3d 64 b8 42 3c 94 de 61 bd
       -0.026520867 0.0634881 0.011884782 -0.055143908
000110 7e be 4e 3d 35 d8 88 3d 0e 73 28 bb 8a 65 76 3d
       0.050474636 0.06681863 -0.0025703344 0.06015543
000120 8e ea bb 3d d5 5c 4a bd 88 c8 f8 3d 5b ae 4b 3d
       0.09175597 -0.049404938 0.12147623 0.049726825
000130 65 5c 90 3d a9 c3 a1 bd 03 98 55 bd c5 e5 a3 bd
       0.07048873 -0.07898647 -0.052146923 -0.080028094
000140 20 f1 ab 3c 7c 1a 7d 3c 09 d3 50 bc eb 7d 9f bd
       0.020989 0.015448209 -0.012745627 -0.07787689
000150 45 fd 01 be f5 51 75 bd ad 63 4f 3d 64 aa 0a bd
       -0.12694271 -0.059892613 0.050632168 -0.033853903
000160 b8 8c 44 3c 80 98 33 3d 1e d1 b5 bc 2c dc c2 3d
       0.011996441 0.043846607 -0.022194441 0.09514651
000170 ee b8 0e 3e f8 3b 9d 3b 2e 41 38 bd 41 03 73 bd
       0.13937733 0.0047984086 -0.044984035 -0.059329275
000180 74 3a 85 bd 3d ef a5 bd fd c6 dd bc 0c fb bb 3b
       -0.0650529 -0.08102272 -0.027072424 0.005736714
000190 17 74 58 3c 18 84 8c 3c 69 5b 1d bc ee 9a 56 3d
       0.013211272 0.017152831 -0.009604313 0.052393846
0001a0 59 9e b1 bd ce c8 a4 bc 0d 84 ae 3d ea f4 4c bd
       -0.086727805 -0.020115282 0.085212804 -0.050038256
0001b0 88 29 1a 3d 39 81 96 bd 0a 72 35 bc 40 37 d7 3a
       0.037637264 -0.07348866 -0.011074552 0.0016419664
0001c0 bb 73 cc bd ca 7b bf bd 74 f0 65 bc 80 eb 96 bd
       -0.09983011 -0.09349783 -0.014034379 -0.07369137
0001d0 9c 7f aa 3d 59 16 63 3d 43 ce b5 3d e4 41 0d 3c
       0.08325121 0.055441234 0.08877232 0.008621667
0001e0 f8 48 2b 3c c4 f2 e1 bc e4 ee 69 3d 5f 57 85 bd
       0.010454409 -0.02758158 0.05711259 -0.06510805
0001f0 27 ed 0f 3d d9 28 a4 3d c0 58 4f 3d 82 a8 c3 3d
       0.035138275 0.080156036 0.050621748 0.09553625
000200 32 d4 a2 bd 18 32 ef 3c 0d ed 0a 3d ab 6d 69 bc
       -0.07950629 0.029198691 0.033917475 -0.014247338
000210 c5 45 68 bd 8a a1 ce bc 43 71 10 3d 80 2d e6 bc
       -0.056707162 -0.025223512 0.035264265 -0.028097868
000220 01 c5 7c 3c 8a 86 46 bb 51 96 40 3d c3 43 19 bd
       0.015427829 -0.0030292594 0.047018353 -0.03741814
000230 d6 06 d0 bd 41 9a d0 39 22 5a 33 bd 69 5a 27 3d
       -0.10157554 0.0003978778 -0.04378713 0.040857706
000240 12 ca bf 3d 56 ab 3e 3b 34 e3 b7 bd 91 41 ae 3d
       0.09364714 0.0029093823 -0.089788824 0.085085995
000250 43 33 ca bd c2 0b 82 3d c8 90 89 bc 2f 13 ad 3d
       -0.09873059 0.06349899 -0.01679267 0.084509246
000260 f7 f3 9d 3d b8 de 0c bd 6e 39 e3 3a 28 a7 4e 3d
       0.07712548 -0.03439209 0.0017335841 0.05045238
000270 c0 5a bb 3b d0 44 95 bc f8 36 33 bd b5 3d 3b bd
       0.0057176054 -0.018221289 -0.043753594 -0.045713145
000280 fb 68 9e bd 22 63 18 3d 5e 97 a6 3c 5d 0c 28 bd
       -0.07734867 0.037203915 0.02033585 -0.041027416
000290 10 07 1c 3d d7 b5 ad bd c3 9f 60 3d d1 bf 8b 3d
       0.038092673 -0.08481949 0.05483986 0.068236955
0002a0 6d 17 5d 3d ae 07 8a bd 18 d2 d0 3c cd f6 4e bc
       0.05397742 -0.06739746 0.025490806 -0.012632084
0002b0 73 47 7f bc 7e c8 13 3c 28 6d 9b 3c 47 70 ca bd
       -0.015581 0.009019969 0.018972948 -0.098846965
0002c0 58 22 18 3d 2c 91 d1 bd d1 1e d3 bc 3e 6f a1 3d
       0.037142128 -0.102327675 -0.02577153 0.07882546
0002d0 ac 20 a7 bc 31 2a 3e bd f2 3c b5 bd 84 16 c0 3d
       -0.020401321 -0.046426956 -0.08849515 0.093792945
0002e0 08 e8 d2 3c b4 dc 85 bd d7 a8 7f bc 2d 7e 1c bc
       0.025745407 -0.065362364 -0.015604219 -0.009551567
0002f0 2f 2c bc bd c5 a2 98 bd 08 72 ca bb 8f 3d d3 bd
       -0.09188115 -0.07452921 -0.0061781444 -0.10314476
000300 8a 43 17 bd a1 20 c6 3c 33 bb ba bd b3 a0 d1 3d
       -0.036929645 0.02418548 -0.09117737 0.10235729
000310 e5 b7 9b 3c 8a 75 7c bd c1 2c 84 3d f8 f0 96 3c
       0.019008586 -0.06163553 0.06453849 0.01842545
000320 e0 88 b4 3d 9e 64 d7 bc e5 51 5d 3d 60 80 98 3d
       0.08815169 -0.026293095 0.05403318 0.074463606
000330 89 10 4f bd 96 24 b7 bd 82 c5 9b bd 0f de 7e bd
       -0.05055288 -0.08942525 -0.07606031 -0.06222349
000340 41 cf 4a bd ae 81 86 bd 6e b3 94 3d cb 83 9e bc
       -0.04951406 -0.06567703 0.07260786 -0.019349953
000350 24 c5 94 ba 3c 26 a4 3c 36 93 bd 3d b2 8d 8b bd
       -0.0011350256 0.020037763 0.09256594 -0.068141356
000360 a0 61 85 3d fa dc b5 3d ba 6b a1 3d c5 ef 5f bd
       0.06512761 0.088800386 0.07881875 -0.05467202
000370 34 f2 4d 3d 86 79 db bd 64 1d da bc c4 40 39 3d
       0.05027981 -0.10716538 -0.026625343 0.04522778
000380 04 ab 90 3d 83 f0 a9 3d b0 30 46 bd 6a 9f 89 3d
       0.07063869 0.08297827 -0.048386276 0.06719859
000390 e6 19 25 be 28 0e 2e be 7b 43 fe bd b0 82 be 3d
       -0.1612316 -0.16997588 -0.12415215 0.093022704
0003a0 50 97 56 bd 9f bd 30 3d ee 8f b5 3d 0d 71 42 bb
       -0.052390397 0.043149587 0.08865343 -0.0029669434
0003b0 6d 67 b6 3c 88 bd 00 3d 90 88 97 bd 28 88 d1 bd
       0.022266114 0.03143075 -0.07399094 -0.10231048
0003c0 c8 a3 40 3b 59 70 d2 bd cb 5d 35 bd 91 df 61 3d
       0.0029394496 -0.10275335 -0.0442789 0.05514485
0003d0 9c 18 ac bd e6 6f ba bc c9 e5 64 bd 19 5a 8f bd
       -0.08403131 -0.022758435 -0.055883203 -0.06999607
0003e0 91 23 04 3d 25 db 67 3d 8a db 81 bd 3f 14 4e bd
       0.03226048 0.056605477 -0.06340702 -0.050312277
0003f0 39 92 66 3d 62 ba 3b bc d7 09 af 3d 77 95 92 3d
       0.056291793 -0.011458011 0.08546799 0.071574144

bias f4 [64]
000000 47 f8 d6 3d 7e 61 1d 3d f7 08 29 bd e6 e8 1b bd
       0.10496574 0.038423054 -0.041268315 -0.038063906
000010 10 56 a4 3c dc 02 e6 bb cf 7c c6 bd b5 0b b1 bc
       0.020060569 -0.007019384 -0.09691774 -0.021612028
000020 33 c6 ef 3d 58 a6 c3 3c 7e d9 ca bd 76 3d 4c bc
       0.117077254 0.02388303 -0.099047646 -0.012465825
000030 94 5e b0 ba e6 45 fa 3a ad f0 d5 bc 5b 2f 64 bd
       -0.0013455921 0.0019094318 -0.02611574 -0.055709224
000040 8c a0 49 bc 5d 90 fd 3b 57 4e 9d 3d ba 07 95 3c
       -0.012306344 0.0077381567 0.07680958 0.01819216
000050 7d ff 18 3d 2b b7 2d 3d 91 4a 81 3d c7 1f 6a bd
       0.037353028 0.04241101 0.063130505 -0.05715921
000060 8e d2 60 bd d3 83 bc 3d bd af 37 bd 8b 70 9b 3c
       -0.0548883 0.09204831 -0.04484533 0.018974563
000070 d3 f1 29 bc 50 52 ce 3d e6 e0 f2 bd f9 f3 ef 3d
       -0.010372597 0.100742936 -0.11859302 0.11716456
000080 38 64 37 3c ed 1b 8d 3d 64 14 d7 bc 7e 5d d2 3b
       0.011193328 0.06890092 -0.02625484 0.0064198365
000090 9b 0c 24 bd 29 5d eb 3d 4f 2b c3 3d 60 9d 4e bd
       -0.040051084 0.11492378 0.09529745 -0.050443053
0000a0 30 77 d9 bd 89 58 bd 3d 5e 36 95 3d ad 6b 17 3e
       -0.10618436 0.09245402 0.0728576 0.14787169
0000b0 6f b4 0d ba b3 da 35 3d 57 b8 56 3d 7b a3 1b bd
       -0.000540561 0.04439802 0.052421894 -0.037997704
0000c0 4a 99 16 bd a5 75 0f 3e d8 a4 51 bb ef a1 01 3c
       -0.03676728 0.14009722 -0.0031989124 0.007912143
0000d0 4e 5b 98 bd d2 e5 24 3d b5 c3 06 3e 15 c2 f4 3d
       -0.0743929 0.040258236 0.13160594 0.11951081
0000e0 a4 61 da bd 28 a2 3c bd 22 b8 60 bd 2d 7a 91 3d
       -0.10663155 -0.04605308 -0.054863103 0.07103381
0000f0 72 4b 77 3d 2e 84 f3 3d 72 6d 8a bd ac e7 25 bd
       0.060374685 0.11890446 -0.06759156 -0.040504143

weight f4 [32, 64, 3]
000000 3d 1b 35 3d 98 b0 3c bd c4 e8 7b 3c 7c 3d d2 bb
       0.04421543 -0.04606685 0.01537532 -0.006416021
000010 20 57 6c bd 88 57 a7 3c 8c 80 8a 3d a1 55 50 bd
       -0.057700276 0.02042748 0.067627996 -0.050862912
000020 03 a2 1e bd 4d 71 9a bd 47 8a ec 3c e4 c5 72 bd
       -0.038728725 -0.07541142 0.02887453 -0.059270754
000030 4c 7f b9 bd fa d3 52 bc 64 9f 7a bd c0 32 0c bb
       -0.09057483 -0.012867922 -0.061187163 -0.0021392554
000040 e8 1e 8d 3c 89 b2 5b 3d 1a 41 89 3c 77 49 13 bd
       0.017226651 0.05363706 0.016754676 -0.035958733
000050 bb de d6 3b df 76 81 3c 4d 08 9c 3d 8b 00 83 bd
       0.0065573133 0.015803752 0.07618771 -0.06396588
000060 07 c8 9b bd 20 3e bd bd 99 8c 90 bd 06 42 5e bd
       -0.076065116 -0.09240365 -0.07058067 -0.054262184
000070 ed 65 fe bc e2 6f 0f 3c 9b 7e 88 3c 8e 4f a3 bb
       -0.031054461 0.008754702 0.016661933 -0.004983849
000080 33 4e 2d 3c 9b 00 f2 bc 73 f4 18 3d 9f b6 2f bd
       0.010577726 -0.029541304 0.0373425 -0.04289877
000090 92 e9 09 3d 81 af 82 bd ea f0 77 3d 08 73 97 bc
       0.033670016 -0.06381131 0.060532488 -0.018487468
0000a0 78 6e 2b 3c a0 68 0a bd 3c 85 a2 bd 5b 14 d5 bc
       0.0104633495 -0.033791184 -0.07935569 -0.026010683
0000b0 65 73 50 3c 17 91 46 3d 38 f1 38 3d 68 e5 b5 3d
       0.012722825 0.048478212 0.04515192 0.088816464
0000c0 93 0e 07 be 59 f5 84 bd ae 38 e2 bd 73 03 ea 3c
       -0.13189153 -0.06492109 -0.11045967 0.028566098
0000d0 6d 68 4e bd 71 c0 b7 3c a2 79 17 bc a1 98 69 bd
       -0.050392557 0.02243063 -0.009245308 -0.057030324
0000e0 94 b9 da bc b2 89 6c 3d 93 9d 16 bd db 80 7d bc
       -0.026699819 0.057748504 -0.03677137 -0.015472616
0000f0 11 b1 02 bd e2 67 63 bc d9 da 34 bd 64 70 8c bc
       -0.031907145 -0.013879748 -0.044154022 -0.017143436
000100 2c 9c bd 3c 18 0b 76 bd be e2 ca 3d 5f 84 7a 3d
       0.023145758 -0.060069174 0.09906529 0.061161395
000110 da fd f1 3d 2f f4 b5 3c 97 a0 93 3d ad 5f 57 3d
       0.118159965 0.022211162 0.072083645 0.052581478
000120 2b 14 01 bd 16 f8 54 bd 2a 89 5e bd f2 77 9a 3d
       -0.031513374 -0.051994406 -0.05433003 0.07542409
000130 5f e4 3f 3d 17 09 68 bc 97 ee 76 bd 07 88 59 bd
       0.04684865 -0.014162323 -0.06028613 -0.05310824
000140 83 d3 ce bd 72 2b ba ba 9a ca b9 bc cd ce a8 bc
       -0.100989364 -0.0014203622 -0.022679616 -0.020606423
000150 e0 77 e0 bd e9 bc 1b be 99 9f a1 bc e1 26 ed bc
       -0.10960364 -0.15208782 -0.019729422 -0.028949203
000160 b0 3d 7b 3d c5 02 22 3d f3 45 40 bd 66 4f 36 bc
       0.061338127 0.039553422 -0.04694171 -0.0111273285
000170 55 71 54 bd e5 8d 02 3c f5 3b 12 3d 81 b6 9d 3d
       -0.051865894 0.007968401 0.03570171 0.077008255
000180 73 69 52 3d 4c 62 b6 bc c3 09 aa bd 43 9e 0a 3d
       0.051370095 -0.022263668 -0.08302643 0.033842336
000190 8a 80 65 3d 80 28 ab 3d 14 cd 3d 3d c8 d2 19 3c
       0.056030788 0.08357334 0.046338156 0.009388633
0001a0 e8 bc c0 3c cc aa 47 3d a8 5a 90 bd 29 c0 5a bb
       0.023527578 0.04874687 -0.07048541 -0.0033378697
0001b0 72 e4 43 bd 3c a6 c3 bd 20 62 03 3c bc 76 6f 3d
       -0.047825284 -0.09553191 0.008019 0.058462843
0001c0 6f 6c 46 bd dc 2f 0d 3c ee bb 9c 3a 9c be a0 3c
       -0.048443254 0.008617368 0.0011957863 0.01962214
0001d0 75 55 89 3d 61 df 31 bc 22 58 67 ba 65 a1 83 bd
       0.06705753 -0.01085648 -0.00088250835 -0.06427268
0001e0 c5 73 a2 bd 8f df 43 bc 27 8d af 3d f1 4e 42 3c
       -0.079322375 -0.011955156 0.085718445 0.011859641
0001f0 9c 3e f6 bc bf c7 54 bd b9 b3 ea 3c ea 02 27 bb
       -0.030059151 -0.051948305 0.028650152 -0.0025483915
000200 23 ce 80 bd 48 22 1c 3d 0e bb a1 3d 47 44 0f bd
       -0.062893175 0.03811863 0.07897006 -0.034977224
000210 2b d3 d4 bc 2a 9b 0d bd 1b e2 fe 3c c1 44 d1 3c
       -0.025979599 -0.034571804 0.031113675 0.02554548
000220 e1 1b 16 bc d6 f6 64 3d 91 61 89 bd 27 b2 27 3d
       -0.00916192 0.055899464 -0.067080624 0.040941384
000230 0f bc 20 3d 92 0c 9c bd 38 20 2f bd f3 f9 20 bc
       0.039241847 -0.07619585 -0.042755336 -0.009825218
000240 2d f4 38 3c e0 39 9b 3d f8 59 6c 3d 61 a4 b8 bd
       0.011288685 0.07579398 0.05770299 -0.09015728
000250 42 f5 86 bd 4d 49 5b bd d9 1c f2 3c 09 3c 92 3c
       -0.06589748 -0.053536702 0.029554771 0.017850893
000260 e0 18 05 3b 65 ca ad 3d ce e6 3e 3d 80 d9 1d 3c
       0.0020309016 0.08485869 0.04660683 0.009634376
000270 c1 08 2e 3c 23 89 ea bc 42 01 76 3c bf 8b d6 3d
       0.010622204 -0.028629845 0.015014948 0.10475873
000280 7f 18 91 bc f0 1c ff 3c b4 12 87 3c 1d 8c ba 3c
       -0.017711876 0.031141728 0.01648841 0.02277189
000290 2b 47 44 bb 6b bf 09 bd c7 38 6b 3d 43 30 e2 bc
       -0.0029949646 -0.033629816 0.057427194 -0.027610904
0002a0 08 0e b8 3d 29 93 4c 3c 69 12 e1 3c 33 29 5c bd
       0.08987051 0.012486258 0.027474599 -0.053750228
0002b0 8a 72 1f 3d 4e a6 7e 3d ec 95 67 ba fb 1f 5f bd
       0.038927592 0.06217032 -0.0008834291 -0.05447386
0002c0 b5 18 e5 3b 6b 63 ba bc a6 60 77 3d 0a 8a 0a 3d
       0.0069914707 -0.022752484 0.060394906 0.03382305
0002d0 e3 ac 62 bd bf 1a ae bd 13 5c ab 3c 86 7b 65 3d
       -0.05534066 -0.08501195 0.020917928 0.056026004
0002e0 3b 59 95 bc 2d bf b4 3d 7d 80 77 3d b5 50 f0 bc
       -0.018231025 0.088255264 0.06042527 -0.02933536
0002f0 89 20 09 3d a7 58 90 3d 35 dc 58 bd 1e 54 8b bd
       0.033478294 0.07048159 -0.05294438 -0.068031535
000300 76 a2 1c 3d c0 0b 5c bd 3b 1c 95 ba f3 e3 83 bd
       0.038240872 -0.053722143 -0.0011376211 -0.06439962
000310 7e 5d 11 bd 38 c8 28 3d 5c 14 31 3d f3 e8 1d 3d
       -0.03548955 0.04120657 0.043232307 0.038552236
000320 64 fe 4c b9 e8 c0 89 3d d5 c3 4b bc 63 a2 62 bd
       -0.00019549724 0.06726247 -0.012436827 -0.055330645
000330 60 f7 fe ba d0 a5 be bc 07 08 8d 3b d6 ce c6 bd
       -0.0019452386 -0.023272425 0.0043039354 -0.097074196
000340 39 0c 64 bc be 59 cf bd 73 bc d9 bd 36 58 06 bc
       -0.01391893 -0.10124539 -0.10631647 -0.008199742
000350 91 39 c5 bd f0 11 c2 3b 7b 4b e5 3c c1 e7 97 bc
       -0.096301205 0.0059225485 0.027990093 -0.018543126
000360 f1 92 65 bc 72 66 52 bd c9 0e 37 bd 57 78 4b 3d
       -0.014012084 -0.05136723 -0.044691835 0.049675312
000370 0f 5c a7 3d 69 72 36 bc fa 3e 4a 3d 07 00 80 bd
       0.08171856 -0.011135676 0.049376465 -0.06250005
000380 d2 82 53 bd 9d 0a 72 bb df 2f 9a 3c a8 09 95 bd
       -0.05163843 -0.0036932596 0.018821655 -0.072772324
000390 50 8d 50 bd 41 9a 03 be ab 53 71 bc b4 2b e3 bb
       -0.050916016 -0.12851812 -0.014729421 -0.0069327
0003a0 9f 45 9e 3d 96 b7 a0 bb 6a e8 aa 3c f6 6e d3 3b
       0.07728123 -0.0049046976 0.020862777 0.0064524366
0003b0 2c a4 15 3d 53 f5 9f bd 82 91 10 3d 78 75 1c 3d
       0.03653352 -0.07810464 0.035295017 0.038197964
0003c0 1b 19 f9 bc 4c 7d af 3b f7 98 92 bc ae b0 28 3d
       -0.030407479 0.0053555127 -0.017895205 0.04118412
0003d0 6c 18 94 bd 3e c1 de bb f0 6f 86 bd 46 79 19 bd
       -0.072312206 -0.0067979386 -0.06564319 -0.03746917
0003e0 df 7c 8a 3c 12 db 19 3d 5e 05 1b bd 7a f7 39 bd
       0.016905246 0.037562437 -0.037846915 -0.045402028
0003f0 20 77 a6 bd 7a 34 ba bd 6a 2b 40 bc 19 80 7b bd
       -0.0812819 -0.0909204 -0.011729101 -0.06140146

bias f4 [32]
000000 2f cc 5b 3d fd f7 05 bd e4 8b 6e 3d 2a 5d 35 bd
       0.05366152 -0.032707203 0.05823888 -0.0442783
000010 bc fb c5 3d 57 8f 53 bd bc f9 30 3d 9a 71 b0 bc
       0.09667155 -0.05165037 0.043206915 -0.021538544
000020 d8 b2 13 bd a1 96 a5 3c 6c 79 a4 bd 98 b5 ef bc
       -0.03605923 0.020213427 -0.08030972 -0.029261395
000030 97 3b a3 3d a9 06 3b 3d 84 d4 81 3d 98 f0 a9 3c
       0.0797035 0.04566065 0.06339362 0.020744607
000040 27 64 d4 3c f3 22 a1 3d 3b 2b 5d 3d d9 84 83 3d
       0.025926663 0.07867994 0.053996306 0.06421823
000050 23 a7 d8 bc 6f c2 67 bd 8b f2 1c 3d a6 1a 34 bb
       -0.026446884 -0.05658191 0.038317244 -0.0027481704
000060 51 53 1e 3c ed b5 97 3d 8b 50 e7 3b ff 9a 80 bc
       0.009663419 0.074077465 0.007059162 -0.015698908
000070 97 22 81 3d f3 77 30 3d 8c 3e 14 3d 7a a3 f1 3c
       0.063054256 0.043083142 0.03619246 0.029496897

weight f4 [32, 64]
000000 3b d4 42 bc 04 61 03 3e e0 bb dd bc 55 90 67 3d
       -0.01189142 0.12829977 -0.027067125 0.05653413
000010 e1 26 84 bd 75 db 14 bb 87 79 bb 3d 50 1f 26 3d
       -0.06452728 -0.0022713814 0.09154039 0.040557206
000020 fd 13 89 3d 1c 4e 82 3d a7 d5 a4 3c 0c f0 d1 3d
       0.066932656 0.063625544 0.020121409 0.102508634
000030 47 91 4b bd 98 aa 54 bc 72 0f f3 ba 31 49 83 3d
       -0.049699094 -0.012980126 -0.0018544032 0.064104445
000040 32 97 08 3d 54 a1 46 bd fa 86 43 bc c8 71 1d bd
       0.033347316 -0.0484937 -0.011934036 -0.03843859
000050 4f 5a cb bd 12 cc 1a 3d b7 71 17 3c d6 bc b0 3d
       -0.09929334 0.037792273 0.00924342 0.086297676
000060 c6 37 cd bd 1a 7c b1 bd 47 46 a9 3d 44 a5 9c bc
       -0.100204036 -0.086662486 0.082653575 -0.019121774
000070 d3 8a 6d bc 0f f6 9d bd e9 32 04 bd 30 80 bc 3d
       -0.01449843 -0.077129476 -0.032275114 0.09204137
000080 b5 a6 3d 3d 59 11 f8 3d d1 33 7d 3d a2 11 81 3c
       0.046301562 0.12112684 0.061816994 0.015755478
000090 f1 c7 ea bd 82 c8 1b bd 24 8c 5a bd 83 f8 cc 3d
       -0.11463917 -0.038033016 -0.053356305 0.10008337
0000a0 ae 50 fd 3d a7 1e c9 3d 75 b0 fe 3d 11 28 35 3d
       0.12368904 0.098202996 0.12436 0.044227663
0000b0 37 fd a0 3c b2 fe 59 bd 36 8a f6 bd be 94 df bb
       0.019651992 -0.053221412 -0.120380804 -0.0068231514
0000c0 e8 4f c1 3d ee 79 8a bd b8 bb 9f 3d ef b8 9c 3d
       0.09439069 -0.067615375 0.077994764 0.07652461
0000d0 54 82 d3 3c 29 c6 43 3d e1 ac 63 bd 12 c3 55 3d
       0.025818981 0.047796402 -0.055584792 0.052187987
0000e0 b0 63 08 3e 6e 54 95 bd 65 54 aa 3d 03 fc b5 bd
       0.13319278 -0.07291494 0.08316878 -0.08885958
0000f0 69 29 5f bd f9 9f ef 3b e2 2e 8e bd 8f 38 23 bc
       -0.05448285 0.0073127714 -0.06942536 -0.009962215
000100 72 f2 24 bb fd eb a2 bd 48 5f e3 3d 8f fc 05 37
       -0.0025168923 -0.079551674 0.11102158 7.986221e-06
000110 52 aa 88 bd 0c 6d 21 3e 7e 87 ea 3d c7 53 14 bd
       -0.06673111 0.15764254 0.11451624 -0.03621271
000120 86 c3 b9 bd bc 0b 42 bb 39 1b 13 bd ba 39 98 3d
       -0.09070496 -0.0029609045 -0.035914633 0.074328855
000130 d7 55 a0 bd f3 f0 79 3c f9 99 b3 bb e3 bf a1 3c
       -0.07828873 0.015255201 -0.0054810015 0.019744819
000140 34 31 00 be 4d 81 16 3d b5 79 a2 bd 20 bb cd 3d
       -0.1251877 0.036744405 -0.0793337 0.10045457
000150 7b 92 b7 bc 98 8a b9 3d 41 db 84 3d 16 c3 02 be
       -0.022408715 0.09059638 0.06487132 -0.12769732
000160 28 80 7d 3d a4 c4 63 bd 76 20 a2 3d 3f a9 eb 3c
       0.061889797 -0.055607453 0.07916348 0.028767226
000170 69 ee 0d 3e 8f 1c b7 bd 31 ef 9a 3d 04 5e c6 bc
       0.13860478 -0.08940994 0.075651534 -0.024214752
000180 ab c1 3b 3d ae 18 3d 3c cf 83 b3 3d e4 35 d4 3d
       0.045838993 0.011541529 0.08765375 0.10361841
000190 bf 34 f5 bd 7a 17 86 bd 80 5a ed 3b 15 6d 30 3d
       -0.11972951 -0.065474465 0.0072434545 0.04307278
0001a0 ae 07 b8 bd a0 38 42 3d d5 b2 2d 3e cd 9e f5 3d
       -0.0898584 0.047417283 0.1696275 0.119931795
0001b0 96 61 ae 3d fe c9 9a bc 1b e3 a9 3d 24 f3 0e 3d
       0.08514707 -0.018895146 0.0829527 0.034899846
0001c0 9c bb ec 3b e0 5d 04 3d 44 e4 a1 bd 45 28 14 3c
       0.007224513 0.03231609 -0.07904866 0.009042804
0001d0 29 43 02 3d c5 ae 32 bd 6c 11 ed 3c 79 43 0c bd
       0.03180233 -0.043623704 0.028938971 -0.034244034
0001e0 50 22 a3 bd b4 e2 77 3d d5 e5 f6 3d 2d 28 8f bd
       -0.07965529 0.060518935 0.12055556 -0.06990085
0001f0 64 b9 61 3d bc 5b 45 3d 56 ca ab 3d c9 75 ca 3b
       0.055108443 0.048183188 0.08388202 0.006178592
000200 27 d0 b0 bd d7 f0 99 3d 38 cb 17 be f8 be 96 bd
       -0.08633452 0.0751664 -0.14823616 -0.07360643
000210 4d 53 de bc 17 6d 11 3d 90 35 13 3c ef 2b 80 bc
       -0.02713933 0.035504427 0.008984938 -0.01564595
000220 91 b9 03 be 34 e0 d8 bd 7d 23 3b bd c8 39 f9 bc
       -0.12863757 -0.10589638 -0.04568814 -0.03042306
000230 60 ac 54 3b 70 3f f3 3d 4e d7 91 bb 32 26 9b bd
       0.0032451376 0.11877334 -0.004450715 -0.075756446
000240 08 39 83 3d a7 de a3 3c 4b 62 d0 3c fe 6e d3 bd
       0.06407362 0.02000363 0.025437495 -0.103239045
000250 6b f9 ed 3d 6b 8d e1 bd 71 e1 53 3e df ba 3e bb
       0.11619838 -0.110133015 0.20691468 -0.0029103083
000260 75 c6 05 be 06 ca f4 3d 23 44 c3 bc 9d ff 11 3d
       -0.13063987 0.119525954 -0.023836201 0.035644162
000270 f0 20 91 3c 73 8f 91 bd eb c6 41 3e 14 4d 12 bd
       0.017715901 -0.07107439 0.18923537 -0.03571804
000280 0b 06 d4 3d bc 68 34 bd 2a 77 82 bd 80 36 08 3b
       0.10352715 -0.044045195 -0.06370385 0.0020784438
000290 0f 04 34 bd c1 cf a7 bd ce 39 b6 3d b9 a3 9d bd
       -0.043949183 -0.08193923 0.08897744 -0.07697243
0002a0 e8 53 74 3d 82 7c a6 3d 0a 82 d1 3d de 18 fa 3c
       0.05965033 0.08129217 0.10229881 0.030529436
0002b0 f3 a0 be bc d6 4f 02 3e 26 e5 6c 3d 7c db 93 bd
       -0.023270106 0.12725767 0.05783572 -0.07219598
0002c0 1e 81 a1 3b 61 88 5d 3d 3d 1a dc 3c 29 44 30 bd
       0.004928722 0.05408514 0.02686798 -0.043033753
0002d0 dc 40 bc bd de d6 21 3d 66 04 47 3e 2d 90 b4 bd
       -0.091920584 0.039511554 0.19435272 -0.08816562
0002e0 5d 08 6a 3d 7f eb ff 3d 2e c4 c5 3c 8d 08 aa bd
       0.057136882 0.12496089 0.024141397 -0.08302412
0002f0 d4 fc f6 3c bf bb 18 be 29 4e 2c bd bf 02 9a 3d
       0.030149855 -0.1491537 -0.042066727 0.07520055
000300 1e 33 8e 3d 70 59 60 3d 31 aa 71 bc 8c 48 37 3d
       0.069433436 0.054772794 -0.014750049 0.04474692
000310 62 37 b2 3d 0b de 0b 3e 4c 73 99 bd 44 cb 52 bd
       0.0870197 0.13658921 -0.07492694 -0.05146338
000320 83 04 c0 bc 33 83 c8 3d 45 ed a0 3c 6c 1f 05 3d
       -0.023439651 0.09790649 0.019644389 0.03250067
000330 9c 0c db bd be ab ca 3a 75 da bb bc e2 7d eb bd
       -0.106957644 0.001546256 -0.022931317 -0.114986196
000340 6d 56 68 3d 5d a3 c5 bd cb 81 73 bd d8 5a 61 bd
       0.056723047 -0.096503 -0.059449952 -0.055018276
000350 00 ae 44 bc f5 d9 b8 3d 8a 1e 06 3c 2c 49 4e 3d
       -0.012004375 0.09025947 0.008185992 0.05036275
000360 88 76 c0 bd 4a 10 c2 3d 46 6c 55 3d a8 26 9b 3c
       -0.09397608 0.09475763 0.05210521 0.018939331
000370 f0 0d c2 bd 54 9e 10 be 2d 17 33 3e 19 49 0e 3d
       -0.094753146 -0.14122897 0.1748931 0.03473768
000380 47 28 00 bd 8e 96 88 bc 80 f7 ef 3c 10 9c 71 3d
       -0.03128841 -0.016673353 0.029292822 0.058986723
000390 21 1d c3 3c f5 07 f9 3d fc e3 44 bd f7 db 17 3d
       0.0238176 0.12159721 -0.048068985 0.03707501
0003a0 e6 84 2a 3d e5 bb 2a 3e 4b bc d2 3b aa 10 90 bd
       0.041630648 0.16673239 0.0064311377 -0.070344284
0003b0 bc 39 43 3d 39 22 31 bd 56 79 1b 3d 69 c6 0a 3d
       0.04766248 -0.043245528 0.03795751 0.033880625
0003c0 f9 45 fb bd 6b 24 dc bb 2c dc f1 bb 6a 79 f0 bd
       -0.122692056 -0.0067182085 -0.007380983 -0.11741908
0003d0 79 23 aa bc 0a 75 8f bc 0b b6 b1 3d 38 49 21 be
       -0.020768868 -0.017511863 0.086773 -0.15750587
0003e0 a5 a4 d7 bc 9f 6c 83 3d b7 0a 8a 3d 10 3f e0 bc
       -0.026323626 0.06417202 0.06740325 -0.02737382
0003f0 b9 85 10 be 35 d8 8e bd a9 4f f6 3c 9f 53 eb bd
       -0.14113511 -0.06974832 0.030067282 -0.11490559

bias f4 [32]
000000 98 d0 02 be 31 2b 57 3b 1c 6d c8 3d 63 9d 05 bd
       -0.12774885 0.003283214 0.09786436 -0.0326208
000010 e1 7e 06 3e 2a 89 43 bd 5b d7 c6 3d a3 35 be bc
       0.13134338 -0.04773823 0.097090445 -0.023218935
000020 1c 80 c7 bd 88 b0 c9 bd ff 6e cd 3c 2a c4 dc bd
       -0.09741232 -0.09848124 0.025077341 -0.10779603
000030 20 86 59 3d 1c 70 b1 bd d6 8a e9 3d 86 83 d4 ba
       0.053106427 -0.08663961 0.11403434 -0.0016213513
000040 ae 07 10 be 2d 49 ea 3d 0e ec 1a 3e 3d 99 88 3d
       -0.1406543 0.114397384 0.1512911 0.06669853
000050 44 12 02 3d 56 30 65 3d f2 93 8e bd 90 72 09 3e
       0.0317557 0.0559543 -0.06961812 0.13422608
000060 b6 40 df bd 60 8e b2 3c 6e 72 1c bd a9 e2 3c bd
       -0.109010145 0.021796405 -0.038195066 -0.046114597
000070 49 de e5 bc 93 47 d8 3d 54 3a 85 bc bf 4a 32 bd
       -0.028060095 0.10560527 -0.016263165 -0.043528315

weight f4 [32, 32]
000000 2b 55 1d 3e 4d c8 b2 3d f3 a7 38 3d 0a 7b 0a 3e
       0.1536452 0.087296106 0.045082044 0.13523498
000010 44 bf 38 3c c1 29 2a bd 7b a5 a6 bd ce 2e fe 3d
       0.01127607 -0.041543726 -0.08137032 0.12411271
000020 74 af 49 bc 7b 52 3d 3d ad 22 30 3d b6 aa b0 3d
       -0.012309898 0.046221238 0.04300182 0.086263105
000030 f3 e6 11 3c f5 1b cd bc de e2 24 be 9e ec 0c 3e
       0.00890516 -0.025037745 -0.16102168 0.13762137
000040 29 8d da bd e5 cf a3 3d 7a 6b b0 3d 76 cc 14 be
       -0.106714554 0.07998637 0.086142495 -0.1453112
000050 94 f9 0c 3e c2 dc 3f 3e 96 2f 43 be a7 94 40 be
       0.13767081 0.18736556 -0.19061121 -0.18806706
000060 ae fd 29 3e 94 1f 72 3d 5d 69 00 3e 7b aa d9 bd
       0.16600677 0.059112146 0.12540193 -0.1062822
000070 a9 0d c9 3c c7 b1 b2 bc ef 98 b2 3d f4 d7 b6 bd
       0.024542646 -0.021813286 0.08720576 -0.089279085
000080 6e 9a 78 bd 1d 03 5e bd 65 58 59 3e 19 2b 0a 3e
       -0.06069415 -0.054202188 0.21225126 0.13493003
000090 68 6c cd bc 7c 7f 18 3b f6 3c 74 3c 65 7d dc 3d
       -0.025076106 0.0023269346 0.014907112 0.107661046
0000a0 58 bf 98 bd 00 32 1f be bd f2 b3 bd 78 5c 1e 3e
       -0.07458371 -0.15546417 -0.08786533 0.15464962
0000b0 09 66 e4 bc bf 3d 0f 3e 57 df d0 3d a5 06 97 3c
       -0.027880685 0.13988398 0.10198849 0.018435786
0000c0 84 a5 00 be 9a fa e1 bd 17 20 dd 3d a7 7d c0 3d
       -0.12563139 -0.110341266 0.10797136 0.09398966
0000d0 20 36 ce 3d 5a 7a 51 3d 7d ff bf bc 13 56 11 3e
       0.10068917 0.051142074 -0.023437256 0.14192991
0000e0 af aa 15 bd 11 16 c2 bc ee a6 90 3e 94 04 a1 bd
       -0.03653973 -0.023692163 0.28252357 -0.07862201
0000f0 fd 2e fb bd 46 ed 19 be 3e f3 9b bd a4 55 3c 3e
       -0.12264822 -0.15031919 -0.07614754 0.18392044
000100 03 2a 32 3d e8 87 0e 3d dd 52 b9 3d 01 a2 6b bc
       0.043497097 0.03479758 0.09049008 -0.014381886
000110 b2 67 04 3e ea c7 2d bd fb 36 54 3d 32 c1 2b 3e
       0.12930182 -0.04242698 0.051810246 0.16772917
000120 61 5a 96 bd b6 c9 dd 3c 82 c2 1b bd 13 c4 26 3e
       -0.07341457 0.027073722 -0.038027294 0.16285734
000130 a1 05 c4 3b 9b 90 25 be 27 45 fe 3b 28 b4 8e 3d
       0.0059821163 -0.16168444 0.0077597084 0.06967956
000140 20 82 55 3e 4e d4 71 bd ed 79 c4 bc b3 47 1c 3e
       0.2085042 -0.05904036 -0.02398392 0.15261726
000150 98 30 1d 3e d3 c9 37 3e bf 42 0a 3d 88 2f ed bb
       0.15350568 0.17948084 0.03375506 -0.007238332
000160 52 46 ea bb 45 30 23 3d 76 72 f0 bd 55 0e ae 3d
       -0.007149496 0.039840955 -0.11740582 0.08498827
000170 b7 ee 92 bc bd bc 2c be 43 82 c7 bb 70 df 3c bc
       -0.017936094 -0.16868873 -0.0060885265 -0.011527881
000180 79 39 11 be 6f 98 a9 3d 09 34 4f 3d 01 5b 06 be
       -0.1418208 0.082810275 0.050586734 -0.13120653
000190 f9 ac b1 3d 6e 02 74 be 5d 77 14 3e 4e 57 49 bd
       0.0867557 -0.23829052 0.14498658 -0.049155526
0001a0 72 9d 5a be ec 79 19 be 28 e7 b6 bd f1 bd 61 bd
       -0.21349123 -0.14987916 -0.08930808 -0.055112783
0001b0 94 00 4b bd 3f 81 83 bd 6b ab 2f 3e 14 57 26 bd
       -0.0495611 -0.06421136 0.17155235 -0.040610388
0001c0 a0 e9 ad bd fe 25 b9 bd b1 0c 0c 3e 8f f4 75 bd
       -0.08491826 -0.090404496 0.13676716 -0.060047682
0001d0 7e ef 8e bd e0 81 82 bc fe d4 e5 3d 21 bc 0f 3e
       -0.06979273 -0.01593107 0.11222266 0.14036609
0001e0 10 59 22 3e 96 ca 04 be ac e2 8f bc 81 2f cf bd
       0.15854287 -0.12967905 -0.01756414 -0.101164825
0001f0 34 1e f8 3d c1 63 28 be 79 4b cf bc 43 f5 7f 3d
       0.12115136 -0.16444303 -0.025304543 0.06248976
000200 4e 64 40 3e 7d c0 23 bd d2 f6 79 3d bb 4d cd 3d
       0.18788263 -0.039978493 0.0610264 0.100245915
000210 b5 d1 c5 3b 96 82 0a 3e 2b 65 04 be 7d 3d 75 3d
       0.006036962 0.13526377 -0.12929218 0.059873093
000220 52 74 2d 3e fa e1 f0 3d 00 4a 6d 3d 58 83 d5 bd
       0.16938904 0.117618516 0.0579319 -0.104254425
000230 64 f2 f9 bd 0d a8 0c 3d 7d 0b 6c 3d b3 fc 58 3e
       -0.122044355 0.034339953 0.057628144 0.21190147
000240 8e a9 4a 3e 90 ef 04 be 95 a6 c1 bd 73 39 93 3c
       0.19791242 -0.12982011 -0.09455601 0.01797173
000250 e4 9c d4 bd a2 6a af bd 95 81 1d be bb 5c 03 be
       -0.10381487 -0.085652605 -0.15381463 -0.12828343
000260 f0 c2 45 3e 00 93 c2 3d 78 c5 e9 3d c0 31 17 be
       0.19312644 0.09500694 0.11414617 -0.14765072
000270 80 c6 11 3e 48 5a 06 be 7c 98 30 3e 19 ed d9 bc
       0.14235878 -0.13120377 0.17245668 -0.026602315
000280 9e ca 29 3e c5 b2 18 be c3 8b 58 bc 89 a3 64 bc
       0.16581199 -0.14911945 -0.013216916 -0.013955005
000290 83 db 11 be fa af 90 bc 4a 65 ac 3d 63 3a 21 3e
       -0.14243893 -0.017662037 0.08417757 0.15744929
0002a0 2f e4 39 be 24 43 c3 3d 42 69 ec 3d 85 cd 17 3e
       -0.18153451 0.095342904 0.11543514 0.14824493
0002b0 2e 4f cc 3c ee 31 0f 3e 9e c5 08 3e 6f 3f c3 3d
       0.0249401 0.1398389 0.13356635 0.095335834
0002c0 5d 4b 37 3e 29 0e 13 be 21 2e ff bd 65 5b e8 bd
       0.17899843 -0.1436087 -0.1245997 -0.11345557
0002d0 f3 60 a1 3c 54 86 d5 3c 39 80 c2 3c 15 a6 0c 3e
       0.01969955 0.02606503 0.023742782 0.1373523
0002e0 de 70 fc bc 5e cf df 3c ab 5e 83 bb d5 5b bc bd
       -0.030815538 0.02732056 -0.004009088 -0.09197203
0002f0 fe 95 03 3e f5 f7 9d bd 4a 02 4c bd 1a 0f 8d bd
       0.12850186 -0.0771331 -0.04980687 -0.06887646
000300 08 5e d6 bc a3 7f 13 3e 26 fd 11 be 24 bb 12 bd
       -0.026167884 0.14404158 -0.14256725 -0.035823002
000310 2a 55 28 be 17 3a cf bd ec 00 21 3d 72 3e dc 3d
       -0.16438738 -0.10118502 0.03930752 0.10754098
000320 08 4f 7f bd f4 a8 2d be e8 3e f9 bd 20 69 97 3c
       -0.06233123 -0.16958982 -0.121702015 0.018482745
000330 24 1a 10 be e5 97 8b bd 84 72 2b bd 72 58 18 be
       -0.14072472 -0.06816081 -0.041857257 -0.14877489
000340 1e 29 fe bd 20 df 4b bd 18 2a 33 be 34 4a f2 bd
       -0.12410186 -0.049773335 -0.17496526 -0.118305594
000350 a4 93 5c 3d aa 45 d6 3d c8 33 11 bd ac e6 2c 3d
       0.05385174 0.10462506 -0.035449773 0.042212173
000360 f5 de c0 bd bc e8 04 bd 95 0d 28 3e 0d 0f 9b bd
       -0.09417526 -0.032448515 0.16411431 -0.0757123
000370 f0 bb 65 3c 71 e1 83 bd 69 db fd bd 26 9c c2 bd
       0.014021859 -0.06439484 -0.12395365 -0.09502439
000380 37 e5 88 bd 3c 76 8f bd 75 a4 a2 3c 26 86 a8 3d
       -0.06684344 -0.07004973 0.01985381 0.08228712
000390 68 ff 24 be cf 5b d8 3d ad 98 29 be be 96 c6 3d
       -0.16113055 0.10564386 -0.16562147 0.096967205
0003a0 50 58 0d 3d e4 42 d1 bd a7 34 13 be ad 8e e9 3d
       0.03450805 -0.102178365 -0.14375554 0.11404166
0003b0 06 b9 66 3d e9 2b c5 3d 1b e5 ea bc 84 21 53 bd
       0.056328796 0.09627516 -0.0286737 -0.051545635
0003c0 9f 82 ec bc 96 11 b9 3d 55 1c 12 bd e1 d3 7a bc
       -0.028870879 0.090365574 -0.03567155 -0.015309305
0003d0 31 bf 1f bd ab 96 e4 3d 0b 69 19 bd 89 d2 40 3c
       -0.039000694 0.1116155 -0.037453692 0.0117689455
0003e0 44 a2 e0 3c e7 b3 26 3e 99 f3 ab 3c d4 02 2b be
       0.027421124 0.16279565 0.02099018 -0.16700298
0003f0 67 1f af 3d f1 9e e4 bc 58 8a 37 bd 19 37 22 3e
       0.085509114 -0.02790782 -0.04480967 0.1584133

bias f4 [32]
000000 11 67 98 bd 33 a9 f1 bd a1 af 49 be f2 96 af 3a
       -0.07441533 -0.1179985 -0.19695903 0.0013396426
000010 fc 9b 1b be 97 c7 84 bd d6 ef df 3d d8 f4 94 3d
       -0.15196222 -0.06483381 0.10934417 0.07273263
000020 08 45 24 be 4b 6d 64 3d d3 a9 0e 3c 19 c0 04 be
       -0.16041958 0.055768292 0.008707481 -0.12963904
000030 10 e4 83 bd b5 31 5e bd 94 dd a3 bc 27 a3 1a 3e
       -0.06439984 -0.054246623 -0.020003118 0.151013
000040 52 25 26 be 53 30 f3 3d f5 14 46 3e be a0 c0 3d
       -0.16225174 0.118744515 0.19343932 0.09405659
000050 c0 ce 9f bd 5c 44 a3 bd 68 eb aa 3d a4 dc 95 bd
       -0.07803106 -0.07972023 0.083456814 -0.073174745
000060 70 fa 33 bd 14 0a 42 3e b7 6d 08 be 21 3b 0e be
       -0.043940008 0.18949157 -0.13323103 -0.13889743
000070 d0 88 29 3d 15 25 c6 3d 98 7a 32 be ea be 3f bc
       0.04139024 0.096750416 -0.17429578 -0.011703232

weight f4 [32, 64]
000000 8c 64 5e 3d e4 a6 dc bd 1d c0 99 3c c0 00 fd 3c
       0.054295108 -0.10774019 0.018768365 0.030884147
000010 e9 c7 d4 bb c6 42 ae bd 76 13 8a 3d 3c 8b a4 bd
       -0.0064935577 -0.0850883 0.06741993 -0.08034369
000020 94 70 92 bc c4 a6 1c bd d0 4d 95 3b 6a 5c 70 bd
       -0.017875947 -0.038244978 0.004556395 -0.058681883
000030 8e 29 92 bc e2 91 6a bd e2 29 99 bd 61 c3 7a 3d
       -0.01784208 -0.05726803 -0.07478692 0.061221484
000040 64 b0 bc 3d 55 78 a3 3d 84 fa b1 3d 8c d4 38 3d
       0.09213331 0.07981936 0.0869036 0.045124575
000050 e3 8f 15 bc 96 c5 ad bd 3b ea 0b 3e 3d 3e df 3d
       -0.009128544 -0.08484952 0.1366357 0.10900543
000060 05 49 c1 bd 87 ba ae 3d cf 28 c2 3b d4 2e 64 3d
       -0.094377555 0.08531671 0.005925275 0.05570872
000070 16 2e b8 3d 45 0d ea bd 91 67 14 bd 08 f4 0c 3d
       0.08993165 -0.11428312 -0.03623158 0.034412414
000080 9a ad 8b 3d 8d f4 85 3c fa b0 9e 3d ba 6e b6 bc
       0.06820221 0.016351962 0.07748599 -0.022269595
000090 84 45 e1 3c 7c 8b 73 3d 14 9e 88 3d 32 01 b5 bd
       0.027498968 0.059459195 0.06670776 -0.088381186
0000a0 c5 4c 4d ba ef 8f b4 bd 02 1c 2c 3d 1f df 9e bd
       -0.0007831569 -0.08816516 0.042018898 -0.07757401
0000b0 30 d8 64 bc 4a 06 d7 3d 94 e7 fd bc cd 44 7c bd
       -0.013967559 0.104992464 -0.030994214 -0.06158905
0000c0 ef 18 4b 3c 11 8f f2 bd de 9d ac bc 1c a6 92 bc
       0.012396081 -0.11843694 -0.02107137 -0.017901473
0000d0 41 03 e0 3d cf 22 8f bd 3d cc 28 3d 11 00 d3 b9
       0.10938121 -0.06989061 0.0412104 -0.00040245106
0000e0 25 55 7e 3d 4a 5c 16 3d d3 cf 3f bd 9d df 06 3e
       0.06209292 0.036709107 -0.046829056 0.13171239
0000f0 1b 88 ae bc 32 77 0a bd 7f 49 d5 3d 55 d8 4f bd
       -0.021305135 -0.03380508 0.10414409 -0.05074342
000100 86 de c1 bd 1e 0e ab bc 45 4b 8a 3d 18 38 83 3d
       -0.09466271 -0.020880755 0.06752638 0.064071834
000110 ce db 74 3d f2 62 a5 3c 0b e4 8f bc a6 26 08 3e
       0.059779935 0.020188782 -0.017564794 0.13295993
000120 08 6d d9 bd 5d f9 00 be d4 cb 8c bb 02 5e 59 3d
       -0.10616499 -0.12595125 -0.004296759 0.05306817
000130 27 73 3c bd a8 19 b7 3d 44 42 e7 3d 15 80 09 bc
       -0.046008255 0.089404404 0.11291936 -0.008392354
000140 ea 83 11 be 0b a1 a1 bd 52 ef be bd 8a 2d e9 3d
       -0.14210477 -0.07892045 -0.093229905 0.11385639
000150 c7 af 05 3c ae cd e3 3d 94 ce 07 3e 61 ea 25 3b
       0.008159584 0.11123215 0.13262397 0.0025316703
000160 51 9d 3b bd 5c df 88 bd 67 48 1a be 39 1a ad bd
       -0.045804325 -0.066832274 -0.15066682 -0.08452267
000170 ef 02 85 bc 63 ad 1a 3d c0 5c 02 bd d3 fd 69 3d
       -0.01623675 0.03776301 -0.031826735 0.05712683
000180 9a cf d4 bd 29 d5 8d bc 94 05 8f 3d 7d e6 f4 3b
       -0.10391159 -0.017313557 0.06983486 0.0074737654
000190 ed bd 33 bd 80 d0 09 bd 2e 0a ef bd f8 27 4e bd
       -0.0438823 -0.033646107 -0.116718635 -0.050331086
0001a0 b1 ec b8 b8 3c c0 98 3b 0d ff 20 be 2e aa 87 bc
       -8.817891e-05 0.004661588 -0.15722294 -0.01656064
0001b0 93 40 63 bd d2 39 30 3c 1d d3 f2 3d 18 b2 02 3e
       -0.055481505 0.010755973 0.11856673 0.1276325
0001c0 47 61 e6 bd cc c7 a9 3d c2 fc d3 3d 69 76 67 bd
       -0.11249023 0.08290061 0.10350944 -0.05650941
0001d0 c0 a2 fb 3c 3c 30 29 3b 52 11 23 be f1 ae 67 bb
       0.030717254 0.0025816103 -0.15924576 -0.0035352076
0001e0 74 9f 5e bd df 96 87 bd 16 30 b3 3c ae a1 ff 3c
       -0.054351285 -0.06620573 0.021873515 0.031205025
0001f0 67 8a c6 3d 1a b4 b3 3d f5 a7 b0 3d 0d 2a 07 3b
       0.09694367 0.08774586 0.08625785 0.002062443
000200 cd 32 65 3d 11 d7 96 bd 2f bd 20 3d 3e 5e ba bd
       0.05595665 -0.073652394 0.03924292 -0.091000065
000210 12 ab 44 3d da de 0a be 12 5b 92 bb ce b0 80 bd
       0.048014708 -0.13561574 -0.004466423 -0.06283723
000220 0a a4 1b 3d fd 7c 5b bd f8 64 01 be e5 a2 af bc
       0.037998237 -0.053585995 -0.12636173 -0.021439979
000230 ec 34 7e 3c 88 ea 09 be 50 94 18 bd 9a 35 09 3e
       0.015515547 -0.13468373 -0.037250817 0.13399354
000240 db 7c d9 bd 0c 4a 3b 3d 7b 7d f5 bc 05 d1 44 3d
       -0.106195174 0.045724913 -0.02996706 0.0480509
000250 bd f3 e0 bc 55 61 a7 3d e4 e1 8a bd e7 8c 11 3e
       -0.027459973 0.081728615 -0.067813665 0.14213906
000260 f8 9f cd 3d f8 76 db 3d 7d fd 3d bd 45 40 b5 3d
       0.10040277 0.10716051 -0.046384323 0.08850149
000270 a0 5a 2f 3c 9d a1 0a 3e 28 0d e0 bb 1f e4 b5 3d
       0.010702759 0.13538213 -0.006837506 0.08881401
000280 c2 1b b4 3b c4 90 3c bd 81 c6 dd bd 20 18 78 3d
       0.005496473 -0.046036497 -0.10828877 0.060569882
000290 20 e6 22 3e 97 fd 1d bd ac 8e 29 3d 67 a5 bb bd
       0.15908098 -0.03857192 0.041395828 -0.09162407
0002a0 27 03 b2 bd db cc 18 3c 0b 0d ac bd ba 72 c0 3b
       -0.086920075 0.009326185 -0.08400925 0.0058730515
0002b0 26 9b 6d bd 2f 47 87 bc d5 8b e9 3c ab a8 26 3d
       -0.05800929 -0.016513435 0.02850906 0.040688198
0002c0 37 73 b8 bd 93 4f 83 3d a4 0d f6 3d 54 e9 17 ba
       -0.090063505 0.06411662 0.120143205 -0.00057949615
0002d0 ff 8e 45 bd 02 0a a0 bd 5f ef 4b bd 2d 07 39 bb
       -0.048232075 -0.07814409 -0.04978883 -0.0028233037
0002e0 cb c2 92 3d ca 51 3b 3d ae 06 e7 bc 45 af 9f bd
       0.0716606 0.045732297 -0.028201427 -0.07797102
0002f0 a0 06 d5 bd cd ec 5a bd af 79 d1 3d ab 9d 64 bd
       -0.10401654 -0.053448487 0.102282874 -0.055814426
000300 2e 29 9e 3d 57 a0 d1 3d 51 ed 96 bd 00 a5 9e bb
       0.07722698 0.102356605 -0.07369483 -0.004841447
000310 3f fb b6 bd 40 14 be 3c 78 d1 ae bd 1f f8 0e be
       -0.0893464 0.023203015 -0.08536047 -0.13961838
000320 f5 87 5a bd 3a 4c 98 3c c2 9f 11 bb e3 01 76 3d
       -0.053352315 0.018591035 -0.0022220467 0.060060393
000330 d3 04 0e be 80 48 d8 bd f8 e4 ae bd 80 e8 b7 3c
       -0.13869028 -0.10560703 -0.08539766 0.022449732
000340 0d 16 df 3d 81 33 19 3d cc ec d7 bd e5 f8 c8 3d
       0.10892878 0.037402634 -0.10543212 0.09813098
000350 86 30 d1 3d 6a b1 4a 3d 1a ec a0 3d 8b 1c 9c 3d
       0.10214333 0.0494856 0.07857533 0.07622632
000360 a5 27 63 3c f0 ab 93 bd 2d 03 02 be 80 4a 1d 3c
       0.013864432 -0.07210529 -0.12696524 0.009600282
000370 78 0b 41 3d b7 9e 83 bc ba 31 d1 3d 26 53 01 bd
       0.047130078 -0.016066892 0.10214563 -0.031573437
000380 08 a6 d6 bd 7c 79 cd bd 35 4e 73 bb 03 44 16 3e
       -0.10480887 -0.10032937 -0.0037125472 0.14674382
000390 c3 85 64 bd ea 8b 56 bd 84 85 18 bd ee ff 58 be
       -0.055791628 -0.052379526 -0.037236705 -0.2119138
0003a0 86 98 aa 3d 1e 14 bc 3d ed 75 29 3d ec bb b8 bc
       0.08329873 0.091835245 0.04137223 -0.022550546
0003b0 26 ad 4e 3d 34 40 36 3d 89 7f c1 3c 8e b3 76 bc
       0.050458096 0.044494823 0.023620384 -0.015057458
0003c0 4c 24 2f bc e6 60 04 be 91 91 91 3d 22 a8 63 bd
       -0.010689806 -0.12927589 0.07107843 -0.055580266
0003d0 48 f1 9a 3d f1 dd cc bd 0c e3 cb 3d db 45 98 bd
       0.07565552 -0.100032695 0.09955415 -0.07435199
0003e0 b9 e0 a9 3d 82 05 dd bc c3 1c 28 bd 87 70 aa 3d
       0.082948156 -0.026980165 -0.041043054 0.08322244
0003f0 89 62 59 bc 09 c9 b6 bd 08 d1 b6 3d 2d 43 ad 3d
       -0.0132681215 -0.08925063 0.08926588 0.084600784

bias f4 [32]
000000 43 85 d7 3d 81 d5 0d 3e 51 d2 38 3d bf 15 fa bd
       0.105234645 0.13850977 0.04512245 -0.12211179
000010 b8 40 3f 3d b3 92 ce bd 21 9e b1 3d 9c c3 01 3e
       0.04669258 -0.100865744 0.08672739 0.12672275
000020 15 24 67 3d f0 95 c8 bc 60 07 b4 bd 3b 58 3e bd
       0.056430895 -0.024485558 -0.08790469 -0.046470862
000030 7b 21 c4 3c 0c 60 72 3d 19 9c 77 3d a4 70 cf bd
       0.023941746 0.05917363 0.0604516 -0.10128906
000040 90 80 c3 bc 92 cb 19 3e 96 81 17 3d ac 70 2a 3e
       -0.023865014 0.15019062 0.036988817 0.16644543
000050 d4 e9 d3 bd 64 c6 9f bd b2 8a cd bd df a8 8a 3d
       -0.103473336 -0.07801512 -0.1003622 0.06770491
000060 6d 5d dd bc 73 ee c1 3d 4d d0 9f bd 15 f1 0f 3e
       -0.027022088 0.09469309 -0.07803402 0.14056809
000070 52 eb f1 bd 69 cf 6e bb d1 8d a4 bb 45 17 53 3d
       -0.11812462 -0.0036439544 -0.0050217886 0.051535863
