SwarmNet - PyTorch/models/model_12_step.pkl (torch, 79611 bytes, 14 tensors)

weight f4 [32, 6, 3]
0.00897719 -0.2017236 -0.22336276 -0.22180383 -0.20356944 0.16937377 0.16908865 0.18233265
-0.13208976 -0.23359992 -0.08833623 -0.19044286 -0.08004853 0.14658643 -0.05118668 -0.192581
-0.10250597 0.23298435 0.10424784 0.15072638 -0.2333383 0.12865673 0.09816923 0.038361553
0.1836472 -0.15874036 0.09942625 -0.049331762 0.13793801 0.05804146 -0.13157696 -0.17530574
-0.3672472 -0.13652766 0.17195535 0.1451521 0.120245785 -0.22303984 -0.1690437 0.09279054
-0.06897369 -0.14629632 -0.20285581 0.20901944 -0.07315355 -0.007501712 -0.060083173 -0.22119358
0.13009545 -0.28254727 -0.35413095 0.026649565 0.2248278 0.26569685 0.04552416 0.15133952
0.1210951 0.1693697 -0.046345323 0.03739861 -0.08446892 0.025949182 0.052105382 0.22567081
-0.0013517393 0.26990575 -0.017523108 -0.27166858 -0.24791823 -0.24901223 0.03753079 0.024432914
-0.13059758 -0.20902303 0.07378529 -0.2347857 0.03267534 -0.06338212 0.106600806 0.0807011
-0.08559902 0.1501169 -0.13331169 -0.16502693 -0.0642654 -0.14672321 -0.05698456 -0.01225391
0.1659546 -0.16265823 -0.012574981 -0.104606755 0.15716642 0.04052969 -0.13380373 0.12246103
0.041607104 0.05885993 -0.10433962 0.36534548 -0.047258243 0.37650228 0.2650337 0.074573375
0.34619144 -0.026753075 -0.02663377 0.14314485 0.23866443 -0.09897811 -0.09973961 -0.14180402
0.10110033 -0.12014996 -0.19320051 -0.08243309 -0.026788536 -0.18113337 0.2370581 0.120703824
0.039762612 0.1651466 -0.22582217 -0.08223751 -0.216293 -0.3275789 0.24484034 0.11613806
-0.12971699 0.13867562 -0.04827438 -0.053184897 0.1349407 -0.038542364 0.008860288 0.11521017
-0.19048993 -0.04046539 0.16357689 0.0798604 -0.058361523 0.17814 -0.00014001338 0.12576365
0.1733543 -0.041331764 -0.1574435 0.097100616 0.09489057 0.009899714 -0.15798186 -0.17676894
0.19276068 -0.15246044 -0.36478513 -0.5602399 0.19294624 -0.13073555 -0.025675392 -0.09882317
-0.17982422 0.19598137 0.19487353 0.27295506 0.012338051 0.08282674 -0.075907715 -0.12606207
0.20218521 -0.19204237 0.13154991 0.06822307 -0.03906034 -0.032488856 -0.05048243 0.22022916
0.25747114 0.062297706 -0.24141632 -0.21017604 0.16049208 -0.050737362 0.13406962 0.20346564
0.02430543 0.16105016 0.16808125 0.107913844 0.08976544 -0.056635205 -0.074820384 0.045987308
-0.059786145 -0.068470605 -0.027924702 -0.10397744 -0.109101556 0.017671844 -0.23113059 0.12143345
0.16100031 0.094651 0.1903757 0.1787327 0.17429066 0.0077692694 -0.023411583 0.058101416
0.23934488 0.23026818 -0.0019085865 -0.23742211 0.067616664 -0.21770081 -0.1394299 -0.07900501
0.050364416 -0.20080242 0.16119418 0.13209894 -0.11160861 0.04030197 0.21123374 -0.118725285
-0.18448018 -0.20461105 0.020903971 0.029432591 0.04976351 0.081836954 0.29669532 -0.303751
-0.19852602 0.0064591444 -0.10792335 0.21122655 -0.16862352 0.07238472 0.05439708 -0.21763128
-0.12553664 -0.11181414 0.09566009 0.09419441 0.37781662 0.3373528 0.19780247 -0.09699896
-0.2983966 -0.29003015 -0.026532501 0.06438739 -0.07078857 0.110363245 -0.12936923 -0.060056068
00000000: 1015 133c a290 4ebe 35b9 64be 8b20 63be
00000010: 8274 50be 5170 2d3e 9325 2d3e 69b5 3a3e
00000020: 8a42 07be d134 6fbe a0e9 b4bd 7403 43be
00000030: 7cf0 a3bd c11a 163e 20a9 51bd f433 45be
00000040: a6ee d1bd 7393 6e3e e47f d53d 0458 1a3e
00000050: 3cf0 6ebe 97be 033e f30c c93d 0121 1d3d
00000060: 030e 3c3e d58c 22be fd9f cb3d 1a10 4abd
00000070: 9f3f 0d3e e2bc 6d3d 1cbc 06be 5983 33be
00000080: d307 bcbe e8cd 0bbe 1015 303e c1a2 143e
00000090: 6c43 f63d 8e64 64be cb19 2dbe f708 be3d
000000a0: 1442 8dbd b4ce 15be 6fb9 4fbe 3109 563e
000000b0: 87d1 95bd ecd0 f5bb c619 76bd 9280 62be
000000c0: be37 053e 09aa 90be a750 b5be 3050 da3c
000000d0: 4239 663e 6b09 883e 8b77 3a3d bff8 1a3e
000000e0: b500 f83d 406f 2d3e 98d4 3dbd 492f 193d
000000f0: 0bfe acbd 6193 d43c 746c 553d 4016 673e
00000100: d82c b1ba 1631 8a3e 9f8c 8fbc 2518 8bbe
00000110: 47de 7dbe 10fd 7ebe e3b9 193d 8927 c83c
00000120: 5fbb 05be 220a 56be be1c 973d aa6b 70be
00000130: 94d6 053d 7cce 81bd 8651 da3d 9e46 a53d
00000140: 8a4e afbd 3fb8 193e dc82 08be d2fc 28be
00000150: 949d 83bd 9c3e 16be a468 69bd a0c4 48bc
00000160: 01f0 293e e18f 26be 4b07 4ebc 113c d6bd
00000170: 3cf0 203e 7602 263d d803 09be d9cc fa3d
00000180: 366c 2a3d 1c17 713d 03b0 d5bd 900e bb3e
00000190: dc91 41bd e8c4 c03e 7fb2 873e edb9 983d
000001a0: 0140 b13e 4429 dbbc 102f dabc 9094 123e
000001b0: 7364 743e 09b5 cabd 4844 ccbd 1335 11be
000001c0: b10d cf3d 2f11 f6bd 5bd6 45be aed2 a8bd
000001d0: a273 dbbc 077b 39be 5cbf 723e 9133 f73d
000001e0: 1fde 223d 311c 293e ed3d 67be 246c a8bd
000001f0: ea7b 5dbe 6cb8 a7be 6db7 7a3e cbd9 ed3d
00000200: 88d4 04be fb00 0e3e 5bbb 45bd 68d8 59bd
00000210: e52d 0a3e 99de 1dbd be2a 113c 4ff3 eb3d
00000220: cb0f 43be 09bf 25bd b380 273e d98d a33d
00000230: 7e0c 6fbd 556a 363e 8ed0 12b9 30c8 003e
00000240: ca83 313e 7f4b 29bd de38 21be b0dc c63d
00000250: fd55 c23d 6932 223c ffc5 21be eb02 35be
00000260: 0e63 453e 971e 1cbe 1ec5 babe e26b 0fbf
00000270: b393 453e 8adf 05be 3355 d2bc cd63 cabd
00000280: d723 38be 57af 483e ed8c 473e c4c0 8b3e
00000290: 8925 4a3c 11a1 a93d 8175 9bbd 6a16 01be
000002a0: a409 4f3e c1a6 44be 05b5 063e 89b8 8b3d
000002b0: bcfd 1fbd 0913 05bd aac6 4ebd c183 613e
000002c0: 42d3 833e e12b 7f3d d735 77be 6338 57be
000002d0: 0958 243e fbd1 4fbd 8c49 093e 4c59 503e
000002e0: 2e1c c73c 55ea 243e 7e1d 2c3e ef01 dd3d
000002f0: f1d6 b73d 51fa 67bd 6e3b 99bd 305d 3c3d
00000300: 51e2 74bd 513a 8cbd 58c2 e4bc 20f2 d4bd
00000310: a370 dfbd 8bc4 903c 7fad 6cbe 1ab2 f83d
00000320: 44dd 243e 62d8 c13d d9f1 423e b405 373e
00000330: 4079 323e 5b95 fe3b a6c9 bfbc c0fb 6d3d
00000340: d316 753e 6ccb 6b3e 8929 faba c81e 73be
00000350: 9b7a 8a3d f6ec 5ebe b6c6 0ebe 61cd a1bd
00000360: eb4a 4e3d 269f 4dbe 1610 253e f244 073e
00000370: 0e93 e4bd ae13 253d a84d 583e 3e26 f3bd
00000380: 5fe8 3cbe 8f85 51be ce3e ab3c 9e1c f13c
00000390: d2d4 4b3d 229a a73d 73e8 973e 4085 9bbe
000003a0: 684a 4bbe 3ba7 d33b eb06 ddbd c64b 583e
000003b0: a5ab 2cbe 713e 943d 79cf 5e3d bcda 5ebe
000003c0: ad8c 00be d0fe e4bd 70e9 c33d 00e9 c03d
000003d0: 2e71 c13e 82b9 ac3e bb8c 4a3e 64a7 c6bd
000003e0: 70c7 98be d57e 94be b05a d9bc 89dd 833d
000003f0: 99f9 90bd 2006 e23d 5e79 04be 5afd 75bd

bias f4 [32]
-0.05162756 0.040841706 0.14453968 -0.24394716 -0.118551694 -0.17949332 0.06777811 -8.7264474e-05
-0.14370786 -0.105727576 0.05282018 -0.28440714 -0.29658437 -0.019365098 -0.17858179 0.030715117
-0.1244618 0.076367915 -0.032684118 -0.009273472 -0.15725276 0.08278336 -0.07344496 -0.07032518
0.13946421 0.2282929 0.16743235 -0.03705641 -0.117948905 0.08823593 -0.10076901 0.019772952
00000000: 6c77 53bd a249 273d 3602 143e 49cd 79be
00000010: 3bcb f2bd 19cd 37be 40cf 8a3d c201 b7b8
00000020: 2728 13be b387 d8bd f959 583d d09d 91be
00000030: e8d9 97be 8ea3 9ebc 25de 36be 459e fb3c
00000040: d4e5 febd c866 9c3d c8df 05bd c3ef 17bc
00000050: de06 21be 528a a93d 506a 96bd a606 90bd
00000060: b5cf 0e3e 9dc5 693e 6373 2b3e 76c8 17bd
00000070: 328f f1bd 0ab5 b43d fc5f cebd e3fa a13c

weight f4 [64, 32, 3]
0.074480504 0.04158853 -0.015557289 0.10377426 0.07204169 -0.061997432 -0.08894403 0.09912432
0.023558795 0.03535352 0.051792435 0.032859705 0.08285414 0.031294197 -0.0059462786 -0.10615959
-0.060429286 0.026897054 0.06910251 -0.056219243 0.008088146 -0.04834508 0.03145887 0.11809646
-0.07744981 -0.08737548 0.013377754 0.07135918 0.0077906866 -0.07140408 -0.011116629 -0.025121508
-0.12014597 -0.10004739 -0.10161726 0.013017439 0.011229677 -0.11919549 -0.048562147 -0.016233994
0.017453715 0.03241917 0.1037405 0.09584591 0.08467782 -0.0047613275 0.095775954 -0.06689635
-0.053835128 0.050614737 -0.07040373 0.012077699 -0.09719007 -0.07630874 -0.058656268 0.036075115
0.04080318 0.046331078 0.07565723 -0.055074476 0.040929675 -0.044291038 -0.038425542 -0.040796872
-0.04367999 -0.061443903 -0.036538072 0.09320155 -0.072686344 0.058442272 0.04033079 0.061796308
-0.050970495 -0.059945498 0.076774985 -0.100519724 0.027920723 0.043247 -0.07813102 0.024630442
-0.0344901 -0.025674267 -0.016912458 0.038494624 -0.0207167 -0.033614993 0.006737455 0.02094784
0.03930727 0.051218886 0.002457164 -0.07379385 0.06120261 0.0041309805 -0.0818094 0.026138648
-0.027373262 -0.07719836 -0.041537337 0.018717486 -0.027967399 0.018698191 -0.019269442 -0.004747975
-0.05919942 0.08550522 0.07154388 -0.036146145 0.034322724 0.02293057 0.08327231 0.105224
0.043774787 -0.118459396 -0.06448208 -0.07033773 0.06421272 -0.037286565 0.003744193 -0.06418674
-0.08607182 0.002640073 -0.0001337342 -0.034003437 -0.07167365 0.036359254 0.088760614 -0.059856147
-0.06183737 -0.09458261 0.07174183 0.013506276 -0.015091056 -0.04121207 -0.052233532 0.01502317
0.099832006 -0.05137704 0.028539492 -0.03751945 -0.065588646 0.059418842 0.014540511 -0.031124648
-0.054131325 -0.023626722 -0.11202377 -0.081363 0.034985747 0.016389487 0.101595074 -0.08412541
0.05363913 0.055371787 -0.08066529 -0.044738475 0.08675495 -0.021231793 -0.074105784 -0.10514271
-0.12808017 -0.10171494 -0.101908766 -0.14220086 -0.08231567 0.09547804 0.06902662 0.036092203
-0.037780505 -0.028495697 -0.020650493 0.0039479234 0.07525793 0.0025875794 0.049969 0.06702121
-0.025001636 -0.0016780338 -0.14534661 -0.12951884 0.077103265 -0.014279778 0.099633455 -0.14788365
-0.1511326 -0.040299237 0.087101944 -0.03083847 -0.04140134 -0.022734445 -0.08209379 0.03879299
-0.056890093 -0.036044464 -0.04214891 0.005784401 -0.08989531 0.07988416 -0.11433666 -0.065477625
0.044718865 -0.028854527 -0.020273946 -0.053854004 -0.08978975 -0.04444254 -0.005756624 0.0059635416
0.011185301 -0.02515008 0.06113609 0.067823924 -0.05209373 -0.15315698 0.006453353 -0.04798871
-0.0158233 0.032201543 -0.06483592 -0.046008606 0.08938218 0.08675589 -0.029431148 0.089990005
-0.024355553 0.026647627 0.035309713 -0.08373117 -0.06018839 0.03983591 0.040892687 0.10307903
-0.09925936 0.01660328 -0.10170567 -0.026860204 -0.11521875 0.10071372 0.08408155 -0.029705815
-0.14743409 -0.016505439 -0.17147769 0.0718118 -0.07002607 -0.010947822 -0.017724775 -0.0035441741
-0.021481521 0.062312134 0.006138087 -0.05333091 0.05186443 0.038937807 -0.101636894 -0.00084762694
00000000: 3c89 983d bc58 2a3d 00e4 7ebc 9987 d43d
00000010: 988a 933d 05f1 7dbd 4a28 b6bd b101 cb3d
00000020: 60fe c03c dace 103d 4e24 543d e697 063d
00000030: 6eaf a93d 582e 003d 00d9 c2bb 336a d9bd
00000040: b384 77bd 3657 dc3c 9e85 8d3d 2646 66bd
00000050: 2584 043c 7e05 46bd 04db 003d 8fdc f13d
00000060: 029e 9ebd eaf1 b2bd 5e2e 5b3c c324 923d
00000070: 0449 ff3b 4d3c 92bd 8522 36bc 9fcb cdbc
00000080: 170f f6bd a5e5 ccbd b61c d0bd 1947 553c
00000090: aefc 373c c41c f4bd 1ae9 46bd 27fd 84bc
000000a0: 18fb 8e3c f7c9 043d e675 d43d dc4a c43d
000000b0: 916b ad3d e904 9cbb 2f26 c43d f400 89bd
000000c0: 3982 5cbd 6651 4f3d d52f 90bd 8be1 453c
000000d0: 960b c7bd c247 9cbd 8e41 70bd 80c3 133d
000000e0: 3c21 273d a8c5 3d3d 2ef2 9a3d c695 61bd
000000f0: e0a5 273d 856a 35bd 1a64 1dbd 9f1a 27bd
00000100: cae9 32bd 9aac 7bbd f2a8 15bd 74e0 be3d
00000110: 94dc 94bd 2a61 6f3d e631 253d 201e 7d3d
00000120: 70c6 50bd 6989 75bd 343c 9d3d 49dd cdbd
00000130: 00ba e43c c423 313d 2803 a0bd c8c5 c93c
00000140: 7e45 0dbd d752 d2bc ff8b 8abc 8aac 1d3d
00000150: 12b6 a9bc e0af 09bd dec5 dc3b ce9a ab3c
00000160: a900 213d e5ca 513d 5f08 213b 3b21 97bd
00000170: 97af 7a3d 2d5d 873b b08b a7bd b820 d63c
00000180: e43d e0bc 2c1a 9ebd 0e23 2abd 6a55 993c
00000190: e31b e5bc f32c 993c f3da 9dbc e794 9bbb
000001a0: 177b 72bd 5c1d af3d 9985 923d fb0d 14bd
000001b0: fc95 0c3d e4d8 bb3c ac8a aa3d ae7f d73d
000001c0: 314d 333d d79a f2bd 2e0f 84bd 3a0d 90bd
000001d0: f581 833d ccb9 18bd 2261 753b 5674 83bd
000001e0: 6c46 b0bd 1305 2d3b 003b 0cb9 3047 0bbd
000001f0: a2c9 92bd 71ed 143d 20c8 b53d b82b 75bd
00000200: 2f49 7dbd 87b4 c1bd 61ed 923d 6d49 5d3c
00000210: 7a40 77bc fdcd 28bd d4f2 55bd be23 763c
00000220: b974 cc3d bb70 52bd a7cb e93c ffad 19bd
00000230: 5753 86bd 2c61 733d 533b 6e3c 1ef9 febc
00000240: cfb8 5dbd d48c c1bc b86c e5bd a5a1 a6bd
00000250: 374d 0f3d 3f43 863c 1411 d03d f149 acbd
00000260: b4b4 5b3d 87cd 623d d833 a5bd b13f 37bd
00000270: 94ac b13d 4cee adbc c6c4 97bd 1055 d7bd
00000280: 7327 03be ec4f d0bd 8bb5 d0bd 1a9d 11be
00000290: 1e95 a8bd fe89 c33d d45d 8d3d 6bd5 133d
000002a0: bbbf 1abd cf6f e9bc 392b a9bc 955d 813b
000002b0: d420 9a3d 6194 293b 4bac 4c3d 6b42 893d
000002c0: 3bd0 ccbc 79f1 dbba bed5 14be 96a0 04be
000002d0: 51e8 9d3d bbf5 69bc a00c cc3d d06e 17be
000002e0: 81c2 1abe d010 25bd 8162 b23d f6a0 fcbc
000002f0: 7494 29bd 963d babc ca20 a8bd 66e5 1e3d
00000300: 9605 69bd 5ca3 13bd 56a4 2cbd 138b bd3b
00000310: 081b b8bd 4e9a a33d 5729 eabd 2219 86bd
00000320: 212b 373d 5460 ecbc 8c15 a6bc 0496 5cbd
00000330: b0e3 b7bd 6109 36bd 10a2 bcbb d069 c33b
00000340: 8d42 373c 8a07 cebc d669 7a3d 45e7 8a3d
00000350: 3c60 55bd 2fd5 1cbe a676 d33b cf8f 44bd
00000360: de9f 81bc c4e5 033d b2c8 84bd 8573 3cbd
00000370: 010e b73d 12ad b13d 9719 f1bc ae4c b83d
00000380: 4c85 c7bc 204c da3c eba0 103d 3f7b abbd
00000390: 1a88 76bd fb2a 233d 177f 273d 191b d33d
000003a0: 7e48 cbbd 9a03 883c 104b d0bd ee09 dcbc
000003b0: cff7 ebbd ff42 ce3d f332 ac3d 9c59 f3bc
000003c0: f6f8 16be 6a36 87bc d997 2fbe 1112 933d
000003d0: d469 8fbd 7e5e 33bc 8c33 91bc 6045 68bb
000003e0: 04fa afbc 023b 7f3d 0122 c93b 8371 5abd
000003f0: cc6f 543d 407d 1f3d 0127 d0bd 4833 5eba

bias f4 [64]
0.12054862 0.044301152 0.03787596 -0.0396528 0.06865888 0.07731183 0.019872578 -0.101752535
-0.10134694 0.051930018 -0.07683845 0.06611287 -0.06552086 0.039077632 -0.12173633 -0.09227033
-0.04636922 -0.075340845 0.08017829 0.04650684 -0.08066708 0.0035397667 -0.008428226 -0.075898655
0.04403405 0.031645726 0.112625845 -0.033456795 -0.009347144 0.034166858 -0.0034575239 -0.09831674
0.10428537 0.092587836 0.009788111 0.12132163 -0.121514715 -0.07106852 0.008121752 -0.035473026
-0.09158977 -0.0624077 0.026755875 0.0018654931 -0.03898463 -0.07228181 0.03082097 0.05705783
0.10267527 0.18352184 0.03331881 0.0054066707 -0.055314396 0.072971605 -0.08301781 0.14562039
0.07762378 0.05538754 0.09373133 -0.007387499 0.13886772 0.009470458 0.047799565 0.11448748
00000000: 32e2 f63d 2075 353d d323 1b3d f96a 22bd
00000010: 079d 8c3d aa55 9e3d d1cb a23c a263 d0bd
00000020: fc8e cfbd 92b4 543d 7a5d 9dbd 2f66 873d
00000030: cd2f 86bd de0f 203d e650 f9bd 3af8 bcbd
00000040: a7ed 3dbd 4d4c 9abd 8434 a43d f57d 3e3d
00000050: c834 a5bd 6efb 673b 8b16 0abc c170 9bbd
00000060: 0c5d 343d f39e 013d 61a8 e63d fe09 09bd
00000070: c324 19bc 8cf2 0b3d a097 62bb 495a c9bd
00000080: 9193 d53d b19e bd3d 505e 203c 7a77 f83d
00000090: b5dc f8bd 5f8c 91bd 1911 053c 2a4c 11bd
000000a0: 6b93 bbbd 379f 7fbd 232f db3c 9083 f43a
000000b0: 59ae 1fbd 7c08 94bd 427c fc3c 79b5 693d
000000c0: 6947 d23d 26ed 3b3e 4e79 083d 712a b13b
000000d0: 5991 62bd 2372 953d 3e05 aabd 831d 153e
000000e0: 37f9 9e3d 0cde 623d 36f6 bf3d d512 f2bb
000000f0: 5733 0e3e fb29 1b3c 7ac9 433d 6978 ea3d

weight f4 [32, 64, 3]
0.0043549165 -0.05889099 -0.031288285 0.08831434 -0.021036688 0.012012539 0.004818165 -0.055461887
-0.056644935 -0.049939986 0.029262973 0.06048548 -0.19769876 -0.2761472 -0.27400872 -0.10583856
0.027306348 -0.028240899 -0.03421606 0.011528378 0.016935386 -0.05648541 0.05985125 0.092539206
-0.038429335 -0.07125728 -0.031113174 0.056599002 0.02201559 -0.03510757 -0.0032585354 -0.0039199027
0.052192815 0.09893711 0.1043819 0.11244044 -0.054499723 -0.0020279512 -0.021854095 -0.001779498
-0.032489125 0.038718227 -0.1093751 -0.09826303 -0.07119147 0.04087402 -0.036983833 0.08012246
-0.0075008455 -0.025748666 -0.043940865 -0.010517026 0.012146741 0.055912618 0.023832144 -0.037170853
0.053114936 -0.1635399 -0.09162614 -0.112632774 0.029900499 0.0072644874 0.0021520539 0.018911228
-0.027892182 -0.008909056 0.032883 0.1630045 0.14889877 -0.046379715 0.019686995 -0.084161
-0.013044102 -0.097732395 -0.04053763 -0.036859363 -0.06530235 -0.024189088 0.025618251 -0.06387996
-0.020432722 0.05252615 -0.05500895 0.02104805 0.06327251 -0.033055432 -0.06361819 -0.024112012
-0.10202467 -0.09365778 -0.021044184 -0.06982332 0.06392786 -0.029440789 -0.04799344 -0.03731511
0.0425532 -0.02793812 0.03520161 0.06627178 -0.03720702 -0.06790298 0.07831919 0.041331608
0.004986644 -0.01673882 -0.032155678 0.10659013 0.04499379 -0.083248205 -0.066021666 -0.042939987
0.017065538 -0.010321771 0.07083588 0.013866761 0.047815725 -0.02923532 -0.038064253 0.080999374
-0.0074698767 -0.0611825 -0.014285653 -0.05076578 0.08269183 0.031098733 0.087740965 -0.06643951
-0.07026042 0.09670326 0.013894255 0.07138688 -0.0034771566 0.04157302 0.05784329 -0.078426704
-0.026884723 -0.012147895 -0.015307324 -0.060948055 0.02548714 -0.12476205 -0.06728715 -0.06330114
-0.056958124 -0.018992819 -0.091232955 -0.044301845 -0.09075084 -0.021698467 0.03272808 0.020659236
0.033099256 0.060883835 -0.038392767 0.086536534 0.03214898 0.0110766515 -0.049773116 0.0920718
0.106024526 0.134149 -0.012100595 0.07308578 0.053029034 -0.014751892 0.04329233 0.002712392
-0.07502306 0.023868138 -0.018967997 -0.030800741 -0.0032057837 0.031273015 0.03506402 0.043735802
0.0058002844 -0.038119227 0.0056616347 -0.11848093 -0.063090846 -0.018702785 0.004898593 0.06966041
-0.0067740977 -0.049403667 0.04022415 -0.04225264 0.051866945 0.033966202 0.018840356 -0.10512782
0.087385155 0.05589563 0.035779897 -0.010437707 0.048276316 0.039732885 0.03782015 -0.05919095
0.066821344 -0.08533179 0.005527699 -0.04971655 -0.04045193 -0.046731494 -0.042852484 0.11186698
-0.02557131 -0.045569237 0.044825688 0.06456615 -0.03819119 -0.12857203 -0.09204225 -0.03974248
0.035703525 -0.014430242 -0.026292954 -0.07408652 -0.08970236 -0.1071974 -0.035492327 -0.08740548
-0.008206424 -0.059194118 -0.060025748 -0.039503325 -0.05201309 -0.016976055 0.051368207 0.004147259
0.05904906 0.0382102 -0.026367253 -0.057430018 -0.012940291 0.055566933 0.048711993 -0.066481896
0.019702878 -0.102154285 -0.029184446 0.043188483 0.068746954 -0.0140646985 0.08647134 0.07517687
0.04928068 0.008131033 -0.025444577 0.070781164 -0.027727121 0.058282793 -0.07484578 0.04052279
00000000: b0b3 8e3b ae37 71bd 2528 00bd 26de b43d
00000010: 2255 acbc 3ed0 443c b3e1 9d3b 012c 63bd
00000020: 8504 68bd df8d 4cbd e7b8 ef3c 9fbf 773d
00000030: 8b71 4abe 2a63 8dbe df4a 8cbe e3c1 d8bd
00000040: 90b1 df3c 7559 e7bc 2426 0cbd 86e1 3c3c
00000050: 14bc 8a3c 3f5d 67bd 9626 753d 3285 bd3d
00000060: 1468 1dbd 56ef 91bd 0ee1 febc 5bd4 673d
00000070: 0a5a b43c f5cc 0fbd 278d 55bb 8772 80bb
00000080: 22c8 553d 8a9f ca3d 2dc6 d53d 2c47 e63d
00000090: 1a3b 5fbd 60e7 04bb 5c07 b3bc 0b3e e9ba
000000a0: 5113 05bd 0197 1e3d 0d00 e0bd 213e c9bd
000000b0: d5cc 91bd 846b 273d 5c7c 17bd 3f17 a43d
000000c0: a7c9 f5bb deee d2bc 56fb 33bd 9b4f 2cbc
000000d0: 2003 473c a104 653d a13b c33c 7740 18bd
000000e0: 0c8f 593d 0177 27be 7ca6 bbbd 03ac e6bd
000000f0: e4f1 f43c f00a ee3b 7909 0d3b b8eb 9a3c
00000100: 257e e4bc 4af7 11bc 53b0 063d a7ea 263e
00000110: eb78 183e a8f8 3dbd 9f46 a13c 9a5c acbd
00000120: eeb6 55bc ec27 c8bd c90a 26bd d8f9 16bd
00000130: 3dbd 85bd 3228 c6bc 5edd d13c 7fd3 82bd
00000140: 8662 a7bc a925 573d 1151 61bd f66c ac3c
00000150: 0595 813d 2265 07bd 414a 82bd 8e86 c5bc
00000160: 4ff2 d0bd a6cf bfbd da64 acbc 87ff 8ebd
00000170: 9cec 823d cf2d f1bc c594 44bd bbd7 18bd
00000180: 444c 2e3d 7cde e4bc 902f 103d 80b9 873d
00000190: 6366 18bd b810 8bbd d065 a03d 554b 293d
000001a0: 0067 a33b da1f 89bc acb5 03bd ed4b da3d
000001b0: 694b 383d 097e aabd 5e36 87bd d7e1 2fbd
000001c0: 07cd 8b3c a51c 29bc 6712 913d 6931 633c
000001d0: 6cda 433d e97e efbc 43e9 1bbd 00e3 a53d
000001e0: dec5 f4bb 809a 7abd 5f0e 6abc c7ef 4fbd
000001f0: 565a a93d c5c2 fe3c 89b1 b33d 7011 88bd
00000200: b2e4 8fbd 5c0c c63d bba4 633c 4933 923d
00000210: 02e1 63bb 7948 2a3d 16ed 6c3d 2e9e a0bd
00000220: 5a3d dcbc f707 47bc 92cb 7abc aba4 79bd
00000230: 68ca d03c 3f83 ffbd d8cd 89bd 07a4 81bd
00000240: ec4c 69bd d496 9bbc 58d8 babd da75 35bd
00000250: 94db b9bd fcc0 b1bc e10d 063d 8f3d a93c
00000260: 1693 073d 5461 793d bc41 1dbd 113a b13d
00000270: a6ae 033d d87a 353c e5de 4bbd 2490 bc3d
00000280: 6323 d93d 5b5e 093e 9341 46bc ffad 953d
00000290: f934 593d ebb1 71bc 4c53 313d 63c2 313b
000002a0: b1a5 99bd 1d87 c33c c662 9bbc d651 fcbc
000002b0: 2018 52bb 2218 003d 4a9f 0f3d 5024 333d
000002c0: 5010 be3b e822 1cbd 3c85 b93b 21a6 f2bd
000002d0: c635 81bd 9536 99bc 6084 a03b 1eaa 8e3d
000002e0: 40f9 ddbb 805b 4abd 14c2 243d 1b11 2dbd
000002f0: 6f72 543d 2520 0b3d 1757 9a3c 414d d7bd
00000300: fdf6 b23d d1f2 643d f18d 123d eb02 2bbc
00000310: 63bd 453d f3be 223d 4de9 1a3d 3672 72bd
00000320: a1d9 883d 6fc2 aebd b321 b53b 95a3 4bbd
00000330: ecb0 25bd 8669 3fbd 1686 2fbd 841a e53d
00000340: ed7a d1bc cfa6 3abd 249b 373d 423b 843d
00000350: 5e6e 1cbd 63a8 03be a680 bcbd 03c9 22bd
00000360: dc3d 123d d26c 6cbc 5264 d7bc acba 97bd
00000370: dfb5 b7bd 4f8a dbbd 6760 11bd a501 b3bd
00000380: 3d74 06bc 8875 72bd 8fdd 75bd 3dce 21bd
00000390: ae0b 55bd 5e11 8bbc 7867 523d bbe5 873b
000003a0: 6ddd 713d 4c82 1c3d 2300 d8bc bd3b 6bbd
000003b0: 8403 54bc 279a 633d 3a86 473d a927 88bd
000003c0: ee67 a13c 4436 d1bd 3814 efbc 68e6 303d
000003d0: 34cb 8c3d 9f6f 66bc e317 b13d 55f6 993d
000003e0: 8ada 493d 0638 053c 2571 d0bc b7f5 903d
000003f0: fd23 e3bc f0b9 6e3d bf48 99bd 3afb 253d

bias f4 [32]
0.058250535 -0.068787865 -0.07317678 0.03737593 0.051502306 0.03911385 -0.0642294 -0.004509676
-0.044803236 -0.056694843 -0.040048655 0.07440329 0.0449764 0.024748689 0.034600146 0.003571437
0.16318837 -0.05600443 -0.07588685 -0.09024341 0.021053297 0.08841987 0.051037673 0.008462134
0.14567003 0.007326481 0.07332082 0.039374985 0.006261588 -0.03255227 -0.06724384 -0.027792763
00000000: 1d98 6e3d a7e0 8cbd b5dd 95bd 8117 193d
00000010: 15f4 523d d835 203d b48a 83bd e7c5 93bb
00000020: 9983 37bd da38 68bd 0f0a 24bd c160 983d
00000030: 2c39 383d c3bd ca3c e2b8 0d3d c50e 6a3b
00000040: da1a 273e e764 65bd 916a 9bbd 89d1 b8bd
00000050: f777 ac3c 7a15 b53d e10c 513d c3a4 0a3c
00000060: 862a 153e fa12 f03b 3a29 963d aa47 213d
00000070: 022e cd3b 8755 05bd 23b7 89bd a6ad e3bc

weight f4 [32, 64]
-0.093448 0.082223855 -0.026412185 0.017910626 0.122677244 0.023107223 0.03996216 0.027179658
-0.12668742 -0.057850346 0.053253423 -0.0025377076 0.04502882 -0.09518078 0.06148022 0.08158575
-0.08795196 -0.05932257 0.07608775 -0.07024407 0.07818046 0.04968242 0.00057227217 -0.12429374
0.011153724 -0.081417546 0.10637713 -0.023519693 -0.0477738 -0.1200464 0.06319321 0.09507119
0.0011538235 0.11008556 0.044939257 -0.00089616777 0.023603465 0.076675706 0.012274397 -0.08336678
0.0935799 -0.06997588 -0.014955033 0.12098648 -0.029446432 0.086279675 -0.07640253 -0.057559438
-0.11126149 0.07333572 0.085803576 0.12103024 0.13609375 -0.04843603 0.17592272 0.025237305
0.19097702 0.09711759 -0.048469193 0.061525714 -0.0032944803 -0.12782773 -0.028475096 0.102113634
-0.033138152 -0.062141314 0.15624702 -0.08189695 0.1060761 -0.032099977 0.0716585 0.06553634
0.1325169 0.007959182 0.04212388 0.067556165 -0.07090244 0.117993064 0.063772865 -0.12679584
-0.09599628 0.077276975 -0.103067674 -0.08675221 -0.06581226 -0.041015 0.1703803 -0.19145413
0.003190993 0.030065935 0.0416466 -0.06579476 0.05150532 0.000577265 0.07899144 -0.097529605
-0.060677838 0.08303035 0.068768844 -0.013634298 0.051554427 0.034327455 -0.024700439 0.049908485
0.08753329 -0.070090644 0.10218547 -0.05425017 -0.05168936 0.028348466 -0.066084065 -0.02227536
-0.10295003 -0.0839773 0.07415771 -0.09655448 0.04232147 -0.0071705924 -0.00087044324 -0.04815155
-0.045173593 0.017661499 -0.0792074 -0.029965468 0.10888385 -0.07202807 0.0852269 -0.043042097
0.0032027196 0.09608414 -0.059196047 0.08675074 0.097006105 -0.112344526 -0.05626538 0.09382617
0.040319577 -0.08321764 0.058219276 -0.1266555 -0.23297127 0.09612733 -0.1004435 -0.17890637
0.017534005 0.066337824 0.019773435 0.082222834 0.08447253 0.042628758 0.001974078 -0.0021644335
0.10541531 0.1192194 -0.08028943 -0.04163958 -0.046171486 -0.112611674 -0.014777452 -0.046125248
0.13163903 -0.02793884 -0.012824663 -0.004017809 0.082167365 0.08222073 0.033559993 0.12944943
-0.03799717 -0.03656957 0.09456673 -0.13594577 -0.15719749 -0.11819899 -0.018792342 -0.17829396
-0.09207464 0.109916285 0.07010863 -0.018466298 0.11027431 -0.034009937 0.17639022 -0.107889116
-0.05307956 0.028008683 -0.10971609 0.00948636 0.025430283 -0.024394494 0.035319164 -0.0038599586
-0.03597357 0.014462438 0.014400722 -0.055797722 -0.03606766 0.057945568 -0.12859978 0.05882415
-0.025161548 -0.04893777 0.1700143 -0.09590094 -0.02273939 -0.04491584 -0.012946589 -0.0765387
0.11687335 -0.08135772 -0.05681584 -0.025875533 -0.061395276 -0.12718736 -0.03238601 -0.19219908
0.050749358 -0.102814615 0.078403555 0.029566938 -0.083456464 -0.014600973 -0.028237533 0.04422056
0.05232954 -0.023465466 0.013826324 -0.01429751 0.10117782 -0.027942877 -0.2059737 0.049247537
0.013572307 -0.089205265 0.09104963 0.09994852 -0.08002918 0.095157914 0.014345761 0.059535544
0.18130867 0.04568825 -0.04376872 0.035831697 0.018630836 0.03326689 0.13375795 -0.26781547
0.1391902 -0.15595593 -0.05119241 -0.099819556 -0.11186049 0.007555804 0.08937176 -0.03005205
00000000: aa61 bfbd fb64 a83d 5e5e d8bc 4eb9 923c
00000010: 353e fb3d 5c4b bd3c 5daf 233d e0a7 de3c
00000020: 59ba 01be 7cf4 6cbd 4320 5a3d ab4f 26bb
00000030: 2470 383d 24ee c2bd afd2 7b3d 6e16 a73d
00000040: 2820 b4bd 39fc 72bd e5d3 9b3d 1fdc 8fbd
00000050: 141d a03d cb7f 4b3d 8904 163a b78d febd
00000060: 1cbe 363c 3ebe a6bd 41dc d93d 5fac c0bc
00000070: 76ae 43bd e3da f5bd 716b 813d afb4 c23d
00000080: e43b 973a 8a74 e13d 3a12 383d cdec 6aba
00000090: 0e5c c13c 2708 9d3d 8d1a 493c 34bc aabd
000000a0: d2a6 bf3d 844f 8fbd f405 75bc c2c7 f73d
000000b0: a539 f1bc 66b3 b03d ee78 9cbd 72c3 6bbd
000000c0: 10dd e3bd 0a31 963d c9b9 af3d b4de f73d
000000d0: 295c 0b3e dc64 46bd 1625 343e 77be ce3c
000000e0: 7b8f 433e 96e5 c63d a287 46bd 6302 7c3d
000000f0: 35e8 57bb 46e5 02be 9b44 e9bc f420 d13d
00000100: dfbb 07bd e487 7ebd 38ff 1f3e 97b9 a7bd
00000110: 6d3e d93d 447b 03bd b1c1 923d eb37 863d
00000120: 83b2 073e 3b67 023c 178a 2c3d e35a 8a3d
00000130: 4c35 91bd 59a6 f13d 599b 823d c5d6 01be
00000140: b399 c4bd 6443 9e3d 2515 d3bd 25ab b1bd
00000150: 94c8 86bd 58ff 27bd 2c78 2e3e 8d0c 44be
00000160: fb1f 513b d64c f63c a095 2a3d 67bf 86bd
00000170: 3ef7 523d 9953 173a 44c6 a13d 9abd c7bd
00000180: 5389 78bd d10b aa3d aed6 8c3d 6462 5fbc
00000190: bc2a 533d f29a 0c3d 9358 cabc d76c 4c3d
000001a0: a744 b33d af8b 8fbd 9e46 d13d 6d35 5ebd
000001b0: 39b8 53bd 0b3b e83c 1557 87bd d17a b6bc
000001c0: 77d7 d2bd 4afc abbd ffdf 973d 5bbe c5bd
000001d0: 4759 2d3d 4af7 eabb 752e 64ba 8f3a 45bd
000001e0: f207 39bd d9ae 903c 7d37 a2bd 247a f5bc
000001f0: 7ffe de3d 7483 93bd 718b ae3d e94c 30bd
00000200: b8e4 513b c3c7 c43d 8e77 72bd 5faa b13d
00000210: 23ab c63d e314 e6bd 8776 66bd ef27 c03d
00000220: 2426 253d 036e aabd 5677 6e3d fbb1 01be
00000230: 0590 6ebe 68de c43d 52b5 cdbd 3b33 37be
00000240: 79a3 8f3c 20dc 873d e6fb a13c 7264 a83d
00000250: efff ac3d 7e9b 2e3d 885f 013b 2bd9 0dbb
00000260: fbe3 d73d 4d29 f43d c96e a4bd 448e 2abd
00000270: 501e 3dbd f3a0 e6bd 201d 72bc d4ed 3cbd
00000280: 62cc 063e ffdf e4bc 891e 52bc d3a7 83bb
00000290: 5d47 a83d 5863 a83d 3476 093d 648e 043e
000002a0: eca2 1bbd f9c9 15bd 34ac c13d 5e35 0bbe
000002b0: 61f8 20be 5012 f2bd 66f2 99bc b192 36be
000002c0: a191 bcbd ca1b e13d 1d95 8f3d a246 97bc
000002d0: 7fd7 e13d 014e 0bbd a39f 343e f8f4 dcbd
000002e0: f469 59bd 7772 e53c d4b2 e0bd ad6c 1b3c
000002f0: 2b53 d03c f6d6 c7bc d4aa 103d 5cf7 7cbb
00000300: 0659 13bd ddf3 6c3c 02f1 6b3c 278c 64bd
00000310: afbb 13bd 5558 6d3d a9af 03be 98f1 703d
00000320: 971f cebc f972 48bd 3b18 2e3e b667 c4bd
00000330: f547 babc acf9 37bd ee1d 54bc 52c0 9cbd
00000340: 4c5b ef3d e09e a6bd bab7 68bd edf8 d3bc
00000350: 9d79 7bbd 673d 02be 31a7 04bd d6cf 44be
00000360: 8fde 4f3d 7890 d2bd 0b92 a03d 5d36 f23c
00000370: 39eb aabd eb38 6fbc 6652 e7bc 9e20 353d
00000380: 8057 563d a63a c0bc ce87 623c 1a40 6abc
00000390: 5136 cf3d 76e8 e4bc c5ea 52be c9b7 493d
000003a0: 625e 5e3c 40b1 b6bd 3a78 ba3d cfb1 cc3d
000003b0: 57e6 a3bd 27e2 c23d 7c0a 6b3c 8bdb 733d
000003c0: fba8 393e 9a23 3b3d d446 33bd 42c4 123d
000003d0: b29f 983c dd42 083d d8f7 083e 1c1f 89be
000003e0: e087 0e3e e9b2 1fbe 22af 51bd 326e ccbd
000003f0: 1d17 e5bd ae96 f73b 8b08 b73d b72f f6bc

bias f4 [32]
-0.12834725 -0.035437096 0.115463905 0.15614617 0.05486062 -0.15554328 -0.074108616 0.18564321
0.1711168 -0.14888394 -0.0025808092 0.028581101 0.0049709375 -0.08667798 0.066132374 0.09166815
-0.05329725 0.17599653 -0.042863827 0.16568638 0.13518234 -0.14799109 0.0685597 -0.11040494
0.040220093 -0.09987269 -0.117453896 0.091614254 -0.009719251 0.026859727 0.051635448 -0.044857763
00000000: 766d 03be 7d26 11bd 5778 ec3d c8e4 1f3e
00000010: 88b5 603d bd46 1fbe 42c6 97bd 4119 3e3e
00000020: 3e39 2f3e 0875 18be cb22 29bb ea22 ea3c
00000030: 3fe3 a23b 3a84 b1bd 6970 873d 83bc bb3d
00000040: 384e 5abd 6f38 343e fb91 2fbd b1a9 293e
00000050: 3d6d 0a3e fa8a 17be 0769 8c3d fc1b e2bd
00000060: d3bd 243d 0e8a ccbd ab8b f0bd 41a0 bb3d
00000070: 7e3d 1fbc ee08 dc3c b17f 533d c6bc 37bd

weight f4 [32, 32]
-0.0126118865 0.03344087 -0.016733328 -0.14485602 -0.023970045 0.11929811 0.17321908 0.06819251
0.08563095 0.055589758 0.008994705 -0.32753995 0.06457719 -0.16028835 0.10412467 -0.16667214
-0.07853522 -0.014340108 0.012151648 0.060045827 0.15103786 -0.16240819 -0.08437293 0.10563087
-0.014158401 -0.047063418 -0.08520049 -0.021590795 -0.00094546477 0.051728286 0.11651892 0.20451432
-0.088427685 0.013062547 0.20096567 -0.017733697 0.0878825 -0.20209843 0.15666595 0.12507693
0.025066223 0.121114746 -0.09012459 0.06595925 0.013461092 -0.123312674 -0.22296736 0.039106086
0.10239854 -0.06993864 -0.027753673 -0.18757269 0.02050673 0.08246181 0.03798842 0.00035947358
-0.076590925 0.063266404 0.041075762 0.045741342 -0.0018336386 -0.09265553 -0.231557 0.20529142
0.03561709 -0.022103311 0.03950644 -0.22146249 0.16656089 -0.14475283 0.11343754 0.22228652
-0.17573841 -0.03381204 0.20314336 -0.018171007 0.120664306 0.13607715 0.1287695 -0.019440223
0.20136438 -0.087775104 0.002745582 0.0055306368 0.12356484 0.0030344913 0.045811404 0.21443626
-0.09143657 -0.0819709 -0.07801211 -0.12979066 -0.09410783 -0.0041613854 0.11450065 0.13442571
-0.12558782 0.15437697 -0.09814233 -0.1535285 0.06316557 0.049356673 0.10021332 -0.058856707
-0.0119589185 -5.5743847e-05 0.09154643 0.051906098 0.12829691 -0.09017959 0.07061849 -0.14113383
-0.17225973 -0.14808543 -0.07609637 0.16122684 0.046962544 0.17172419 -0.11288884 -0.18083131
-0.06564529 -0.008667492 0.018613037 0.045625694 0.07693545 -0.17482698 0.078771606 0.20564887
0.10198902 0.058414333 0.18270583 -0.025304735 -0.10778125 0.07659916 0.020190386 -0.025994884
-0.036585633 0.1755924 0.14962873 0.17150618 -0.055501625 0.17356645 0.13303226 -0.08739581
0.04359366 0.093433395 0.010841397 -0.027645078 -0.15408832 -0.05673753 0.22520845 0.17224826
0.14674379 -0.2119618 0.18730342 0.08762761 0.053058516 -0.07871614 0.12100646 -0.13931553
0.04378107 0.058621425 0.12822519 -0.14741129 0.039820556 0.113619916 -0.026861265 -0.13906796
0.017384462 0.043943316 -0.29359794 0.11477532 -0.1536371 0.13475046 -0.005776281 0.02665602
-0.12020675 -0.114526734 0.14152613 0.15234329 -0.11107184 0.06620188 0.060030982 0.17959106
-0.006622586 -0.045636334 -0.084540226 -0.16269387 0.2424581 0.08635984 -0.0883755 0.13531746
-0.072241426 0.07316908 -0.04363928 0.04449986 -0.01709911 -0.07122808 -0.08661931 0.22583176
0.14491823 0.097150706 -0.09407225 0.28889215 0.0799507 -0.035413753 0.050560717 -0.00037081665
0.05428361 -0.06592823 0.030481273 -0.15286101 0.13007978 -0.10585253 -0.23289274 -0.001319768
0.21624143 -0.030204711 -0.18508811 0.20788412 -0.05933867 0.17527676 0.16922125 0.1093533
0.023535514 -0.07703188 -0.0032948535 -0.082397915 -0.11504273 0.06991815 0.08124195 0.09476945
-0.035399444 -0.10514474 0.16828917 -0.015401214 -0.19357632 0.086708255 -0.15642212 0.05162277
-0.14049463 0.07360977 -0.17022435 -0.076094486 -0.021920219 0.012814482 0.1728761 0.014692496
-0.037567616 0.11239236 -0.18873613 0.13347994 -0.17302966 -0.049469765 -0.08583669 0.09280307
00000000: 16a2 4ebc 4bf9 083d 5514 89bc 2355 14be
00000010: d45c c4bc 9152 f43d 5860 313e 84a8 8b3d
00000020: 485f af3d 16b2 633d 875e 133c 51b3 a7be
00000030: 0c41 843d a122 24be 513f d53d 1aac 2abe
00000040: 13d7 a0bd c6f2 6abc b517 473c 9df2 753d
00000050: aba9 1a3e 554e 26be b7cb acbd ff54 d83d
00000060: a3f8 67bc 92c5 40bd 987d aebd 2edf b0bc
00000070: 11d9 77ba 0ae1 533d 79a1 ee3d 346c 513e
00000080: 9319 b5bd 4b04 563c f2c9 4d3e 4246 91bc
00000090: bdfb b33d e4f2 4ebe 0a6d 203e 2b14 003e
000000a0: ae57 cd3c 020b f83d 3e93 b8bd a515 873d
000000b0: e98b 5c3c 5b8b fcbd 8e51 64be b42d 203d
000000c0: 53b6 d13d fd3b 8fbd ac5b e3bc 0e13 40be
000000d0: bbfd a73c bde1 a83d bf99 1b3d ba77 bc39
000000e0: b4db 9cbd d191 813d 0f3f 283d 465b 3b3d
000000f0: b456 f0ba 2fc2 bdbd 471d 6dbe ea37 523e
00000100: 3ae3 113d 0112 b5bc 81d1 213d 10c7 62be
00000110: f08e 2a3e 163a 14be f151 e83d 149f 633e
00000120: c5f4 33be 7e7e 0abd d004 503e 5ddb 94bc
00000130: d91e f73d cf57 0b3e 27dc 033e 1a41 9fbc
00000140: 7732 4e3e 6fc3 b3bd 39ef 333b 583a b53b
00000150: 900f fd3d 51de 463b bda4 3b3d 2e95 5b3e
00000160: 1943 bbbd 5ce0 a7bd d0c4 9fbd d8e7 04be
00000170: 9bbb c0bd 3b5c 88bb 517f ea3d e5a6 093e
00000180: 189a 00be ff14 1e3e d9fe c8bd 9336 1dbe
00000190: f35c 813d 392a 4a3d a43c cd3d bb13 71bd
000001a0: 57ef 43bc 80ce 69b8 b27c bb3d 7d9b 543d
000001b0: 4460 033e 14b0 b8bd 6da0 903d 6385 10be
000001c0: db64 30be b5a3 17be 6ad8 9bbd a618 253e
000001d0: cc5b 403d 77d8 2f3e 4432 e7bd d82b 39be
000001e0: 0a71 86bd 1902 0ebc 5e7a 983c 02e2 3a3d
000001f0: 5590 9d3d d805 33be 0253 a13d 9e95 523e
00000200: 9fdf d03d de43 6f3d 3d17 3b3e e04b cfbc
00000210: 6abc dcbd 05e0 9c3d 4f66 a53c 39f3 d4bc
00000220: d1da 15bd 7ece 333e 4638 193e 519f 2f3e
00000230: ac55 63bd 67bb 313e 9c39 083e 93fc b2bd
00000240: 448f 323d 025a bf3d 1da0 313c ee77 e2bc
00000250: 54c9 1dbe 9d65 68bd 0b9d 663e d961 303e
00000260: 0144 163e 840c 59be 78cc 3f3e 1b76 b33d
00000270: e353 593d ed35 a1bd 3cd2 f73d bba8 0ebe
00000280: c753 333d 051d 703d 774d 033e fcf2 16be
00000290: e11a 233d 8fb1 e83d 280c dcbc d567 0ebe
000002a0: dc69 8e3c e8fd 333d 7852 96be 530f eb3d
000002b0: 0b53 1dbe 06fc 093e f546 bdbb ba5d da3c
000002c0: f52e f6bd fe8c eabd 3aec 103e e1ff 1b3e
000002d0: a279 e3bd da94 873d 0ce3 753d b8e6 373e
000002e0: 4702 d9bb 2aed 3abd 6d23 adbd 3999 26be
000002f0: f046 783e 6edd b03d 37fe b4bd a990 0a3e
00000300: 50f3 93bd acd9 953d 1abf 32bd 7c45 363d
00000310: 6f13 8cbc 07e0 91bd 7765 b1bd 7140 673e
00000320: 7265 143e f3f6 c63d f4a8 c0bd ace9 933e
00000330: 31bd a33d 030e 11bd c118 4f3d 2b6a c2b9
00000340: 7e58 5e3d 6105 87bd ddb3 f93c 9987 1cbe
00000350: a233 053e 36c9 d8bd 6f7b 6ebe 11fc acba
00000360: 656e 5d3e df6f f7bc bd87 3dbe 93df 543e
00000370: 1b0d 73bd c07b 333e 5648 2d3e 9ff4 df3d
00000380: 8dcd c03c e4c2 9dbd 78ee 57bb 3dc0 a8bd
00000390: 869b ebbd 3f31 8f3d 2e62 a63d 7c16 c23d
000003a0: 02ff 10bd 2056 d7bd ff53 2c3e 6055 7cbc
000003b0: df38 46be 1994 b13d 1f2d 20be 6672 533d
000003c0: d3dd 0fbe b8c0 963d 4b4f 2ebe 6dd7 9bbd
000003d0: 0892 b3bc d5f3 513c 6f06 313e cbb8 703c
000003e0: 80e0 19bd f72d e63d 0b44 41be f7ae 083e
000003f0: b02e 31be cfa0 4abd 26cb afbd 890f be3d

bias f4 [32]
-0.035366613 -0.12345305 0.14960964 -0.06125569 -0.22809827 -0.20493452 -0.007608092 0.15149473
-0.11482482 0.23489735 -0.14538248 0.19359396 -0.09165754 0.16657452 0.18553045 -0.107966796
0.20186481 0.035976745 0.008163706 -0.0307937 0.053738207 -0.12704001 -0.028679209 -0.0061868303
0.047708 -0.08086365 0.048399355 -0.042636603 -0.10108311 0.014093868 -0.025217673 0.11578086
00000000: 95dc 10bd f4d4 fcbd 4533 193e 3fe7 7abd
00000010: 9892 69be 5bda 51be 4d4d f9bb 6f21 1b3e
00000020: 4629 ebbd ee88 703e 25df 14be 7f3d 463e
00000030: f3b6 bbbd 8392 2a3e b2fb 3d3e b21d ddbd
00000040: a6b5 4e3e 5a5c 133d 11c1 053c 1243 fcbc
00000050: 981c 5c3d c716 02be a9f0 eabc e5ba cabb
00000060: 7769 433d d79b a5bd 673e 463d b8a3 2ebd
00000070: a904 cfbd f8e9 663c 4b95 cebc 841e ed3d

weight f4 [32, 64]
0.026555004 -0.06334486 0.0580152 0.043874007 -0.05725779 0.09507365 0.05253111 0.08231047
0.059402484 0.09761392 -0.059275657 0.07264758 -0.042293668 -0.070712514 -0.13464226 -0.010466822
-0.084968835 -0.04396516 0.07945895 -0.104724936 0.0862157 0.0128674 -0.07443754 -0.080620565
0.09177435 -0.018801002 -0.032097712 0.0008489763 -0.021609118 0.060473293 0.08344653 -0.10527154
0.0064462163 -0.09616126 -0.0044929213 -0.073998444 -0.11612384 -0.0013105054 0.017214071 0.03991929
0.10665886 -0.12661386 -0.03537101 0.054057468 -0.037329897 0.058123603 0.02972419 0.0054693497
0.024137167 -0.08617873 -0.12430708 0.040204763 -0.005658443 0.04850274 0.08556328 -0.01931797
-0.10873812 0.00015724353 -0.10297022 -0.06630734 0.051381152 -0.04648149 -0.1030508 -0.04868758
0.007668235 -0.10399633 0.0071996353 -0.036425762 0.07435387 0.16469875 0.10456106 0.007567676
-0.021245942 0.09575679 -0.048400216 -0.0050559137 -0.10460942 0.07177034 0.06029572 0.02399189
0.069960214 -0.10616306 0.105179094 0.10443892 0.03824368 0.041164227 -0.00733684 0.061294187
-0.11079519 0.10313139 0.020306211 0.10973074 0.013590142 -0.01086101 -0.083270915 0.11537923
0.117245115 -0.115829915 -0.060410906 0.110644296 0.020174352 -0.040791076 -0.17027575 -0.057426367
-0.12070094 0.032744158 0.1141026 -0.12616122 -0.16259128 -0.12241112 0.07596208 0.106087364
-0.10552591 0.003840905 -0.01685402 0.05485116 -0.13093261 -0.032425247 0.12526947 -0.038379658
-0.14167619 -0.00093884754 0.09341859 0.07174328 -0.06477899 -0.10215439 0.057568133 -0.018289665
0.013892785 -0.026203679 -0.037309837 -0.042656254 0.044621475 0.03353164 0.033406377 0.12618764
0.08676613 0.009419527 0.010274707 -0.009088778 -0.12569286 -0.05444512 -0.011742175 -0.17121245
0.017227398 0.10815029 -0.10273614 0.07933645 0.01648793 0.016032519 0.07168599 0.0052858824
-0.058028314 0.090785824 -0.13116932 0.02168352 -0.058612384 0.1012551 -0.03380714 0.10791421
0.0817678 0.14738682 0.018744214 -0.10583533 -0.082941726 0.08267112 0.12684795 -0.075732306
0.026635924 0.021521067 0.045801293 -0.13978587 0.1213184 0.055098012 -0.058901336 -0.11113809
-0.026978655 0.003039028 0.00037028416 -0.06923188 -0.07908938 0.06830286 -0.14995547 -0.23192151
-0.040899374 -0.087175995 0.18347888 0.06234362 0.087758064 -0.06823017 0.12982024 -0.013413122
-0.06261128 0.12788963 0.119832166 -0.0921705 -0.11382827 0.034962054 0.05934554 0.008763744
0.012496483 0.07128425 0.05175134 0.0045868442 0.0023478419 -0.0942311 0.01786692 0.069274195
0.08198701 -0.050054528 -0.12871882 -0.16143227 -0.02439642 0.08908062 -0.022080138 0.0948492
0.0222655 -0.16524634 0.012266603 0.097866096 0.14402759 -0.16316776 -0.0075250417 0.02409617
-0.085111424 -0.06523345 -0.15331739 -0.08038367 -0.19011994 -0.04201303 -0.092520304 0.04005802
0.07633166 0.11232242 0.13473317 -0.13205573 -0.039647914 -0.029078886 0.0286918 0.1313443
0.000992319 0.0021915685 0.13481693 -0.105107516 -0.17904574 0.047918033 -0.018624509 -0.0033942424
0.02838039 0.0605366 0.09290517 0.12202216 -0.016761785 0.052948654 -0.020947473 -0.030273836
00000000: e189 d93c f3ba 81bd 59a1 6d3d 3bb5 333d
00000010: 2587 6abd f9b5 c23d dc2a 573d 6492 a83d
00000020: 0550 733d cfe9 c73d 08cb 72bd 41c8 943d
00000030: 203c 2dbd b9d1 90bd a9df 09be 097d 2bbc
00000040: 2404 aebd d014 34bd 60bb a23d 077a d6bd
00000050: db91 b03d cad1 523c b572 98bd 651c a5bd
00000060: 31f4 bb3d 8f04 9abc e478 03bd d68d 5e3a
00000070: 9b05 b1bc d8b2 773d 04e6 aa3d 9b98 d7bd
00000080: c83a d33b 32f0 c4bd 5b39 93bb 7f8c 97bd
00000090: 56d2 edbd 44c5 abba 8604 8d3c 6982 233d
000000a0: f66f da3d 10a7 01be 31e1 10bd 5d6b 5d3d
000000b0: 3ce7 18bd 0413 6e3d 2580 f33c 3b38 b33b
000000c0: 4fbb c53c 797e b0bd b694 febd c0ad 243d
000000d0: 766a b9bb cfaa 463d cd3b af3d b840 9ebc
000000e0: 17b2 debd bde1 2439 0de2 d2bd 25cc 87bd
000000f0: 0b75 523d 6063 3ebd 4c0c d3bd a16c 47bd
00000100: d145 fb3b 07fc d4bd ebea eb3b 2e33 15bd
00000110: d746 983d caa6 283e 1c24 d63d 44fa f73b
00000120: f80b aebc 231c c43d 4e3f 46bd 14ac a5bb
00000130: 773d d6bd 54fc 923d a5f8 763d a48a c43c
00000140: 4d47 8f3d 056c d9bd 2368 d73d 13e4 d53d
00000150: 68a5 1c3d d29b 283d e069 f0bb 9d0f 7b3d
00000160: 97e8 e2bd 8d36 d33d 3659 a63c 83ba e03d
00000170: 30a9 5e3c 61f2 31bc f189 aabd f24b ec3d
00000180: 351e f03d 3c38 edbd 6d71 77bd 7a99 e23d
00000190: af44 a53c 8b14 27bd c45c 2ebe e937 6bbd
000001a0: 0e32 f7bd bd1e 063d a0ae e93d 6830 01be
000001b0: 547e 26be aeb2 fabd 0292 9b3d 5544 d93d
000001c0: f81d d8bd b1b7 7b3b 7111 8abc 9cab 603d
000001d0: 3313 06be 56d0 04bd a446 003e fd33 1dbd
000001e0: 9013 11be fe1c 76ba 3f52 bf3d 24ee 923d
000001f0: d9aa 84bd 5236 d1bd 90cc 6b3d 35d4 95bc
00000200: 909e 633c 19a9 d6bc 33d2 18bd 53b8 2ebd
00000210: 02c5 363d 7958 093d 20d5 083d 5537 013e
00000220: 71b2 b13d 5c54 1a3c 3f57 283c 19e9 14bc
00000230: a1b5 00be d901 5fbd 4062 40bc 5152 2fbe
00000240: 7920 8d3c e67d dd3d 5367 d2bd 267b a23d
00000250: b211 873c a156 833c 1bd0 923d 3235 ad3b
00000260: 19af 6dbd ebed b93d 4051 06be a3a1 b13c
00000270: 8a13 70bd d55e cf3d 5b79 0abd 2002 dd3d
00000280: e075 a73d 92ec 163e 778d 993c 32c0 d8bd
00000290: 5add a9bd 7a4f a93d 6ee4 013e 8a19 9bbd
000002a0: 9533 da3c f34c b03c 239a 3b3d 0724 0fbe
000002b0: c875 f83d 74ae 613d 8742 71bd 5e9c e3bd
000002c0: 5702 ddbc 6e2a 473b b322 c239 72c9 8dbd
000002d0: 9df9 a1bd 5fe2 8b3d ed8d 19be d57c 6dbe
000002e0: 1a86 27bd 5489 b2bd e3e1 3b3e 065c 7f3d
000002f0: 80ba b33d 42bc 8bbd 99ef 043e b6c2 5bbc
00000300: 583a 80bd 80f5 023e 916a f53d e3c3 bcbd
00000310: cc1e e9bd 5f34 0f3d 4f14 733d ce95 0f3c
00000320: 0cbe 4c3c 7afd 913d 37f9 533d 3d4d 963b
00000330: 40de 193b 3cfc c0bd a65d 923c a1df 8d3d
00000340: cee8 a73d fa05 4dbd dece 03be 804e 25be
00000350: 00db c7bc e66f b63d 68e1 b4bc 4c40 c23d
00000360: 2366 b63c 5636 29be ddf9 483c 056e c83d
00000370: f87b 133e 7315 27be a094 f6bb 5565 c53c
00000380: e64e aebd 1d99 85bd 3cff 1cbe 32a0 a4bd
00000390: cdae 42be db15 2cbd 497b bdbd e113 243d
000003a0: c653 9c3d 4c09 e63d 7ef7 093e 9e39 07be
000003b0: da65 22bd d836 eebc 110b eb3c 1f7f 063e
000003c0: b310 823a 6ba0 0f3b 730d 0a3e 9c42 d7bd
000003d0: c457 37be b345 443d 6d92 98bc f071 5ebb
000003e0: fe7d e83c 3af5 773d 1145 be3d c1e6 f93d
000003f0: 0350 89bc b0e0 583d 099a abbc d600 f8bc

bias f4 [32]
-0.13938177 -0.064527534 0.003097237 -0.008819689 0.19282414 0.0795101 0.05847088 0.10040713
-0.080808744 0.10571808 0.14167175 -0.053865284 -0.084954865 -0.09672588 0.018164238 -0.010676352
-0.07443094 0.057477355 0.05886235 0.0538679 -0.0002675216 0.1545949 0.08980968 0.06080037
0.088280186 0.069050364 0.0024052926 -0.054149248 0.14443995 0.1142385 0.051818628 0.07164783
00000000: 18ba 0ebe 0327 84bd 04fb 4a3b 7580 10bc
00000010: b173 453e 31d6 a23d 297f 6f3d 41a2 cd3d
00000020: 0e7f a5bd b982 d83d 6612 113e d8a1 5cbd
00000030: d1fc adbd 3818 c6bd 2bcd 943c deeb 2ebc
00000040: 406f 98bd 606d 6b3d a619 713d 96a4 5c3d
00000050: 2442 8cb9 204e 1e3e 23ee b73d cf09 793d
00000060: 3ecc b43d 476a 8d3d 1da2 1d3b 9acb 5dbd
00000070: 11e8 133e e0f5 e93d c53f 543d 19bc 923d

weight f4 [6, 32]
0.08814756 -0.030788286 -0.012243401 -0.0097268885 0.025221188 0.15420799 -0.12191273 0.031220015
-0.10600482 0.030139282 -0.0993978 -0.06791985 -0.007331829 0.15820111 0.06406262 -0.104906
-0.15838061 0.06245261 -0.13421182 0.044669807 0.078764625 8.2893326e-05 -0.023496756 0.1548148
0.10609756 -0.17650752 -0.17223859 -0.1040254 0.30800056 -0.04786878 0.049095277 0.10291807
0.12781203 -0.020985795 0.10906658 -0.07431233 -0.18090363 0.143226 -0.25715587 0.02047009
-0.21079707 0.123548396 0.09752474 0.18617734 0.09303645 0.0038555383 0.0060242866 -0.0042896834
-0.15968509 0.0012328796 -0.16350192 -0.03741426 0.0026030266 -0.1757104 0.08101119 -0.18409768
0.019309944 -0.07591713 0.09516459 -0.15679075 0.1272664 -0.09003183 -0.12639219 0.030832574
-0.09395785 -0.16232546 -0.15136613 -0.034466185 0.20029539 -0.16066658 0.114175595 0.018692464
0.01734847 0.013552515 0.0375638 -0.060976133 0.14033413 -0.033428445 -0.0678483 -0.054025285
-0.06993332 0.016724043 0.01260749 -0.25638092 0.13148426 0.04065518 -0.089777716 -0.10959192
0.0050552627 -0.09701056 0.11148776 0.0751231 0.011136174 0.012339479 -0.019771926 -0.11330591
-0.1263751 0.0021736224 0.07495074 0.013571532 -0.083751366 0.19977798 -0.048615143 0.08727371
0.0009783237 -0.03128743 0.013435594 0.113942824 -0.052655544 0.12945756 0.059977077 0.061102454
0.1274057 -0.09212576 -0.023895528 0.39987743 0.12765676 -0.034991752 -0.123632796 0.057771288
-0.10737088 0.14720547 -0.060948145 -0.03360707 -0.1516937 -0.08241514 0.089186706 -0.05300249
0.09635848 0.09775982 -0.181768 -0.3236781 -0.013395898 0.07971232 -0.40858793 0.13859105
-0.18847086 0.043449488 0.076780766 0.20736068 -0.0822321 -0.21784769 -0.33354008 -0.14241359
-0.06841555 0.22314686 0.12250873 0.08412969 0.10582375 0.06438886 -0.12646808 -0.18669258
0.20822191 0.08593941 0.020783085 -0.0036460408 -0.1360343 0.16459607 -0.0833707 0.14210862
-0.1414665 -0.052931786 0.007402356 -0.0011264653 0.023819359 -0.005783693 -0.007485812 -0.0316337
0.007240181 0.08428015 0.022272559 0.06376227 -0.07787134 0.0126467515 -0.00068946386 0.054917965
0.028183341 0.019173563 -0.052158587 -0.02160739 -0.0511792 -0.047203295 0.025482407 0.007334901
0.033869516 0.0036622654 0.01331429 0.057812512 -0.022323702 -0.039327994 -0.018616844 0.05045426
00000000: b586 b43d b737 fcbc 8c98 48bc 875d 1fbc
00000010: aa9c ce3c b3e8 1d3e 62ad f9bd 1ec1 ff3c
00000020: 0e19 d9bd a8e6 f63c 1391 cbbd 9019 8bbd
00000030: d73f f0bb 79ff 213e 4333 833d f5d8 d6bd
00000040: 872e 22be 4fce 7f3d d36e 09be b0f7 363d
00000050: 594f a13d 04d7 ad38 457c c0bc c587 1e3e
00000060: ad49 d93d 63be 34be 505f 30be 450b d5bd
00000070: 40b2 9d3e 0e12 44bd 2118 493d b6c6 d23d
00000080: 28e1 023e 67ea abbc 4d5e df3d 1031 98bd
00000090: cd3e 39be d6a9 123e efa9 83be e4b0 a73c
000000a0: 30db 57be f106 fd3d 0dbb c73d 46a5 3e3e
000000b0: e589 be3d 33ad 7c3b 6167 c53b 7990 8cbb
000000c0: 7d84 23be 9398 a13a 0c6d 27be b23f 19bd
000000d0: 8a97 2a3b 6ded 33be 32e9 a53d 1a84 3cbe
000000e0: e32f 9e3c 717a 9bbd a7e5 c23d c18d 20be
000000f0: 2052 023e 9c62 b8bd f46c 01be 9894 fc3c
00000100: f96c c0bd a538 26be b9ff 1abe 6a2c 0dbd
00000110: 3c1a 4d3e c885 24be e5d4 e93d f020 993c
00000120: 611e 8e3c 5e0b 5e3c 80dc 193d 1cc2 79bd
00000130: c0b3 0f3e 44ec 08bd 0df4 8abd 9e49 5dbd
00000140: 3339 8fbd dc00 893c a58f 4e3c 5c44 83be
00000150: cfa3 063e 0c86 263d 61dd b7bd bb71 e0bd
00000160: 9ea6 a53b 79ad c6bd b253 e43d 24da 993d
00000170: 8074 363c 872b 4a3c bcf8 a1bc ee0c e8bd
00000180: 7968 01be 5573 0e3b c67f 993d 225b 5e3c
00000190: d685 abbd 9992 4c3e ac20 47bd 8fbc b23d
000001a0: 193b 803a 4027 00bd f720 5c3c db5a e93d
000001b0: 57ad 57bd 8690 043e 86aa 753d 9146 7a3d
000001c0: a476 023e 6eac bcbd 8ec0 c3bc bcbc cc3e
000001d0: 74b8 023e 8353 0fbd 3133 fdbd 96a1 6c3d
000001e0: 44e5 dbbd 08bd 163e c3a4 79bd 91a7 09bd
000001f0: 9855 1bbe 45c9 a8bd 85a7 b63d 2419 59bd
00000200: 9857 c53d 4d36 c83d 6421 3abe 23b9 a5be
00000210: 787a 5bbc 3640 a33d 7032 d1be d0ea 0d3e
00000220: 81fe 40be 17f8 313d 3c3f 9d3d 5c56 543e
00000230: 4e69 a8bd 7713 5fbe c4c5 aabe ded4 11be
00000240: 741d 8cbd 9c80 643e dbe5 fa3d 304c ac3d
00000250: 1fba d83d 4ede 833d d980 01be 572c 3fbe
00000260: 2038 553e 0001 b03d 4a41 aa3c 6af2 6ebb
00000270: 934c 0bbe df8b 283e 42be aabd ec84 113e
00000280: 98dc 10be 00cf 58bd 768f f23b e7a5 93ba
00000290: d120 c33c 2285 bdbb 8b4b f5bb 5792 01bd
000002a0: 0a3f ed3b 129b ac3d f174 b63c cb95 823d
000002b0: 027b 9fbd 5234 4f3c 23bd 34ba a9f1 603d
000002c0: c0e0 e63c e011 9d3c 3ea4 55bd fb01 b1bc
000002d0: 48a1 51bd 3e58 41bd 7bc0 d03c 9c59 f03b
000002e0: c3ba 0a3d 9e02 703b 2e24 5a3c d0cc 6c3d
000002f0: 32e0 b6bc 6416 21bd 5a82 98bc 20a9 4e3d

bias f4 [6]
0.12963192 0.11337084 -0.07705146 0.01739778 -0.08450503 -0.016775962
00000000: 3bbe 043e f92e e83d 28cd 9dbd ca85 8e3c
00000010: f910 adbd be6d 89bc
