SwarmNet - PyTorch/models/model_20_step_polar.pkl (torch, 80187 bytes, 14 tensors)

weight f4 [32, 7, 3]
0	0xbbb0fe6b	-0.0054014227
1	0x3e1fa5c1	0.15590574
2	0x3e317baf	0.17332338
3	0x3e1bfe4e	0.15233728
4	0x3e165d8e	0.14684126
5	0xbced2e32	-0.028952692
6	0xbd875d5a	-0.06609602
7	0x3e275ffa	0.16345206
8	0xbc57da35	-0.013174583
9	0x3e27e8fa	0.16397467
10	0x3dcfbe57	0.10143726
11	0xbd091f36	-0.03347703
12	0x3e0480df	0.12939785
13	0xbd3f383a	-0.04668448
14	0x3db209e9	0.086932965
15	0xbb2aa279	-0.0026036783
16	0xbe5af3a6	-0.21382007
17	0xbd72dc0b	-0.05929188
18	0x3e3480ea	0.17627302
19	0xbd7d3a8a	-0.061823405
20	0x3d959ad4	0.07304922
21	0xbe3d3209	-0.18476118
22	0xbdb98624	-0.090587884
23	0x3e32ae4c	0.17449301
24	0x3da3a063	0.07989576
25	0x3d3edb0f	0.04659563
26	0x3db9f89d	0.09080622
27	0x3e165ef4	0.14684659
28	0xbe4a3b09	-0.19749083
29	0xbe4e462a	-0.20143953
30	0x3e67c62d	0.22634192
31	0x3d7ae3c2	0.061252363
32	0xbdf934cf	-0.121682756
33	0x3e4ab5ee	0.19795963
34	0xbba44364	-0.0050129164
35	0x3e2f58f8	0.17123783
36	0xbe180abc	-0.14847845
37	0xbe20c6a6	-0.15700778
38	0x3d33a133	0.043854903
39	0x3e14b6fb	0.14522927
40	0xbe3315ce	-0.17488787
41	0xbe0f02ba	-0.13965884
42	0x3df44180	0.11926556
43	0xbe5774a2	-0.21040586
44	0x3e05abc1	0.130538
45	0xbcbdac5f	-0.023153482
46	0xbdb3c1c8	-0.08777195
47	0xbdae826a	-0.08520968
48	0xbc227448	-0.009915419
49	0xbdf87b88	-0.12132937
50	0xbd0a788e	-0.033806376
51	0xbe4d92d6	-0.20075545
52	0x3e0439bf	0.12912653
53	0xbe4c3d1f	-0.19945191
54	0xbd8cf04b	-0.0688177
55	0xbd582ec6	-0.05277898
56	0x3e194007	0.1496583
57	0x3db041d4	0.08606306
58	0xbd9bc2f7	-0.07605546
59	0x3ea27999	0.31733397
60	0xbd95011f	-0.072756045
61	0x3e25eed7	0.16204391
62	0xbd4cde5f	-0.050016757
63	0xbe150dbb	-0.14556019
64	0xbcecf7d5	-0.02892677
65	0xbcae3a58	-0.021268055
66	0xbe496b35	-0.19669802
67	0x3d69b9af	0.057061847
68	0xbe6dbd08	-0.23216641
69	0x3c4ea281	0.012611986
70	0xbe1449be	-0.14481255
71	0x3d732358	0.05935988
72	0x3e11bd46	0.14232358
73	0xbd8fe4d3	-0.07026067
74	0xbce2a92d	-0.02766856
75	0x3e013e3b	0.12621395
76	0x3e020ec4	0.12700945
77	0x3c12013d	0.008911428
78	0x3ce4f691	0.027949603
79	0x3d924aa4	0.07143143
80	0xbd827e52	-0.0637175
81	0xbd797dad	-0.06091087
82	0xbd251b0e	-0.040309004
83	0x3e0696a9	0.1314341
84	0x3d72b62f	0.059255775
85	0xbde75e80	-0.11297321
86	0xbd0dc12f	-0.034608062
87	0x3e36944d	0.1783001
88	0xbc51690d	-0.012781394
89	0x3e5244f8	0.20534122
90	0x3e34f11f	0.17670105
91	0x3d629cf4	0.055325463
92	0xbccaeea7	-0.024772001
93	0x3df45eee	0.11932169
94	0xbd3a4b68	-0.04548207
95	0xbca6b8b8	-0.020351753
96	0x3c9a77f7	0.018856032
97	0xbd1abc2b	-0.037777107
98	0x3e4f408b	0.20239465
99	0x3e32e7a3	0.17471175
100	0xbe317790	-0.17330766
101	0xbd2ae26f	-0.04171985
102	0xbd1bf0b4	-0.03807135
103	0xbe5f8bf1	-0.21830727
104	0xbd66b00e	-0.056320243
105	0x3dc000fb	0.09375187
106	0x3dd8968e	0.10575591
107	0xbd11acea	-0.035565294
108	0xbdd3b7f7	-0.10337823
109	0xbe1e57e1	-0.1546321
110	0xbcd1efb1	-0.02562699
111	0x3dce4af0	0.10072887
112	0x3e0a7902	0.13522723
113	0x3e408f94	0.1880477
114	0xbd485715	-0.048911173
115	0x3e163bf1	0.14671303
116	0x3e20652f	0.15663598
117	0x3d8c0635	0.068371214
118	0xbdceac72	-0.10091485
119	0x3da71f82	0.081603065
120	0xbe1cd4b9	-0.15315522
121	0xbe5eb852	-0.2175
122	0xbe440e3d	-0.19146056
123	0xbe008b04	-0.1255303
124	0x3c3323d2	0.010933833
125	0xbbaf0568	-0.0053412206
126	0xbe0956e6	-0.13412055
127	0x3cfab618	0.030604407
128	0xbe38e068	-0.18054354
129	0x3de8e369	0.113715
130	0x3d38f1c5	0.045152444
131	0x3d39b873	0.04534192
132	0xbda7f51a	-0.08201046
133	0xbd75e41e	-0.060032003
134	0x3e43554a	0.19075504
135	0xbe263559	-0.16231288
136	0x3e4db96a	0.20090261
137	0x3dd55119	0.10415859
138	0xbdc45da1	-0.09588171
139	0xbdef60c2	-0.11688377
140	0xbe6fd190	-0.23419785
141	0x3db17db4	0.08666554
142	0x3e0b9351	0.13630415
143	0x3e1f8f3f	0.15581988
144	0x3d22ab89	0.03971437
145	0xbcb6b1c4	-0.022301562
146	0xbdc0b306	-0.09409146
147	0xbe4644d0	-0.19362187
148	0xbcaff35b	-0.021478346
149	0xbd27b71d	-0.040946115
150	0x3e2af3a3	0.16694503
151	0xbe123d5d	-0.1428122
152	0x3ce72553	0.02821604
153	0x3e16f0b8	0.14740264
154	0xbdbc4b26	-0.09194021
155	0x3dc26f90	0.09493935
156	0xbc3f81a4	-0.011688624
157	0x3cc0f870	0.023555964
158	0x3dba0cef	0.09084498
159	0xbe57a25a	-0.21058026
160	0xbe630cfd	-0.22172923
161	0x3d1ca636	0.03824445
162	0xbe23577a	-0.15951338
163	0xbe088c14	-0.13334686
164	0x3d4c754b	0.049916547
165	0x3d6a492e	0.057198696
166	0x3e667182	0.22504237
167	0xbe0b20ed	-0.13586779
168	0xbdb85ec3	-0.09002449
169	0x3e0ba077	0.13635431
170	0xbe41c5d2	-0.18923119
171	0x3ca6b2f3	0.020349002
172	0xbe09842a	-0.13429323
173	0x3e0f0604	0.13967139
174	0x3dd6ef31	0.10494841
175	0x3d8452f9	0.06461138
176	0x3e2cf707	0.16891108
177	0xbddf309f	-0.108979456
178	0x3b9d54bc	0.004801361
179	0xbe82ff88	-0.2558558
180	0x3ded4e1f	0.11587166
181	0xbdafef30	-0.08590543
182	0x3d86043c	0.065437764
183	0xbc3ab536	-0.011395743
184	0x3e02aa5b	0.12760298
185	0x39d02b70	0.00039705215
186	0xbda6ece4	-0.08150652
187	0xbe5b3ae3	-0.21409182
188	0x3d98f8c1	0.07469321
189	0xbdf8ec4e	-0.121544465
190	0xbe2af2db	-0.16694205
191	0xbdc95607	-0.098308615
192	0xbcbfcf6c	-0.023414336
193	0xbd539339	-0.051654074
194	0xbdbc5812	-0.091964856
195	0x3cc50ab8	0.024052963
196	0x3c3ac85a	0.011400307
197	0x3e532fb6	0.20623669
198	0x3d921a42	0.071339145
199	0x3d975748	0.073896945
200	0x3e65539b	0.22395174
201	0x3d0e8440	0.034794092
202	0xbe076f24	-0.1322599
203	0xbd883546	-0.06650786
204	0x3c2bab68	0.010477878
205	0xbe296cf0	-0.16545463
206	0xbcae2482	-0.021257643
207	0xbe05968e	-0.13045713
208	0x3da46c3e	0.08028458
209	0x3e6e4bb1	0.23271061
210	0x3d8c7f22	0.06860186
211	0xbe132f79	-0.14373578
212	0x3e54f90c	0.20798129
213	0x3e553580	0.2082119
214	0x3e124ae3	0.1428638
215	0x3d94034d	0.07227192
216	0x3d93b570	0.07212341
217	0x3d0f12b9	0.034929965
218	0xbd8434ef	-0.06455409
219	0x3c6372e3	0.013882372
220	0x3cd79392	0.026315484
221	0xbdccb0d6	-0.09994666
222	0xbd765532	-0.060139842
223	0xbd842ece	-0.0645424
224	0x3e10c1c2	0.14136413
225	0xba29130a	-0.00064496754
226	0xbe33d094	-0.17560035
227	0x3ceb65e6	0.028735112
228	0x3d2a8849	0.041633878
229	0x3cd0afd3	0.025474465
230	0xbe664d1d	-0.22490354
231	0x3d959c8e	0.07305251
232	0x3d6a8d48	0.057263643
233	0x3c09a24f	0.008400514
234	0x3ce4df3d	0.02793848
235	0x3e4170ea	0.1889073
236	0x3c83a06c	0.016067706
237	0x3e020209	0.12696089
238	0x3b31b49f	0.0027115715
239	0xbdcd28f1	-0.100175746
240	0x3e638d57	0.22221886
241	0x3dbb690e	0.09150897
242	0xbd2c9e67	-0.04214325
243	0x3e327b1f	0.1742978
244	0xbe6f8da8	-0.23393881
245	0xbdb9f071	-0.09079064
246	0x3ca74269	0.020417409
247	0x3e400064	0.18750149
248	0xbe057cd2	-0.13035896
249	0xbe440635	-0.19142993
250	0xbe5113d6	-0.20417723
251	0xbe065e6e	-0.1312196
252	0x3d3d17a3	0.04616512
253	0x3e445a64	0.19175106
254	0xbe5bafa4	-0.2145372
255	0xbe1f9699	-0.15584792

bias f4 [32]
0	0xbd7b39e2	-0.0613345
1	0xbcfaa79d	-0.030597502
2	0x3cd7c974	0.026341178
3	0xbdaf273c	-0.08552405
4	0x3cff46be	0.031161662
5	0x3dc51c30	0.09624517
6	0x3e0b8fb7	0.13629042
7	0x3dcaf17c	0.09909341
8	0x3e4d275b	0.20034544
9	0xbe00f7fa	-0.12594596
10	0x3b444c8f	0.002995286
11	0x3db381e7	0.08765011
12	0x3abe3b93	0.0014513604
13	0xbd47c552	-0.048772164
14	0x3deeea5d	0.11665795
15	0xbce700fc	-0.028198712
16	0xbe410df7	-0.18852983
17	0x3ca6bc80	0.020353556
18	0x3d29b9d5	0.04143699
19	0x3e47d861	0.19516136
20	0x3d71d20c	0.059038207
21	0x3e1e4733	0.15456848
22	0x3e3bea43	0.18351083
23	0x3d659a03	0.05605508
24	0xbddaa931	-0.10676802
25	0xbe3ab6d3	-0.18233804
26	0x3df342c5	0.1187797
27	0xbe47fc4c	-0.19529837
28	0x3d729a22	0.059229024
29	0xbe32803a	-0.17431727
30	0xbe2b2b3d	-0.16715713
31	0x3d293b25	0.04131617

weight f4 [64, 32, 3]
0	0xbcb40894	-0.021976747
1	0x3b19f675	0.0023492847
2	0xbc8de345	-0.017320285
3	0x3b9c7461	0.0047746156
4	0x3d811d50	0.06304419
5	0x3d53d6ec	0.051718637
6	0x3cb1660f	0.02165511
7	0x3d845ae6	0.0646265
8	0x3d685331	0.056719963
9	0x3d8f06ee	0.069837436
10	0x3cfe932d	0.031076038
11	0x3dafad32	0.08577956
12	0xbd65ed46	-0.056134485
13	0xbd802d99	-0.06258697
14	0x3d0887f8	0.033332795
15	0xbcef7d03	-0.029234415
16	0xbc4b00a7	-0.012390292
17	0x3d2df2ad	0.04246776
18	0xbd26fb62	-0.04076708
19	0x3dc0a3ba	0.09406228
20	0xbc885bd8	-0.016645357
21	0xbdb4f5bb	-0.08835932
22	0x3be11a62	0.0068696
23	0x3d6e4f36	0.05818101
24	0x3dc9b82b	0.098495804
25	0xbdbd2010	-0.09234631
26	0x3db304b0	0.087411284
27	0x3d8d0b3a	0.06886907
28	0xbd4dde0c	-0.05026059
29	0x3d4a7a02	0.049432762
30	0x3dc52cbc	0.09627673
31	0xbda13148	-0.07870728
32	0x3c781876	0.015142551
33	0x3cc4517c	0.023964636
34	0xbd8d7f72	-0.06909074
35	0x3d94d296	0.072667286
36	0x3c9c7d92	0.019102845
37	0x3d33535c	0.04378067
38	0x3d2e9edd	0.042631973
39	0xbddcc31d	-0.107794024
40	0x3b03babe	0.002010032
41	0xbdb27c1f	-0.087150805
42	0xbc1de253	-0.009636479
43	0xbdad2a68	-0.08455354
44	0x3dba5e87	0.09100061
45	0xbdafe084	-0.08587745
46	0xbc867062	-0.01641101
47	0x3d233efb	0.039854985
48	0xbcda8b59	-0.026677774
49	0x3d060070	0.03271526
50	0xbd952991	-0.07283319
51	0x3d91d8a9	0.07121403
52	0xbd885b1a	-0.06658001
53	0xbdc4e238	-0.0961346
54	0xbc060a74	-0.008181203
55	0x3cde8c54	0.027166523
56	0x3d9a3039	0.07528729
57	0x3dbc38b8	0.09190506
58	0xbdafc28b	-0.08582028
59	0xbd98576f	-0.07438552
60	0xbda1e4c7	-0.07904964
61	0x3d916f7f	0.07101344
62	0xbd6e75e4	-0.058217898
63	0xbd9b3781	-0.07578946
64	0xbd52707f	-0.051376816
65	0x3da2ffa2	0.07958914
66	0x3d1e0751	0.038581196
67	0x3d0eb228	0.03483787
68	0xbd401b28	-0.0469009
69	0xbdbcca3a	-0.09218259
70	0xbda1376a	-0.078718975
71	0x3d8e69bd	0.06953762
72	0xbd984158	-0.07434338
73	0xbd8e77bb	-0.069564305
74	0x3d00660f	0.03134733
75	0xbd24936e	-0.040179662
76	0xbdcaf895	-0.099106945
77	0xbd9f1d2f	-0.07769238
78	0x3d9f4a89	0.07777888
79	0x3daa6aaf	0.083211295
80	0xbcb672f6	-0.022271615
81	0xbc9e6bcf	-0.019338517
82	0xbd597569	-0.053090487
83	0x3ccc1cfe	0.024916168
84	0xbd4e8ae0	-0.05042541
85	0xbdc8f377	-0.09812062
86	0xbdb71cc3	-0.08941033
87	0x3d2c3cf1	0.042050306
88	0x3d945eec	0.072446674
89	0xbcd4761b	-0.025935223
90	0xbd0ef27f	-0.03489923
91	0x3d961e61	0.07330013
92	0xbc888f24	-0.016669817
93	0x3d9fc123	0.0780051
94	0xbd7cb2f6	-0.061694108
95	0xbab13a3b	-0.0013521382
96	0x3c05e69d	0.008172658
97	0xbca80194	-0.020508565
98	0x3d42ce39	0.04755995
99	0xbb67e0f2	-0.003538188
100	0xbdd2bf40	-0.10290384
101	0xbde921c8	-0.113833964
102	0x3dab6d8a	0.08370502
103	0xbd8c6f8a	-0.06857212
104	0x3cc06263	0.023484414
105	0x3cfe85c8	0.031069651
106	0x3a853ecc	0.001016581
107	0x3c9fb3ad	0.019494856
108	0xbd985da4	-0.074397355
109	0xbca9b570	-0.020716399
110	0x3db72fc0	0.089446545
111	0xbd9e5a40	-0.077320576
112	0x3d358190	0.044313014
113	0xbc32fbfd	-0.0109243365
114	0x3da01a07	0.07817464
115	0x3bfdbb51	0.007743277
116	0x3c76e0b0	0.015068218
117	0x3a7c46e0	0.00096235983
118	0x3d8ebe22	0.06969859
119	0x3d65d85c	0.05611454
120	0x3dba0cff	0.0908451
121	0xbd1ebecc	-0.038756177
122	0xbd7b11a6	-0.061296128
123	0x3d16025a	0.036623336
124	0xbcd3bbb0	-0.025846332
125	0xbcd4e4b1	-0.025987955
126	0xbc06ed17	-0.008235238
127	0x3db050d9	0.086091705
128	0x3d313ee1	0.043272857
129	0x3db587fb	0.08863827
130	0xbd77a2d7	-0.06045803
131	0xbb9b6b91	-0.0047430475
132	0xbc976f1d	-0.0184856
133	0xbb11ceba	-0.0022248463
134	0xbae7160a	-0.001763047
135	0xbc3d526a	-0.011555294
136	0xbda0f79f	-0.0785973
137	0xbded881a	-0.11598225
138	0xbd14a7e8	-0.03629294
139	0xbc7994ef	-0.015233262
140	0xbd5e1acc	-0.054224774
141	0xbd93865d	-0.07203362
142	0x3c429ab1	0.011877702
143	0xbd98d15c	-0.07461807
144	0xbc840717	-0.016116662
145	0xbc812b81	-0.015767815
146	0xbd45cc0e	-0.048290305
147	0xbd45461a	-0.048162557
148	0xbd98b078	-0.07455534
149	0xbcab47ab	-0.020908197
150	0x3d907c14	0.07054916
151	0x3cccd4a2	0.025003735
152	0x3db106e6	0.08643894
153	0xbd4f839b	-0.050662618
154	0xbd4158ee	-0.04720395
155	0x3b952fd9	0.004552823
156	0x3d3af98b	0.04564814
157	0xbc005bdb	-0.0078344
158	0x3b12a4a6	0.002237597
159	0xbd57d0bc	-0.0526893
160	0x3dd45a3c	0.10368773
161	0x3d64174c	0.05568628
162	0x3db6abe3	0.089195035
163	0x3c6279c4	0.0138229765
164	0xbd90e308	-0.07074553
165	0x3d800bcd	0.06252251
166	0x3cd07bb6	0.025449615
167	0xbb04f692	-0.002028857
168	0x3d56fdc4	0.052488104
169	0x3d4602e0	0.048342586
170	0xbdb194ea	-0.08670981
171	0x3ced515e	0.028969463
172	0xbdc9d39e	-0.09854816
173	0xbd44376e	-0.047904424
174	0x3c219fa5	0.009864722
175	0x3dc9a0f5	0.09845153
176	0xbda44d2a	-0.080225304
177	0x3cf5df5a	0.030013729
178	0x3d018d29	0.03162876
179	0x3d847697	0.06467932
180	0xbdc21f27	-0.09478598
181	0x3c8d2585	0.017229805
182	0x3d5bc7a7	0.0536572
183	0x3d61d5e4	0.055135623
184	0x3d798aa2	0.060923226
185	0x3d9ef1ff	0.07761001
186	0x3dab4978	0.083636224
187	0xbd5ec91d	-0.054391015
188	0xbdc56612	-0.09638609
189	0xbcbfcfde	-0.023414548
190	0xbd6ef288	-0.058336765
191	0x3d094011	0.033508364
192	0xbcb0bae1	-0.021573486
193	0xbd8587dc	-0.06520054
194	0x3aeb1e9e	0.0017938202
195	0x3cfcf2b3	0.030877447
196	0xbc373589	-0.011182197
197	0xba63d1d9	-0.00086906325
198	0xbca1d61d	-0.019755417
199	0x3d5c4ca1	0.053784017
200	0xbdbb9cfb	-0.09160801
201	0xbdd2b7ec	-0.102889866
202	0x3d025837	0.03182241
203	0x3d3d5ca1	0.046230916
204	0xbd3dde0d	-0.046354342
205	0xbdaea543	-0.08527615
206	0x3d7dc546	0.061955713
207	0xbdad8492	-0.084725514
208	0xbc1d1585	-0.00958765
209	0x3c2aba33	0.01042037
210	0x3db87a97	0.09007757
211	0xbd6f64f1	-0.058445875
212	0x3d8ca1fc	0.068668336
213	0xbc6a701e	-0.014308957
214	0xbdb0d723	-0.08634784
215	0xbd835887	-0.064133696
216	0x3ce5728e	0.028008725
217	0x3d07f2ec	0.033190653
218	0xbc8d4cc3	-0.017248517
219	0x3d0e3577	0.034718957
220	0x3dabc242	0.08386661
221	0x3c89d35f	0.016824422
222	0x3d11e826	0.035621785
223	0xbc950924	-0.018192835
224	0x3db2afa2	0.087249056
225	0xbc7d00a4	-0.015442047
226	0xbd98361f	-0.07432198
227	0x3ce7e639	0.02830802
228	0xbd0a2241	-0.033724073
229	0xbd332a86	-0.043741725
230	0xbd630381	-0.055423263
231	0xbd62a94a	-0.055337228
232	0x3d095d1c	0.03353606
233	0x3d9a9adb	0.075490676
234	0xbd9767aa	-0.07392819
235	0x3d895d3b	0.067072354
236	0x3ca96b3d	0.020681018
237	0xbcbeba23	-0.023282116
238	0xbd15c559	-0.03656516
239	0x3d04819b	0.032350164
240	0x3cc6fbc7	0.024289979
241	0xbcf501ae	-0.029908027
242	0xbd29c338	-0.04144594
243	0x3c06c43f	0.0082255
244	0x3da4cdf7	0.08047097
245	0x3d693a76	0.05694052
246	0xbd7d56ce	-0.06185036
247	0x3c45cd66	0.012072897
248	0xbb9d7a61	-0.0048058485
249	0x3d3c192e	0.04592245
250	0xbd69a39c	-0.057040796
251	0xbda92256	-0.08258502
252	0x3d669427	0.056293633
253	0x3b8308f2	0.003998869
254	0x3d2c4799	0.04206047
255	0x3bb3bd70	0.005485229

bias f4 [64]
0	0xbd713311	-0.05888659
1	0x3d863c3a	0.06554456
2	0x3d70d448	0.058796197
3	0xbc592b6a	-0.01325498
4	0xbc8a5281	-0.016885044
5	0xbd1e06b4	-0.03858061
6	0x3dbbdbc4	0.09172776
7	0xbdc0838a	-0.09400089
8	0x3d4e3929	0.05034748
9	0xbd54e122	-0.051972516
10	0x3d609afd	0.05483531
11	0x3d25dcfe	0.040493958
12	0xbb2e032c	-0.0026552184
13	0xbd6f8c96	-0.058483683
14	0x3d1c7cd5	0.038204987
15	0xbce37706	-0.027766716
16	0x3d86945d	0.06571267
17	0x3d948180	0.07251263
18	0x3d1a07f3	0.037605237
19	0x3d9e81e5	0.07739619
20	0xbd4d60cd	-0.050141145
21	0x3cfcee47	0.030875338
22	0xbbedb2d7	-0.0072539854
23	0x3d742bc8	0.059612066
24	0xbdba4818	-0.09095782
25	0x3b341e76	0.0027483976
26	0xbd73c978	-0.059518307
27	0x3dca732e	0.0988525
28	0x3d0b550a	0.034016646
29	0x3d62fb58	0.05541548
30	0x3d89cd36	0.06728594
31	0xbc8a9518	-0.016916797
32	0x3d58afe5	0.05290212
33	0xbcb86834	-0.022510625
34	0x3db0bd13	0.08629813
35	0xbb39908c	-0.0028314916
36	0x3c4aac11	0.012370125
37	0x3dc83002	0.09774782
38	0xbbf7fab2	-0.007567727
39	0xbdae3c09	-0.085075445
40	0xbd29b360	-0.04143083
41	0xbba0b269	-0.0049040806
42	0x3da88d22	0.08230044
43	0x3c81ee3c	0.01586067
44	0xbc6c600b	-0.014427195
45	0xbd120468	-0.035648733
46	0xbdb4de0e	-0.08831416
47	0x3d25522d	0.040361572
48	0xbdb14629	-0.0865596
49	0x3d70404e	0.058655076
50	0xbd2e2a19	-0.042520616
51	0xbd414dff	-0.047193523
52	0x3d17960a	0.037008323
53	0x3d4d5ed1	0.050139252
54	0xbdaabba0	-0.08336568
55	0x3c4f2fe0	0.012645692
56	0x3d8f05b6	0.06983511
57	0xbc853c80	-0.0162642
58	0xbd7257ca	-0.059165753
59	0x3dd33893	0.10313525
60	0xbde3bb7f	-0.111197464
61	0xbd03724d	-0.032091428
62	0xbdf89f65	-0.12139777
63	0xbd9d0a0f	-0.07667934

weight f4 [32, 64, 3]
0	0xbda84393	-0.08216014
1	0x3ccc312c	0.02492579
2	0xbd46e7dd	-0.048560966
3	0x3ce76a75	0.028249005
4	0x3c2e77ab	0.010648648
5	0xbce9ab9c	-0.028524213
6	0x3d7a47ac	0.061103508
7	0x3d632a0a	0.055460013
8	0x3aceeee0	0.0015787743
9	0x3bde6987	0.006787482
10	0x3d090596	0.033452593
11	0x3d8f7e62	0.070065275
12	0x3d57478f	0.052558478
13	0xbd2d05da	-0.04224191
14	0x3cede80d	0.029041314
15	0xbacdd84d	-0.0015704721
16	0xbd028c69	-0.031872187
17	0xbd393eeb	-0.04522602
18	0x3cb460b6	0.022018772
19	0x3b91a112	0.00444425
20	0xbda4413e	-0.080202565
21	0xbc8e787f	-0.017391441
22	0x3db4e4c6	0.088326976
23	0x3d2b36f6	0.04180046
24	0xbc46ffbe	-0.012145935
25	0x3c4bf9cc	0.012449693
26	0xbd485298	-0.048906893
27	0xbcf77ee4	-0.030211873
28	0xbd57697d	-0.052590836
29	0x3d117769	0.03551427
30	0xbc341727	-0.010991848
31	0xbd43c90b	-0.04779915
32	0xbb7fe84a	-0.0039048367
33	0x3c614f80	0.013751864
34	0xbb64b599	-0.003489828
35	0xbba6eb70	-0.0050939843
36	0xbd5ae880	-0.053444386
37	0xbd66b640	-0.05632615
38	0x3d39ed9a	0.04539261
39	0xbcb87f20	-0.022521555
40	0x3c935373	0.017984128
41	0x3dab4802	0.08363344
42	0xbc06d396	-0.008229157
43	0xbcb18a42	-0.021672372
44	0xbd05bdab	-0.032651585
45	0xbe0a788c	-0.13522547
46	0xbe17eaa9	-0.1483561
47	0xbd92b500	-0.07163429
48	0xbc37d958	-0.011221252
49	0x3bf18477	0.0073705274
50	0x3cfd0557	0.030886335
51	0xbd533a5b	-0.051569324
52	0xbce78c1c	-0.028265052
53	0xbd51016c	-0.051026747
54	0x3ae56edf	0.0017504356
55	0x3dab2bcb	0.08357962
56	0xbc34a233	-0.011024999
57	0x3cc80e68	0.024420932
58	0x3c3895ee	0.011266215
59	0x3d80f0f1	0.06295956
60	0xbc984a74	-0.01859019
61	0x3d0b8300	0.03406048
62	0x3cb9d55b	0.022684744
63	0xbcc6b7c7	-0.024257554
64	0xbca01adb	-0.019544056
65	0x3cf3fa58	0.02978246
66	0x3d4da7ca	0.050208844
67	0xbd5ae9d0	-0.053445637
68	0x3c84d832	0.016216371
69	0xbbf1289c	-0.0073595773
70	0x3aafa5e4	0.001340088
71	0xbcb17d21	-0.021666111
72	0x3c96cb97	0.018407626
73	0xbd39a113	-0.045319628
74	0x3c3751d2	0.011188941
75	0x3c3f5903	0.011678937
76	0xbccfb2b0	-0.02535376
77	0x3d366058	0.044525474
78	0x3c884c2b	0.016637882
79	0xbd10b4da	-0.035328723
80	0xbd560151	-0.05224735
81	0xbd622b7c	-0.05521725
82	0xbcd20b40	-0.02564013
83	0x3c1b8def	0.009494289
84	0x3d0c813c	0.034302935
85	0xbd3e8821	-0.04651654
86	0x3d2ebd06	0.042660736
87	0x3d6d63c7	0.057956483
88	0x3cc7d199	0.024391936
89	0xbcc83b77	-0.024442418
90	0xbd951b2a	-0.07280572
91	0x3d5523ee	0.05203622
92	0xbcf5605f	-0.02995318
93	0xbdc83449	-0.097755976
94	0xbd0a1ecf	-0.033720788
95	0xbcce0c1c	-0.025152259
96	0x3cbe428a	0.023225088
97	0x3d358b6c	0.044322416
98	0x3d1d460a	0.038396873
99	0xbc5f56ea	-0.013631562
100	0xbd133831	-0.03594226
101	0xbbd4590b	-0.0064803413
102	0xbc318c08	-0.010836609
103	0x3d2f0bec	0.04273598
104	0x3d13a05f	0.036041614
105	0xbd2db30c	-0.04240708
106	0x3d22be99	0.03973255
107	0xbbb4caac	-0.0055173244
108	0xbd8a5dc3	-0.06756165
109	0xbdc7cffd	-0.097564675
110	0xbce0d4c8	-0.027445212
111	0xbd1505a9	-0.03638235
112	0xbcec2945	-0.028828273
113	0xbd1909a1	-0.0373627
114	0x3d507e7b	0.05090187
115	0x3d5e0412	0.0542031
116	0x3c5b6837	0.013391546
117	0x3d217dcc	0.03942661
118	0xbd4a03b0	-0.049319923
119	0x3d77e7ae	0.06052368
120	0x3d07abe3	0.03312291
121	0x3c389237	0.011265329
122	0x3c7c8ec4	0.015414897
123	0x3c444211	0.011978642
124	0xbd66d1ed	-0.056352545
125	0x3d609b2b	0.05483548
126	0x3d8a8004	0.06762698
127	0x3d083897	0.033257093
128	0x3d850711	0.064954884
129	0x3c2c2217	0.0105061745
130	0xbd5a3ea9	-0.053282414
131	0x3cddf6b2	0.027095173
132	0x3bc9416d	0.0061418326
133	0x3d5719df	0.052514907
134	0xbc9b81ec	-0.01898285
135	0x3d573747	0.05254295
136	0x3ba48d19	0.005021703
137	0xbd8f3f2a	-0.069944695
138	0xbd66f70f	-0.056387957
139	0x3d77a954	0.06046422
140	0xbcdd3f33	-0.027007675
141	0xbcf33df0	-0.02969262
142	0xbba43128	-0.0050107427
143	0xbc89b668	-0.01681061
144	0x3b361d64	0.0027788514
145	0xbd32bfe0	-0.043640018
146	0xbd6c5d66	-0.05770626
147	0x3d6aaec3	0.057295572
148	0x3c897b85	0.016782532
149	0xbd196a00	-0.037454605
150	0xbc8ad3fe	-0.016946789
151	0x3d8c96da	0.0686471
152	0xbcd508d5	-0.026005188
153	0x3d85aad7	0.06526726
154	0x3d0e8567	0.03479519
155	0x3df749df	0.12074637
156	0x3d9466ba	0.07246156
157	0x3c03a8c7	0.008035845
158	0xbb6a19e7	-0.0035721005
159	0xbdb58672	-0.08863534
160	0xbd7461c3	-0.059663545
161	0x3cc42af9	0.023946272
162	0x3c943e4f	0.018096117
163	0xbb4c6c4c	-0.003119248
164	0xbcc9f193	-0.024651324
165	0xbd0bbdfb	-0.034116726
166	0x3c14ee0d	0.009089959
167	0x3c4991a6	0.012302792
168	0xbcf9bd57	-0.030485792
169	0x3cc0d02a	0.02353676
170	0xbd448f0c	-0.047987983
171	0x3d2b1afc	0.04177378
172	0x3d323fe3	0.04351796
173	0x3d2e15e1	0.042501334
174	0xbd255a98	-0.0403696
175	0x3c2919f8	0.010321133
176	0x3d623600	0.05522728
177	0x3d25d413	0.040485453
178	0x3d8ff2fc	0.070287675
179	0x3bb2de4f	0.00545863
180	0xbd85aa0c	-0.065265745
181	0xbc048e34	-0.0080905445
182	0x3d4154cf	0.04720002
183	0x3d81e436	0.06342356
184	0xbcad9340	-0.021188378
185	0xbd2d8a69	-0.042368326
186	0xbcd6f40e	-0.026239421
187	0xbcda5961	-0.026653947
188	0xbd2fa880	-0.042885303
189	0x3cad358f	0.021143703
190	0xbd6d801e	-0.05798351
191	0xbc240f5a	-0.010013426
192	0x3d7bf7ab	0.06151549
193	0x3d01fa7b	0.031733017
194	0x3c8c24a2	0.017107312
195	0x3b722114	0.0036945986
196	0x3cb2a20d	0.021805787
197	0xbca0b009	-0.01961519
198	0x3a82ddca	0.0009984311
199	0x3b6641b8	0.0035134386
200	0x3d573dec	0.052549288
201	0x3d91fe71	0.07128609
202	0xbc3380a6	-0.010955965
203	0x3b348d9b	0.0027550224
204	0x3d660557	0.056157436
205	0x3c3fdbf9	0.01171016
206	0x3d4f46a0	0.050604463
207	0xbca5ec96	-0.020254415
208	0xbcba8112	-0.022766624
209	0x3ce80ea0	0.028327286
210	0x3cc13c56	0.02358834
211	0x3c103ab1	0.008803056
212	0xbd1cdbf1	-0.03829569
213	0xbdaf3999	-0.08555908
214	0x3ca42c7b	0.020040741
215	0xbd97ec89	-0.074181624
216	0x3c05de8d	0.008170736
217	0x3c9a92ca	0.018868823
218	0xbcabe652	-0.020983849
219	0x3d01eb8c	0.031718776
220	0x3cc6a1d9	0.024247097
221	0xbd0e5989	-0.034753356
222	0x3d3dc2e4	0.04632844
223	0x3d7dafae	0.06193512
224	0x3d4c210e	0.04983621
225	0x3bc1c8ae	0.0059138155
226	0xbc8c33af	-0.017114488
227	0x3d1d7b95	0.038447935
228	0xbd25a050	-0.04043609
229	0x3cec1d23	0.028822487
230	0x3d623a79	0.055231545
231	0x3d56c7a2	0.05243648
232	0x3d188791	0.03723866
233	0xbc7f7d81	-0.015593887
234	0xbd317757	-0.043326702
235	0xbd5f8e21	-0.054578904
236	0xbd7a4b5b	-0.06110702
237	0x3c9aa9ab	0.018879732
238	0x3d1b4866	0.03791084
239	0xbd4ceae5	-0.0500287
240	0x3d6d4d9c	0.057935342
241	0x3d94a8d0	0.07258761
242	0x3bdbe57a	0.0067107053
243	0xba0934e3	-0.0005234016
244	0x3d0b4ac5	0.034006853
245	0xbd446b61	-0.047953967
246	0x3d6a4831	0.057197753
247	0xba66654a	-0.0008788897
248	0xbcf44f81	-0.029823067
249	0xbc2cafaf	-0.010539933
250	0xbd14deef	-0.03634542
251	0x3caba0b1	0.020950647
252	0x3ccef62f	0.025263874
253	0x3c25f018	0.010128044
254	0xbb6873e8	-0.0035469476
255	0xbd8c3515	-0.06846062

bias f4 [32]
0	0x3d645c63	0.05575217
1	0x3d233e6d	0.039854456
2	0x3d091156	0.0334638
3	0x3cb56f87	0.022147907
4	0xbc4f1e49	-0.012641498
5	0xbc55ce79	-0.013049715
6	0x3d7c2f85	0.061568756
7	0x3d593eb1	0.053038303
8	0xbd7b3798	-0.061332315
9	0x3d80d200	0.06290054
10	0xb9c3b32b	-0.0003732679
11	0xbcff83d5	-0.031190792
12	0x3bfa17c1	0.007632226
13	0xbd9206b3	-0.07130184
14	0x3d10813e	0.035279505
15	0xbd5af657	-0.053457584
16	0xbd536e90	-0.051619112
17	0xbd8245b8	-0.06360954
18	0x3b84cad7	0.0040525007
19	0x3cacb52a	0.02108248
20	0x3b28f8f6	0.0025783158
21	0xbd93f189	-0.072238036
22	0xbd80e747	-0.06294113
23	0x3cdec99c	0.027195744
24	0x3bd00e2c	0.0063493457
25	0xbc38adb4	-0.011271883
26	0x3d303545	0.04301955
27	0x3d87e66f	0.066357486
28	0x3d2b78d3	0.041863274
29	0xbc2930ed	-0.010326606
30	0xbd4e0530	-0.050297916
31	0x3d8e970d	0.069624044

weight f4 [32, 64]
0	0x3d98cb62	0.07460667
1	0xbd841969	-0.06450159
2	0x3d611681	0.054953102
3	0x3d887458	0.06662816
4	0x3df093d6	0.117469475
5	0xbb9e7c1d	-0.004836573
6	0xbcbe96b5	-0.023265222
7	0x3d4d383e	0.050102465
8	0x3d388f9c	0.04505883
9	0x3ca2a02e	0.01985177
10	0xbc8d2e46	-0.017233979
11	0xbe05e887	-0.13076983
12	0x3c1dc033	0.009628343
13	0x3d4dd242	0.050249346
14	0x3d9a6fcf	0.07540857
15	0xbdd20130	-0.10254133
16	0xbdad6f7c	-0.084685296
17	0xbdceb2ee	-0.10092722
18	0xbc8a1834	-0.016857244
19	0x3dc2a4b3	0.0950407
20	0xbc907598	-0.017634198
21	0x3d0b094b	0.03394441
22	0x3d02b243	0.031908285
23	0x3dc49894	0.095994145
24	0xbd01a983	-0.0316558
25	0x3c73628e	0.01485504
26	0xbdc7f120	-0.09762788
27	0xbcef9a3c	-0.02924835
28	0xbcf11e03	-0.029433256
29	0xbdad40a5	-0.084595956
30	0x3daa8f80	0.08328152
31	0xbd230eae	-0.03980892
32	0xbdcb3a6a	-0.09923251
33	0xbde83cd2	-0.113397256
34	0x3d8cb231	0.06869925
35	0x3da72206	0.08160786
36	0x3ddecb4a	0.10878618
37	0x3dda81b8	0.10669273
38	0x3db2562c	0.08707842
39	0x3d9f451e	0.07776855
40	0x3df8b86a	0.12144549
41	0x3df90517	0.12159174
42	0x3ce020ce	0.027359392
43	0xbdcdb3b3	-0.100440405
44	0x3de5df4c	0.11224231
45	0x3dc7317d	0.09726236
46	0xbc2f35ab	-0.010693948
47	0xbd5fe5e3	-0.054662596
48	0xbc64e154	-0.013969738
49	0x3d86e4bc	0.06586596
50	0x3cd5aa23	0.026082104
51	0x3cea75ff	0.028620718
52	0xbcedaf27	-0.029014183
53	0x3d5cd6c2	0.053915747
54	0x3e1f14ae	0.15535232
55	0xbde5d45e	-0.112221465
56	0x3e18a10d	0.14905186
57	0x3e0371a6	0.12836322
58	0xbca58afe	-0.020207878
59	0x3d8dd492	0.0692531
60	0x3c8248b8	0.015903816
61	0x3c9eee44	0.019400723
62	0x3b3c3611	0.002871875
63	0x3d23bfb4	0.039977744
64	0x3d61eddf	0.055158492
65	0x3d2f95c6	0.042867444
66	0xbdcbc1d7	-0.099490814
67	0x3d70b8fd	0.05877017
68	0x3d90f0c7	0.07077175
69	0x3d5c47f7	0.05377957
70	0xbd81d9e7	-0.0634039
71	0x3d927122	0.071504846
72	0xbcf56567	-0.029955579
73	0xbdeaca34	-0.114643484
74	0x3e706ec0	0.23479748
75	0x3d3d9851	0.04628784
76	0x3d6c1951	0.05764133
77	0x3c857486	0.016290914
78	0x3da7f3d6	0.08200805
79	0xbe0450f1	-0.12921502
80	0x3cebccbb	0.028784147
81	0x3d2d364f	0.04228812
82	0xbcfda2e8	-0.030961469
83	0x3d325c59	0.0435451
84	0xbcb759b1	-0.022381635
85	0xbd44bc0a	-0.04803089
86	0xba990485	-0.001167432
87	0x3c826aa9	0.01592
88	0x3df5b63d	0.1199765
89	0xbd5b7a40	-0.053583384
90	0xbce31259	-0.02771871
91	0xbdee0285	-0.11621574
92	0x3a0e96e1	0.0005439353
93	0xbd943745	-0.07237104
94	0x3de1639d	0.11005328
95	0x3be8f461	0.0071092104
96	0xbd6509e3	-0.05591763
97	0xbcc96518	-0.024584338
98	0xbcb46938	-0.022022828
99	0xbdf2424c	-0.118290514
100	0xbdab75d1	-0.08372081
101	0xbcf61ec0	-0.03004396
102	0xbda747d2	-0.081679955
103	0x3dca15da	0.09867449
104	0x3d2f05c9	0.042730127
105	0x3c922812	0.017841373
106	0xbd7b87fd	-0.061408985
107	0x3ce3374a	0.027736325
108	0x3c4ec0bd	0.012619195
109	0x3d3a5890	0.045494616
110	0xbde0552a	-0.10953744
111	0x3d50c93a	0.050973155
112	0xbdee3d3f	-0.116327755
113	0xbb92e9ac	-0.0044834223
114	0x3ddf036d	0.10889325
115	0xbe0294ef	-0.12752126
116	0x3d97bddc	0.0740926
117	0x3c8967b0	0.016773075
118	0x3d0e34a3	0.034718167
119	0x3cbf0df1	0.023322077
120	0x3d7f5cb6	0.062344275
121	0x3df25def	0.11834323
122	0x3c4dffe1	0.012573213
123	0x3d887fdc	0.06665012
124	0xbd065922	-0.032799847
125	0x3dd8d344	0.10587171
126	0xbd521844	-0.051292673
127	0x3d637daa	0.055539764
128	0xbc027a74	-0.007963765
129	0xbd37cd3d	-0.044873465
130	0x3d8aa7b3	0.06770267
131	0xbc574b73	-0.013140547
132	0xbbedb4db	-0.0072542257
133	0x3ba1ebb8	0.00494143
134	0x3da1bbee	0.07897173
135	0x3d029838	0.03188345
136	0x3ce22a66	0.027608108
137	0x3db946eb	0.0904673
138	0x3dad4366	0.08460121
139	0xbd6c112f	-0.057633575
140	0xbd66fbf3	-0.05639262
141	0xbd27c288	-0.040957004
142	0x3db587b4	0.08863774
143	0x3cb8399e	0.022488412
144	0x3d63d0b0	0.05561894
145	0x3c0a528e	0.008442534
146	0xbc7c1463	-0.01538572
147	0xbdd9867f	-0.10621356
148	0xbd907cfd	-0.070550896
149	0xbdc560fd	-0.0963764
150	0x3d763491	0.060108725
151	0xbcab67b0	-0.020923465
152	0xbdfa3c88	-0.12218577
153	0x3dd858ad	0.105637886
154	0x3cb3f72d	0.021968449
155	0xbcee1f94	-0.029067792
156	0x3de3a9ab	0.11116346
157	0x3da2fa12	0.079578534
158	0xbc59e5ae	-0.013299389
159	0xbd87df62	-0.06634404
160	0x3dba2312	0.090887204
161	0x3d304e56	0.043043457
162	0x3d761f67	0.06008854
163	0xbd5a391e	-0.053277127
164	0x3d7beb07	0.061503436
165	0x3dbac4c8	0.09119564
166	0xbd0087bc	-0.031379446
167	0x3d4f5dae	0.05062645
168	0x3d8a2032	0.06744422
169	0xbcf57f38	-0.02996789
170	0xbdf1d2f4	-0.11807814
171	0x3de31090	0.110871434
172	0xbdc1a95e	-0.09456132
173	0x3db01852	0.08598389
174	0xbd8163b0	-0.06317842
175	0x3a0fe469	0.0005489053
176	0x3d211b28	0.03933254
177	0xbda403ca	-0.08008535
178	0x3e0145c7	0.12624274
179	0x3da0c3b6	0.07849829
180	0xbdd77d85	-0.10521988
181	0xbdf65086	-0.120270774
182	0x3cb8ca2e	0.022557344
183	0x3db5c96d	0.088763095
184	0x3de42ed3	0.111417435
185	0x3cf68938	0.030094728
186	0x3d1ac72e	0.03778761
187	0x3d61c726	0.055121563
188	0x3e23c25c	0.15992111
189	0xbddffa8b	-0.10936459
190	0x3d846fb3	0.064666174
191	0x3d69a6c0	0.05704379
192	0x3d39baa7	0.04534402
193	0xbd70b800	-0.058769226
194	0x3dff23a4	0.1245797
195	0xbddee77f	-0.10883998
196	0xbcea63ef	-0.028612105
197	0x3dc08333	0.09400024
198	0xbdb6897d	-0.089129426
199	0xbd184052	-0.037170716
200	0x3d014cdd	0.031567443
201	0xbcffa045	-0.031204352
202	0xbd9380dc	-0.07202312
203	0xbd182074	-0.037140325
204	0x3c90f04f	0.017692713
205	0x3dde0d86	0.10842423
206	0x3dbfd4aa	0.09366734
207	0x3c17ad6a	0.009257654
208	0x3dd40448	0.10352379
209	0xbdd539d5	-0.10411421
210	0x3cbaefb4	0.022819377
211	0x3da4a330	0.08038938
212	0x3cd9ca8b	0.026585838
213	0x3d6a1a5d	0.05715405
214	0x3da6268b	0.0811282
215	0x3d1d8130	0.03845328
216	0xbe00e31c	-0.12586635
217	0x3dc74b3b	0.09731146
218	0xbde72618	-0.11286563
219	0x3cebe114	0.028793849
220	0xbd95dea9	-0.0731786
221	0xbbd5b098	-0.0065212958
222	0xbd3f71eb	-0.0467395
223	0x3d899203	0.06717303
224	0x3ddacab6	0.10683195
225	0xbdca7637	-0.09885829
226	0x3d268e0c	0.04066281
227	0xbdd350d1	-0.10318149
228	0x3c4b3969	0.012403824
229	0x3d437fab	0.047729176
230	0xbd263031	-0.040573303
231	0x3d342568	0.043980986
232	0xbd9d5ce2	-0.076837316
233	0x3d7a4226	0.06109824
234	0x3da4e0e3	0.08050706
235	0x3d9574b4	0.0729765
236	0x3d3019af	0.042993244
237	0xbda9833e	-0.082769856
238	0xbdbec21d	-0.09314368
239	0x3d5bd0be	0.05366587
240	0x3c1c1d3f	0.009528457
241	0xbe3db923	-0.18527655
242	0xbda1ada7	-0.0789445
243	0xbd84bf50	-0.064818025
244	0xbdd18043	-0.10229542
245	0x3bdb955d	0.006701155
246	0x3dd1f6fd	0.102521874
247	0xbdd099a0	-0.10185552
248	0xbe3d8e6a	-0.18511358
249	0x3dcf0ca9	0.101098366
250	0x3d855226	0.06509809
251	0x3d0adcd7	0.033902016
252	0xbd158b95	-0.03651007
253	0xbda8bd4e	-0.08239232
254	0xbd0da6a8	-0.034582764
255	0x3af2eccc	0.0018533706

bias f4 [32]
0	0x3bf4866b	0.007462313
1	0x3d9d09ea	0.076679066
2	0x3dd09879	0.10185332
3	0xbd88ce8c	-0.06680021
4	0xbc2c4ef5	-0.010516872
5	0x3dd00579	0.10157294
6	0xbdde07c4	-0.10841325
7	0x3b0f263c	0.0021842858
8	0x3c2ecaea	0.010668496
9	0x3db8ffcd	0.09033165
10	0xbc84ab45	-0.016194949
11	0xbd1e2998	-0.038613886
12	0xbc38264d	-0.0112396
13	0xbde978bc	-0.113999814
14	0x3d2de521	0.042454842
15	0x3dace672	0.084423915
16	0x3d4b5e10	0.049650252
17	0x3d9508b4	0.072770506
18	0x3d0bf8a6	0.034172677
19	0x3dbb7eee	0.09155069
20	0x3de3b5bf	0.1111865
21	0xbc88be7e	-0.016692396
22	0x3da2129a	0.07913704
23	0x3d157dbe	0.03649687
24	0x3d56684c	0.05234556
25	0x3dac01ad	0.08398757
26	0xbdf09086	-0.11746316
27	0xbd0b9175	-0.034074266
28	0x3d2cc8c6	0.04218366
29	0x3dc4578b	0.0958701
30	0x3dc51c89	0.09624583
31	0xbddf0208	-0.10889059

weight f4 [32, 32]
0	0x3bb137a0	0.0054082423
1	0xbe1b24a7	-0.151507
2	0xbcbb3c60	-0.022855937
3	0x3d9aff22	0.07568194
4	0xbe095150	-0.13409925
5	0x3db8934a	0.09012468
6	0xbe120938	-0.14261329
7	0x3cabd090	0.020973474
8	0xbd95f273	-0.07321634
9	0xbe0e8a09	-0.13919844
10	0xbe07b092	-0.1325095
11	0xbe2616e9	-0.16219677
12	0x3c63e230	0.013908908
13	0x3dbd50ea	0.09243949
14	0xbdc0d2bf	-0.094151966
15	0xbdfa17db	-0.12211581
16	0x3de4920a	0.11160667
17	0x3ddfd75a	0.10929747
18	0x3be4da80	0.006984055
19	0x3e2ec06f	0.17065595
20	0x3b2c4fc0	0.0026292652
21	0x3ca7eae8	0.020497754
22	0xbe153a2b	-0.1457297
23	0xbd1da120	-0.03848374
24	0xbe023ae0	-0.12717772
25	0xbdecd465	-0.115639485
26	0x3e09cbff	0.13456725
27	0xbe141218	-0.14460027
28	0xbdecd134	-0.1156334
29	0xbb9d1280	-0.004793465
30	0xbda0fb47	-0.07860427
31	0xbd385028	-0.044998318
32	0x3d084db3	0.033277225
33	0xbe5501e2	-0.208015
34	0x3ddd9629	0.108196564
35	0xbd4ce320	-0.05002129
36	0xbe14ef6f	-0.14544462
37	0x3e387456	0.18013129
38	0xbcff5043	-0.031166201
39	0x3cde52b7	0.02713905
40	0xbe29b7d2	-0.16574028
41	0xbe1776b4	-0.14791375
42	0xbdcff050	-0.10153258
43	0xbe5b51ff	-0.21417998
44	0xbd184910	-0.037179053
45	0xbe082ce8	-0.1329838
46	0xbcfe759d	-0.031061942
47	0xbdb24809	-0.08705146
48	0x3bf864a3	0.007580356
49	0xbe407fdf	-0.18798779
50	0xbda32d21	-0.07967592
51	0x3e2695d3	0.16268091
52	0x3db62f11	0.08895696
53	0xbdcb5427	-0.0992816
54	0xbe21903e	-0.1577768
55	0x3e31c5fb	0.1736068
56	0xbe2edb55	-0.17075856
57	0x3e01a2a3	0.12659697
58	0x3d9cd85f	0.07658457
59	0xbd79a624	-0.06094946
60	0xbca73f65	-0.020415971
61	0xbe3d4502	-0.18483356
62	0x3d3a49c7	0.045480516
63	0x3daeab4a	0.085287645
64	0xbd9d0df0	-0.07668674
65	0xbe0d7bb3	-0.13816719
66	0x3d65dcd1	0.05611879
67	0xbdc9542e	-0.09830509
68	0x3d0da1f2	0.03457827
69	0x3db020e6	0.08600025
70	0xbde74d26	-0.11294012
71	0x3e09872b	0.13430469
72	0xbe0d63ec	-0.13807648
73	0x3e0e3b42	0.13889793
74	0xbd87d711	-0.066328175
75	0x3db70777	0.08936971
76	0xbde63260	-0.11240077
77	0x3e120fd7	0.14263855
78	0xbcdc722c	-0.02690991
79	0x3d0ca9bb	0.034341555
80	0x3e10288b	0.14077966
81	0x3da10189	0.07861621
82	0x3c0a2d0d	0.0084335925
83	0xbe29470d	-0.1653101
84	0xbc9e8536	-0.01935063
85	0xbdb9c9f9	-0.09071726
86	0x3d249465	0.040180583
87	0xbd5c8cf8	-0.053845376
88	0x3c819a18	0.015820548
89	0xbe16e5cb	-0.14736097
90	0x3dbcdc1e	0.092216715
91	0x3e184133	0.14868622
92	0xbdf856b9	-0.12125916
93	0xbe40d022	-0.18829396
94	0x3e14eef3	0.14544277
95	0xbdbb425a	-0.09143515
96	0x3683c768	3.927318e-06
97	0x3d2d777f	0.04235029
98	0x3d94c89a	0.07264824
99	0x3dd83497	0.10556906
100	0xbc486013	-0.012229937
101	0x3e1d6f8f	0.15374587
102	0xbd239ce5	-0.03994455
103	0x3d1366c7	0.035986688
104	0x3c72652d	0.01479463
105	0x3c57f0d9	0.013179981
106	0x3e31b26f	0.17353223
107	0x3d361242	0.044451006
108	0xbe1be7ea	-0.15225187
109	0xbcb6a181	-0.022293808
110	0xbd9dcad5	-0.07704703
111	0xbd843bc9	-0.064567156
112	0x3d268201	0.040651325
113	0x3dd8b666	0.10581665
114	0x3de6d08b	0.11270245
115	0xbdf944ee	-0.121713504
116	0xbdbc93fa	-0.09207912
117	0x3dce9a64	0.100880414
118	0xbdf0e298	-0.11761969
119	0x3d35844f	0.044315632
120	0x3e3f77b1	0.18698002
121	0xbd62bbdf	-0.05535495
122	0xbda49f73	-0.08038225
123	0xbc9bf071	-0.01903555
124	0xbd3cc93d	-0.046090353
125	0x3c4f2408	0.012642868
126	0x3c00683d	0.007837352
127	0x3e27b006	0.16375741
128	0xbe1efbdf	-0.15525769
129	0x3d264f9c	0.040603265
130	0xbdb57dd5	-0.08861891
131	0x3dcd5c16	0.100273296
132	0xbdb25a51	-0.08708633
133	0x3a81e380	0.0009909719
134	0xbdef7fd0	-0.116943
135	0x3e2560d7	0.16150223
136	0xbd96c473	-0.073616885
137	0x3d910718	0.07081431
138	0x3da21b16	0.079153225
139	0xbd53a5b0	-0.051671684
140	0xbe03cc95	-0.1287101
141	0xbdd39f46	-0.10333113
142	0x3def7e42	0.11694004
143	0x3e0acb99	0.13554229
144	0xbe10c609	-0.14138044
145	0x3e134493	0.14381628
146	0xbd6d9406	-0.058002494
147	0x3e0d51e5	0.13800772
148	0x3c7dddc0	0.015494764
149	0xbe07f37c	-0.13276476
150	0xbdec7542	-0.11545803
151	0x3dab384a	0.08360346
152	0x3e21986b	0.15780799
153	0xbd2d5dac	-0.04232566
154	0x3d7054a0	0.058674455
155	0xbe0c8005	-0.1372071
156	0xbe168344	-0.14698511
157	0xbc975788	-0.018474355
158	0xbe0a6c7f	-0.1351795
159	0xbdfba893	-0.12288012
160	0x3e2bb9b5	0.1677006
161	0xbd6c2526	-0.057652615
162	0xbd70d02a	-0.05879227
163	0x3da68917	0.081316166
164	0xbde67ff1	-0.11254872
165	0xbc94fdeb	-0.018187484
166	0xbca17034	-0.019706823
167	0x3e233d4f	0.15941356
168	0xbe13e496	-0.14442667
169	0x3da5f203	0.08102801
170	0xbe21d620	-0.15804338
171	0xbdaf3e1a	-0.08556767
172	0x3db2c313	0.08728614
173	0x3c66e350	0.014092281
174	0xbe0e916b	-0.1392266
175	0x3e03d807	0.12875377
176	0x3e17733e	0.14790055
177	0xbe1bfccd	-0.15233155
178	0x3d42d167	0.047562983
179	0xbd562b11	-0.052287165
180	0xbe11e3c8	-0.14247048
181	0xbdbc42d0	-0.09192431
182	0x3e2328ae	0.15933487
183	0xbe22fe79	-0.15917386
184	0xbe272099	-0.16321029
185	0x3c5c1ee3	0.013435098
186	0xbe05f45d	-0.13081498
187	0x3d928cb6	0.07155745
188	0xbe1756b4	-0.14779168
189	0x3d822a87	0.06355768
190	0xbb6299fc	-0.0034576645
191	0xb9e6b1ab	-0.00044001392
192	0xbd962ef4	-0.07333174
193	0x3d490fac	0.04908721
194	0x3da4afee	0.080413684
195	0x3d6fb270	0.05851978
196	0x3e0c1167	0.13678513
197	0xbdfdc610	-0.12391293
198	0xbc8a2cb8	-0.016867027
199	0xbd65431a	-0.055972196
200	0x3d05c090	0.032654345
201	0xbd58740c	-0.052845046
202	0x3d80aa5a	0.06282492
203	0x3d6d4e54	0.057936028
204	0xbe30cdbe	-0.17265984
205	0xbdbd2ce4	-0.09237078
206	0x3e1ae05b	0.15124647
207	0xbe06be53	-0.1315854
208	0x3dde3822	0.1085055
209	0xbde71dc1	-0.11284972
210	0xbe0b2456	-0.1358808
211	0x3d303be4	0.043025866
212	0xbcdd84d8	-0.027040884
213	0xbdc9fdd6	-0.098628685
214	0x3df6f312	0.12058081
215	0xbe03f4d0	-0.12886357
216	0x3e18ad5f	0.14909886
217	0xbd8dad35	-0.06917802
218	0xbd965edc	-0.07342312
219	0xbe2b3b6a	-0.16721883
220	0x3d2cc3ac	0.042178795
221	0xbdaffeab	-0.08593496
222	0xbe16f842	-0.1474314
223	0x3d6c26c8	0.057654172
224	0xbd1f2e6b	-0.038862627
225	0xbe2a6e3e	-0.16643617
226	0x3d1cbe41	0.038267378
227	0xbd0e3eb8	-0.034727782
228	0xbe30f400	-0.17280579
229	0xbe0cdf00	-0.13756943
230	0xbe06d3d5	-0.13166745
231	0xba96933f	-0.0011487975
232	0x3e17997f	0.14804648
233	0x3c08cc56	0.008349499
234	0xba8f31e6	-0.0010924905
235	0x3d98832a	0.074468926
236	0x3d79647b	0.06088684
237	0xbc868c68	-0.016424373
238	0xbe03ee95	-0.1288398
239	0x3d7d2816	0.061805807
240	0xbd20a06a	-0.039215483
241	0xbd73ca20	-0.059518933
242	0x3df66dca	0.12032659
243	0x3e2c4ea2	0.16826871
244	0xbccf6373	-0.025315976
245	0xbe30deea	-0.17272535
246	0x3e19504f	0.14972042
247	0xbdb9e90a	-0.09077652
248	0xbe153cbf	-0.14573954
249	0x3ca51942	0.020153645
250	0x3e0ad6d0	0.13558507
251	0x3e19864e	0.1499264
252	0xbe01dafb	-0.1268119
253	0xbd484147	-0.04889038
254	0xbcd53b5b	-0.02602928
255	0xbd6d7205	-0.057970066

bias f4 [32]
0	0xbe08ff57	-0.13378654
1	0xbe1502f0	-0.14551902
2	0xbde57b7b	-0.11205193
3	0x3df344e6	0.11878376
4	0x3da3442a	0.07971986
5	0xbc9c9f12	-0.01911882
6	0x3d4f8e8c	0.050673053
7	0xbe2c2ef8	-0.16814792
8	0xbe036943	-0.12833123
9	0x3d9e9e0e	0.0774499
10	0x3d8e6f68	0.06954843
11	0xbc1214be	-0.008916078
12	0xbc580343	-0.013184371
13	0x3de90f6b	0.11379894
14	0x3d050110	0.032471716
15	0x3df4a934	0.119463354
16	0x3dd0a683	0.101880096
17	0xbe3483ae	-0.17628357
18	0x3cd3fbf6	0.02587698
19	0x3d84ce23	0.0648463
20	0x3d962eba	0.07333131
21	0xbdec57f2	-0.11540212
22	0xbc3f0153	-0.011658031
23	0x3e0a3303	0.13496022
24	0x3d9334f1	0.07187832
25	0x3e1cc1ad	0.15308256
26	0xbe1f6388	-0.15565312
27	0xbe317367	-0.17329179
28	0x3d8860d1	0.06659091
29	0x3cc49d7f	0.024000881
30	0xbdd2e130	-0.10296857
31	0x3c006350	0.007836178

weight f4 [32, 64]
0	0xbcd0443d	-0.025423164
1	0x3dd16888	0.10225016
2	0xbe07486f	-0.13211225
3	0x3d2ba361	0.041903857
4	0x3ca9a833	0.020710086
5	0xbd102db1	-0.035199825
6	0xbd3fe69a	-0.04685078
7	0xbdde30e2	-0.108491674
8	0x3d8289eb	0.06373962
9	0x3dfb1690	0.12260163
10	0xbde9e48b	-0.11420544
11	0xbc38c907	-0.011278397
12	0xbacb6252	-0.0015516973
13	0x3e2ecce7	0.17070352
14	0x3ce562da	0.028001238
15	0xbbb66c2c	-0.0055670943
16	0xbca0fd1f	-0.019651948
17	0xbcd79423	-0.026315754
18	0x3dc5486f	0.09632956
19	0xbc582608	-0.013192661
20	0x3cb6b8aa	0.022304852
21	0xbda72c65	-0.081627645
22	0xbd8c9262	-0.06863858
23	0xbb0a596b	-0.0021110426
24	0x3e372b1e	0.17887542
25	0xbd89e13f	-0.067324154
26	0xbdcdf01d	-0.100555636
27	0x3c2686c9	0.010163971
28	0xbcab8f88	-0.020942464
29	0x3db6aa6f	0.089192264
30	0x3dc5ace5	0.09652118
31	0xbe25ddd4	-0.16197902
32	0xbbbf9240	-0.005846292
33	0x3e443e87	0.19164477
34	0xbc8c6b44	-0.017140992
35	0x3be80cc4	0.0070816
36	0xbd1b1f64	-0.037871733
37	0x3ca3b589	0.019984024
38	0x3d175b94	0.03695257
39	0x3ce7c9b9	0.028294431
40	0xbd95ea4c	-0.07320079
41	0xbd9b6fd2	-0.075896874
42	0x3b11da80	0.002225548
43	0xbbbc1154	-0.0057393704
44	0xbb87f9a6	-0.0041496335
45	0x3ced7e5f	0.028990922
46	0xbdd07408	-0.10178381
47	0x3d9ec7a7	0.077529244
48	0x3dc8a1e4	0.09796503
49	0xbd962756	-0.073317215
50	0x3d7c51a4	0.061601296
51	0xbc522019	-0.0128250355
52	0xbc485598	-0.012227438
53	0x3cc24ef0	0.023719281
54	0xbdc69c33	-0.096977614
55	0x3d889bce	0.066703424
56	0xbdb50288	-0.088383734
57	0x3d9a29a0	0.075274706
58	0xbda9275a	-0.08259459
59	0x3dbb3f41	0.09142924
60	0xbde43d9a	-0.11144562
61	0x3d892734	0.066969305
62	0x3b0e9884	0.0021758387
63	0xbd9b2b20	-0.07576585
64	0xbc95822e	-0.018250551
65	0x3d0ca631	0.03433818
66	0xbda7156b	-0.08158382
67	0xbcc7d775	-0.02439473
68	0xbd5fd282	-0.054644115
69	0xbdefecd3	-0.117150925
70	0x3d3afec2	0.045653112
71	0xbcb61be3	-0.022230094
72	0xbb310a81	-0.0027014317
73	0xbd5bb8a2	-0.053642876
74	0xbb962a8f	-0.00458271
75	0x3bf7f675	0.0075672218
76	0x3db61c30	0.08892095
77	0xbd13d468	-0.03609124
78	0xbdffd0dd	-0.124910094
79	0xbda2cd3a	-0.079493
80	0x3d8ff880	0.070298195
81	0x3d8ba90e	0.06819354
82	0xbc2ed47c	-0.010670777
83	0xbcc3032a	-0.02380522
84	0xbd9d931f	-0.07694077
85	0x3ceeb31a	0.029138137
86	0x3d76ccc1	0.060253862
87	0x3d398fd5	0.045303185
88	0xbe5e9390	-0.21735978
89	0xbdde50bb	-0.10855242
90	0x3db2205e	0.0869758
91	0xbdd389af	-0.103289954
92	0xbde06d15	-0.10958306
93	0xbc412515	-0.011788626
94	0xbc04d92f	-0.008108421
95	0xbc8c0d79	-0.017096268
96	0xbd2e87b0	-0.04260987
97	0xbb9ca337	-0.004780199
98	0x3d3175b8	0.043325156
99	0xbb4ea769	-0.003153289
100	0xbdc68092	-0.096924916
101	0xbd223188	-0.039598018
102	0x3ce202e0	0.027589262
103	0xbc7b71fd	-0.015347001
104	0x3d06e5f6	0.03293415
105	0x3d0f9153	0.0350507
106	0x3d4719ac	0.048608467
107	0xbcdc3434	-0.026880361
108	0xbc39998d	-0.011328113
109	0xbcca624d	-0.024705077
110	0xbce30b60	-0.027715385
111	0x3d26bc3d	0.04070686
112	0xbab64bbb	-0.0013908067
113	0xbd9d4ca1	-0.076806314
114	0xbc3f20a5	-0.011665498
115	0xbcf7ff39	-0.030273067
116	0x3d99a0ad	0.075013496
117	0x3cacb8a8	0.021084145
118	0xbd6a70e9	-0.057236586
119	0xbc981ba0	-0.01856786
120	0x3dfa3e4e	0.12218915
121	0x3d8e4c0d	0.06948099
122	0xbdab090c	-0.08351335
123	0xbd193e5c	-0.037412986
124	0xbc8d29ce	-0.017231848
125	0xbcb22ff3	-0.02175138
126	0xbdcb258f	-0.09919273
127	0x3d65d06b	0.056106966
128	0xbd9fc7af	-0.078017585
129	0xbe206b17	-0.15665852
130	0xbe322aa1	-0.17399074
131	0x3d78acce	0.060711674
132	0x3e001de1	0.12511398
133	0xbe069a1f	-0.1314473
134	0xbe2d0564	-0.16896588
135	0xbdbfe7e8	-0.093704045
136	0xbd44a544	-0.048009172
137	0xbccac60b	-0.024752637
138	0xbcca0a92	-0.024663243
139	0xbd3d8e33	-0.04627819
140	0xbd8e46c6	-0.06947093
141	0x3c955e70	0.018233508
142	0xbd9f744d	-0.077858545
143	0x3d1c0310	0.038088858
144	0x3d658c5b	0.056042057
145	0xbcfbfbc4	-0.0307597
146	0xbdb4ac9b	-0.088219844
147	0xbdb2391f	-0.08702301
148	0xbdfb7c27	-0.122795396
149	0x3d4cafe8	0.049972445
150	0xbda08ed2	-0.07839741
151	0xbdd33a58	-0.103138626
152	0x3e2ba764	0.16763073
153	0x3d676a0f	0.05649763
154	0x3d4a44c0	0.04938197
155	0x3c98106a	0.018562514
156	0xbdce7654	-0.10081163
157	0x3d27d41c	0.040973768
158	0x3e1385c7	0.14406501
159	0x3c809699	0.01569681
160	0xbd42ab18	-0.04752645
161	0x3a279c4f	0.0006393836
162	0x3dac94c4	0.08426812
163	0x3bedf088	0.0072613396
164	0x3d8458e2	0.064622656
165	0x3e1856ed	0.1487691
166	0xbd3f0d14	-0.04664333
167	0xbd462174	-0.048371747
168	0x3dbcba48	0.09215218
169	0x3d446bc6	0.047954343
170	0x3cb341a0	0.021881878
171	0x3dbd462e	0.09241901
172	0xbde998c2	-0.11406089
173	0x3d1e28c7	0.038613107
174	0x3cbd7f10	0.023131877
175	0x3d84bbe6	0.06481151
176	0x3de005ce	0.10938607
177	0x3d9ae40f	0.0756303
178	0x3daa5d4a	0.08318575
179	0x3d553401	0.052051548
180	0xbd7ee99f	-0.062234517
181	0xbde9b758	-0.11411923
182	0x3da7628f	0.081730954
183	0xbd979b2a	-0.07402642
184	0xbda62c17	-0.08113878
185	0xbe390c83	-0.18071179
186	0xbdcc9cf4	-0.09990874
187	0xbd627dbf	-0.055295702
188	0xbd88c5ac	-0.06678328
189	0xbd63e267	-0.055635836
190	0x3c6d2cfc	0.014476057
191	0xbda62ff2	-0.081146136
192	0xbe0c21a8	-0.13684714
193	0x3bcbaa4c	0.0062153693
194	0xbdb5e456	-0.08881442
195	0x3de5eed0	0.112271905
196	0xbe4af477	-0.19819818
197	0x3c6e728b	0.014553676
198	0xbd8d2e94	-0.0689365
199	0x3d1d422c	0.038393185
200	0xbd59b5e9	-0.053152
201	0xbd2be07a	-0.041962124
202	0x3d87829e	0.0661671
203	0xbc3b3b70	-0.011427745
204	0xbd46c80a	-0.048530616
205	0xbbd5b8f0	-0.0065222904
206	0x3e0e2249	0.13880266
207	0x3d7ccbed	0.061717916
208	0x3dade0bd	0.08490131
209	0x3e0d9fa9	0.13830437
210	0x3e176640	0.14785099
211	0xbcb14cfd	-0.021643156
212	0xbd2c35fb	-0.042043667
213	0x3dddd6f9	0.108320184
214	0x3c608b48	0.013705082
215	0xbc8b0e64	-0.016974635
216	0x3dc7318c	0.09726247
217	0x3dae3a38	0.08507198
218	0x3cff9ed6	0.031203669
219	0xbd5328e4	-0.05155267
220	0x3e29dc0c	0.16587847
221	0xbd532ee7	-0.0515584
222	0x3dd755cd	0.10514412
223	0x3d01ba9e	0.031672113
224	0xbdca4136	-0.09875719
225	0xbdc69473	-0.09696283
226	0x3c9991fa	0.018746365
227	0xbd9bad7f	-0.07601451
228	0x3cd9c928	0.026585177
229	0xbd881ae6	-0.066457555
230	0xbca94788	-0.020663992
231	0xbdbe00cb	-0.09277495
232	0x3db2a2c6	0.08722453
233	0xbc96072b	-0.018313965
234	0xbd711d68	-0.058865935
235	0x3da14a34	0.07875481
236	0x3c7dd0c1	0.015491665
237	0xbcec7eb2	-0.028869007
238	0x3d91c18e	0.07116996
239	0xbd1e059d	-0.038579572
240	0x3c3e9a10	0.011633411
241	0x3db6efb9	0.08932442
242	0x3d47fa02	0.04882241
243	0x3d3328e7	0.04374018
244	0xbe10ebd8	-0.14152467
245	0xbdb9780a	-0.09056099
246	0x3db65dd2	0.089046136
247	0xbd0f0710	-0.034918845
248	0x3dfbf45b	0.123024665
249	0xbd62a635	-0.05533429
250	0x3d2a709c	0.0416113
251	0xbd40180a	-0.046897925
252	0xbe0e6cad	-0.13908644
253	0x3d6e061f	0.058111306
254	0x3c55698c	0.013025653
255	0x3d514f53	0.05110104

bias f4 [32]
0	0x3d9b1a2c	0.07573351
1	0x3dd9aa97	0.106282406
2	0x3e001ed0	0.12511754
3	0x3d1d9968	0.038476378
4	0x3c535c0f	0.012900366
5	0x3db532af	0.08847558
6	0xbd961559	-0.073282905
7	0x3d73fdce	0.05956822
8	0x3d6f7d7f	0.05846929
9	0xbdaa45a1	-0.08314062
10	0x3e04c1b7	0.12964521
11	0xbcc68a65	-0.024235914
12	0x3d4927dc	0.04911028
13	0xbdd57649	-0.10422952
14	0x3daa6a6a	0.08321078
15	0x3d68514b	0.056718152
16	0x3d219c8b	0.03945593
17	0xbe12e4b8	-0.14345062
18	0xbd8d3066	-0.06893997
19	0x3ddb7935	0.10716478
20	0x3dd2a873	0.102860354
21	0x3d171dd1	0.03689367
22	0x3d9f6588	0.077830374
23	0x3cc648b8	0.024204597
24	0xbd3c7b6a	-0.046016134
25	0x3de46f43	0.11154034
26	0x3b818efd	0.003953813
27	0x3dc397e6	0.09550457
28	0xbde09d06	-0.1096745
29	0xbdd46a23	-0.103718065
30	0x3da5b73b	0.08091589
31	0xbe1372f8	-0.14399326
