SwarmNet - PyTorch/models/model_10_step_radius.pkl (torch, 80187 bytes, 14 tensors)

weight f4 [32, 7, 3]
-0.17224057 -0.080890246 0.002951286 0.16224387 -0.18740927 0.09222578 0.06536302 -0.10008652
0.058410596 -0.11908999 -0.086288124 -0.18612356 0.01685976 -0.13427176 -0.09145191 0.057162326
0.044508256 0.21331137 0.09611247 0.1422441 0.036963455 -0.15623206 -0.002071002 -0.09219209
0.1485181 -0.1749257 0.08169192 -0.17769563 -0.041974597 -0.014365508 -0.0732316 -0.12767252
-0.24057409 0.21710557 0.0073772627 -0.08080908 -0.028025389 0.11270488 -0.24000812 0.14649221
0.1406724 -0.22844067 0.13482167 0.15976688 -0.05234326 -0.011428308 -0.02294919 0.08974654
-0.17202772 0.18298166 0.07707227 -0.24978667 0.051651184 -0.051570233 0.03227512 0.2305335
-0.09342444 0.25493786 0.1698635 0.18447171 0.050320942 -0.14790787 -0.14865191 0.1715729
-0.0010820956 0.073014066 0.086844064 -0.16783306 0.13010801 -0.0460664 0.070402086 0.09662374
-0.14017338 -0.17607962 0.019538049 -0.23718673 -0.16822064 -0.1116541 0.19435605 -0.1505069
0.20675427 0.10216969 -0.10372546 -0.17624173 -0.12657148 -0.13291898 -0.05425636 -0.013072824
-0.03434251 0.14428031 -0.15956257 0.06318583 -0.015387734 0.2691645 0.09786369 -0.06337542
-0.25143346 0.018649725 0.016454339 -0.04440698 0.016389593 0.16895108 0.09648475 0.06713621
0.119779594 -0.021516498 0.050419766 -0.008575976 0.09728097 0.16756986 -0.20703812 -0.19520174
0.106869966 -0.04625467 -0.23390596 -0.16210806 -0.19760537 -0.17927825 -0.050314702 -0.176957
-0.07676713 0.13385558 -0.1627374 0.09962482 0.19625069 0.0672212 0.1956632 -0.045642395
-0.184329 0.18311204 -0.19777347 0.0028549775 -0.0810334 -0.0470636 0.002486612 0.038236067
0.15619788 0.1610869 0.05128565 0.067270055 -0.12368283 -0.10583474 0.034010176 0.14280535
-0.15912686 -0.04373585 0.06759064 0.023753423 -0.10390919 -0.19075575 -0.01912268 -0.059474893
-0.08045053 0.16787353 -0.11781521 -0.113943264 0.1524183 0.20818366 -0.007234193 -0.17154443
0.17937267 -0.23980127 0.17018445 -0.065440625 -0.021456473 0.12949389 0.18449299 0.20137714
-0.08993686 -0.104136094 -0.17207178 0.024967713 0.01254967 0.141196 0.016879875 -0.17207462
-0.15035912 -0.1561113 -0.11255802 -0.20545001 0.012652896 0.28532216 0.2651445 -0.041409995
0.14352453 0.115239464 -0.034649845 0.110431984 -0.1295625 -0.067270905 -0.028725915 0.021137957
-0.026301417 0.11302301 0.025678823 -0.21700415 0.06877473 0.18054563 0.074738674 0.14215997
-0.11521726 -0.1234656 -0.08658915 -0.20464483 0.16174638 0.02481221 -0.19012575 0.16895063
0.08177132 0.20249014 -0.09523015 -0.07975416 -0.070963696 -0.11639911 0.04293605 -0.0003197584
-0.14636783 -0.063774124 -0.18801077 -0.16294543 0.023003323 -0.28242302 -0.19012043 -0.12133427
-0.04824147 0.115055375 -0.019662477 0.14486375 -0.078125335 0.08308627 0.08968167 -0.07981526
-0.17195995 -0.06891404 -0.119247936 0.112787955 -0.103381164 0.06093099 -0.07915811 0.13932228
0.042909697 0.066785574 0.16283196 0.10931235 -0.24044146 0.079951815 0.08409396 -0.1323168
0.091820344 0.06148507 0.10069861 -0.14855398 -0.14638455 0.16096897 0.0055436553 -0.03171869
00000000: d55f 30be c9a9 a5bd 5d6a 413b 4223 263e
00000010: 37e8 3fbe dfe0 bc3d 0cdd 853d 29fa ccbd
00000020: f33f 6f3d 74e5 f3bd d4b7 b0bd 2d97 3ebe
00000030: 7b1d 8a3c 897e 09be 244b bbbd 0b23 6a3d
00000040: 4a4e 363d 4c6e 5a3e 9dd6 c43d 70a8 113e
00000050: fe66 173d 4cfb 1fbe a6b9 07bb 35cf bcbd
00000060: 2115 183e b91f 33be 184e a73d d8f5 35be
00000070: 8eed 2bbd 4f5d 6bbc 73fa 95bd 96bc 02be
00000080: 0e59 76be ec50 5e3e f7bc f13b 3b7f a5bd
00000090: 8095 e5bc d1d1 e63d b0c4 75be 0e02 163e
000000a0: 6d0c 103e 5aec 69be b10e 0a3e ee99 233e
000000b0: e365 56bd cc3d 3bbc f1ff bbbc 09cd b73d
000000c0: 0928 30be 8b5f 3b3e 11d8 9d3d 14c8 7fbe
000000d0: 3190 533d 4f3b 53bd eb32 043d f910 6c3e
000000e0: 5055 bfbd 3787 823e b3f0 2d3e 27e6 3c3e
000000f0: 551d 4e3d 2975 17be 3538 18be ceb0 2f3e
00000100: 1ad5 8dba 6688 953d 4ddb b13d 6edc 2bbe
00000110: 093b 053e 1fb0 3cbd f82e 903d abe2 c53d
00000120: 9c89 0fbe 374e 34be 420e a03c 14e1 72be
00000130: 0842 2cbe e8aa e4bd 4605 473e 7b1e 1abe
00000140: 64b7 533e 583e d13d 046e d4bd b678 34be
00000150: f49b 01be ea1b 08be eb3b 5ebd 662f 56bc
00000160: bbaa 0cbd 38be 133e 5f64 23be 9367 813d
00000170: d61c 7cbc eecf 893e c26c c83d f9ca 81bd
00000180: e3bb 80be 4fc7 983c 40cb 863c 18e4 35bd
00000190: 7843 863c 8301 2d3e cc99 c53d b67e 893d
000001a0: 014f f53d 5e43 b0bc f584 4e3d 4082 0cbc
000001b0: 3f3b c73d 6f97 2b3e cd01 54be f7e2 47be
000001c0: a4de da3d 8975 3dbd 0b85 6fbe a8ff 25be
000001d0: 1059 4abe b894 37be ca16 4ebd 3734 35be
000001e0: 1638 9dbd 7011 093e a2a4 26be 1908 cc3d
000001f0: f1f5 483e 45ab 893d ef5b 483e 85f3 3abd
00000200: bec0 3cbe b981 3b3e 2185 4abe 931a 3b3b
00000210: d7f4 a5bd c3c5 40bd 6df6 223b 6c9d 1c3d
00000220: 56f2 1f3e f7f3 243e e710 523d e2c4 893d
00000230: 6c4d fdbd e2bf d8bd 414e 0b3d 913b 123e
00000240: 27f2 22be 5d24 33bd f66c 8a3d 8a96 c23c
00000250: 57ce d4bd 7a55 43be 2ba7 9cbc f29b 73bd
00000260: 3fc3 a4bd 0ae7 2b3e 1a49 f1bd 165b e9bd
00000270: 8b13 1c3e 192e 553e cf0c edbb 58a9 2fbe
00000280: 78ad 373e 778e 75be d544 2e3e bc05 86bd
00000290: 7cc5 afbc 0c9a 043e bbeb 3c3e cf35 4e3e
000002a0: d130 b8bd 4e45 d5bd 9633 30be 1789 cc3c
000002b0: 229d 4d3c af95 103e aa47 8a3c 5434 30be
000002c0: bef7 19be a4db 1fbe d284 e6bd 7d61 52be
000002d0: 184e 4f3c bf15 923e 05c1 873e 879d 29bd
000002e0: 18f8 123e ab02 ec3d ffec 0dbd 2a2a e23d
000002f0: 08ac 04be 54c5 89bd 9c52 ebbc 8229 ad3c
00000300: 1276 d7bc 9c78 e73d 655c d23c 5636 5ebe
00000310: c4d9 8c3d f4e0 383e 9710 993d 6292 113e
00000320: 07f7 ebbd 88db fcbd a755 b1bd 6a8e 51be
00000330: d8a0 253e fa42 cb3c 53b0 42be 6501 2d3e
00000340: b977 a73d 9359 4f3e 0608 c3bd 2656 a3bd
00000350: 6a55 91bd a862 eebd b6dd 2f3d 3fa5 a7b9
00000360: 73e1 15be 029c 82bd e585 40be 2bdb 26be
00000370: 7771 bc3c c099 90be eeae 42be 1a7e f8bd
00000380: d998 45bd 27a2 eb3d 3413 a1bc 2a57 143e
00000390: 2d00 a0bd 2229 aa3d 06ab b73d 2f76 a3bd
000003a0: 4516 30be ce22 8dbd 4338 f4bd 5ffd e63d
000003b0: 81b9 d3bd c692 793d a61d a2bd 80aa 0e3e
000003c0: 14c2 2f3d e0c6 883d 6cbd 263e 27df df3d
000003d0: 4936 76be c7bd a33d 7439 ac3d 0e7e 07be
000003e0: 4e0c bc3d c5d7 7b3d 133b ce3d 891e 18be
000003f0: d5e5 15be 0dd5 243e 8da7 b53b 75eb 01bd

bias f4 [32]
0.08859063 -0.03350648 0.15219286 0.20999713 -0.04632398 -0.07816026 -0.11916592 0.09278287
0.14689544 0.04379061 -0.0640013 -0.16415742 0.119076155 0.00094952923 -0.16374855 0.22278152
0.22015126 0.024658909 0.046756215 -0.085807785 0.055540837 0.06651897 -0.2113089 -0.12841584
-0.19911565 0.19957039 -0.06705928 -0.076763265 -0.071212135 -0.19519855 -0.23711783 0.066752434
00000000: 016f b53d 173e 09bd 72d8 1b3e 7d09 573e
00000010: 37be 3dbd 7d12 a0bd 430d f4bd f204 be3d
00000020: c26b 163e c85d 333d 1d13 83bd e218 28be
00000030: 33de f33d d4e9 783a b3ad 27be d720 643e
00000040: 556f 613e 7b01 ca3c 7283 3f3d febb afbd
00000050: ca7e 633d 193b 883d 5c61 58be 717f 03be
00000060: f9e4 4bbe 2e5c 4c3e 6056 89bd 0f36 9dbd
00000070: abd7 91bd 21e2 47be 04cf 72be 80b5 883d

weight f4 [64, 32, 3]
-0.0479381 0.06833926 0.0026176039 0.023366803 0.0022510858 -0.04728619 0.029309304 0.04460279
-0.068953946 0.0034131727 -0.02678861 0.10886736 -0.00092198997 -0.08235573 0.0494526 0.06144486
0.08548545 -0.033523474 -0.01619128 -0.106008016 0.047690667 0.09166231 0.045038834 -0.0074105845
0.05383852 0.035663433 0.0631908 -0.029598692 -0.09796916 -0.06158603 0.008948264 -0.102184914
0.03902318 0.0026872605 0.04661736 0.11971762 -0.028134266 0.0014736766 0.00442374 -0.014654812
0.06809088 -0.11739735 -0.028739834 -0.053195402 0.06864566 -0.03414622 0.11121947 -0.03992975
0.025758067 -0.07256322 0.093110725 -0.057908505 -0.0039149555 0.095912375 -0.001090772 -0.074520946
-0.045475826 -0.06834061 0.070696004 0.026860269 -0.0129371965 -0.01408179 -0.034501974 0.0425242
-0.0025020847 0.012017531 -0.008694457 0.03781011 -0.0067440527 0.01932932 -0.030701626 0.024463004
-0.11469971 -0.024328094 0.054509725 -0.02492643 -0.045912568 0.045588262 0.10123131 0.05671252
0.021645887 8.039588e-05 0.045501623 -0.0908204 0.037758578 -0.08267913 -0.08257883 0.078706086
-0.027740508 0.034958716 -0.07022579 0.052386772 0.052504424 0.04613854 0.050943784 -0.028153097
-0.01126548 -0.10516306 -0.13146767 -0.09149697 0.04334598 -0.13261741 0.017204385 -0.07447199
0.05624164 -0.039392855 0.09251606 -0.008134732 0.023286356 -0.06494298 -0.0149040185 -0.03367553
0.066204354 0.044403985 0.09151157 -0.052501842 0.015388614 -0.07664998 -0.23160157 -0.054494597
-0.12754324 -0.088263385 0.02574356 0.016453145 0.07455312 -0.06635547 0.08415463 -0.00776092
0.006345085 0.082610324 0.07313137 -0.004366035 0.07711215 0.065002486 0.04689832 -0.08353943
0.06002487 0.048538476 -0.009733935 -0.007206353 -0.082672834 -0.033955704 -0.016185055 0.08893994
0.11038807 -0.020008054 0.09202365 0.030336814 0.040462896 -0.10329108 0.02736396 0.010706118
-0.1239385 0.0038536114 0.100485146 0.028434647 -0.07247711 0.0100989 -0.049648188 0.0051770764
0.014277562 -0.12518017 -0.12532109 -0.1507418 -0.11536329 -0.07857616 0.0104447575 0.034912936
-0.09749096 0.044258382 0.046921402 0.028556814 0.03581133 -0.030331444 0.0680653 -0.089896925
-0.019764097 0.008286596 0.005481347 -0.1328546 0.014360136 -0.028055105 0.009051926 0.016017998
-0.05308663 -0.017220803 -0.046868894 -0.14907928 -0.0047468594 0.048157416 0.07565106 -0.041958228
-0.037493795 0.033158608 -0.062303357 -0.07398561 -0.06083586 0.06797557 0.07081203 0.064318486
0.048971664 0.012806749 -0.024044698 0.0075114174 0.00820861 -0.0066220397 -0.022595933 0.09494157
0.048067108 -0.06928901 -0.05800856 0.07943133 0.0066337683 0.049857702 -0.08085273 -0.029764093
0.05228879 0.059768956 0.088170566 -0.012058522 0.025328746 -0.033537585 0.07255074 0.01560138
0.07778231 0.04072648 0.0131314015 0.12422536 0.0011692428 0.06627041 -0.061012764 -0.026364492
0.021624414 -0.086955756 0.057908926 -0.09167301 -0.034508545 -0.07057516 0.016353771 -0.03895574
0.037927303 -0.039625224 -0.06970263 -0.08263402 -0.039499074 0.0817384 -0.049505573 0.02402851
0.04532109 -0.07074323 -0.095651366 -0.0359781 0.06561991 -0.09777444 -0.08576958 0.026980646
00000000: be5a 44bd 74f5 8b3d 1b8c 2b3b bd6b bf3c
00000010: f486 133b 2aaf 41bd 111a f03c 6ab1 363d
00000020: ba37 8dbd 89af 5f3b c973 dbbc daf5 de3d
00000030: b3b1 71ba 1faa a8bd cf8e 4a3d 9bad 7b3d
00000040: ff12 af3d e94f 09bd 93a3 84bc bb1a d9bd
00000050: 4a57 433d 73b9 bb3d a47a 383d 7dd4 f2bb
00000060: c885 5c3d d213 123d 2e6a 813d f578 f2bc
00000070: 0ea4 c8bd a241 7cbd bd9b 123c 5346 d1bd
00000080: c5d6 1f3d c01c 303b d8f1 3e3d 832e f53d
00000090: d579 e6bc 6228 c13a 05f5 903b bd1a 70bc
000000a0: 3b73 8b3d 066e f0bd cd6f ebbc 6ce3 59bd
000000b0: 1996 8c3d e8dc 0bbd 09c7 e33d 618d 23bd
000000c0: 9502 d33c 079c 94bd d6b0 be3d 7831 6dbd
000000d0: 0749 80bb b56d c43d 3cf8 8eba 709e 98bd
000000e0: dc44 3abd 29f6 8bbd 11c9 903d 110a dc3c
000000f0: 89f6 53bc 4fb7 66bc f151 0dbd db2d 2e3d
00000100: 04fa 23bb 2ee5 443c 3273 0ebc c6de 1a3d
00000110: 37fd dcbb 8658 9e3c fa81 fbbc a366 c83c
00000120: aee7 eabd b64b c7bc 9745 5f3d 8332 ccbc
00000130: d10e 3cbd c2ba 3a3d 5c52 cf3d 634b 683d
00000140: b752 b13c 369a a838 e95f 3a3d 0c00 babd
00000150: bda8 1a3d ad53 a9bd 171f a9bd a830 a13d
00000160: 1040 e3bc df30 0f3d 8ad2 8fbd 8393 563d
00000170: e10e 573d c4fb 3c3d 6eaa 503d 53a1 e6bc
00000180: d992 38bc bb5f d7bd 769f 06be c362 bbbd
00000190: 8e8b 313d dccc 07be 36f0 8c3c c584 98bd
000001a0: a25d 663d 675a 21bd 0f79 bd3d 8a47 05bc
000001b0: 07c3 be3c d300 85bd fc2f 74bc 5aef 09bd
000001c0: 2696 873d f4e0 353d 6b6a bb3d 2c0c 57bd
000001d0: 8620 7c3c aafa 9cbd f628 6dbe ba35 5fbd
000001e0: b29a 02be 6fc3 b4bd 29e4 d23c bfc8 863c
000001f0: 4eaf 983d 60e5 87bd 4359 ac3d 514f febb
00000200: 6eea cf3b 9a2f a93d e6c5 953d f510 8fbb
00000210: faec 9d3d 0620 853d 7418 403d b816 abbd
00000220: a3dc 753d 48d0 463d 157b 1fbc 4523 ecbb
00000230: 6050 a9bd 2315 0bbd 8596 84bc 2526 b63d
00000240: 2413 e23d eee7 a3bc e576 bc3d e984 f83c
00000250: 6cbc 253d 468a d3bd 622a e03c b768 2f3c
00000260: 78d3 fdbd df8c 7c3b 28cb cd3d c7ef e83c
00000270: e16e 94bd db75 253c e65b 4bbd 77a4 a93b
00000280: 6fec 693c 3b2f 00be 2c54 00be 0f5c 1abe
00000290: 9743 ecbd 8aec a0bd 7d20 2b3c de00 0f3d
000002a0: 57a9 c7bd 4748 353d a830 403d fbef e93c
000002b0: e7ae 123d a679 f8bc d265 8b3d e11b b8bd
000002c0: 51e8 a1bc 81c4 073c df9c b33b 090b 08be
000002d0: c746 6b3c d2d3 e5bc 884e 143c 2d38 833c
000002e0: 5e71 59bd a412 8dbc 99f9 3fbd 3da8 18be
000002f0: 8b8b 9bbb b640 453d f1ee 9a3d 64dc 2bbd
00000300: 1893 19bd 52d1 073d ce31 7fbd c485 97bd
00000310: 062f 79bd c736 8b3d e605 913d 69b9 833d
00000320: 8396 483d 66d3 513c 63f9 c4bc 5622 f63b
00000330: 687d 063c b2fd d8bb 1b1b b9bc ba70 c23d
00000340: 04e2 443d 65e7 8dbd 629a 6dbd e5ac a23d
00000350: 1560 d93b 9737 4c3d 1e96 a5bd d4d3 f3bc
00000360: c52c 563d 4bd0 743d c592 b43d 1b91 45bc
00000370: 3b7e cf3c b55e 09bd 7b95 943d ee9c 7f3c
00000380: 554c 9f3d cfd0 263d 1725 573c de69 fe3d
00000390: 4741 993a c8b8 873d 85e8 79bd 59fa d7bc
000003a0: af25 b13c dc15 b2bd e931 6d3d 0fbf bbbd
000003b0: d558 0dbd b689 90bd 58f8 853c 0e90 1fbd
000003c0: a959 1b3d 0f4e 22bd 41c0 8ebd 063c a9bd
000003d0: c8c9 21bd 7666 a73d 5bc6 4abd 70d7 c43c
000003e0: 9ba2 393d d4e1 90bd dde4 c3bd c65d 13bd
000003f0: bb63 863d f73d c8bd f6a7 afbd 8406 dd3c

bias f4 [64]
-0.07107682 -0.03576417 0.031159714 0.09394145 -0.0069300975 0.099043906 -0.001461549 -0.014844412
0.075371824 0.020212978 -0.05302193 -0.066790916 -0.069170386 -0.0124646835 -0.049717806 -0.048561554
-0.02152152 -0.020896059 0.028874407 0.050774716 0.038726255 0.09578449 -0.06770609 -0.060340285
-0.020617915 0.013848043 -0.01663556 0.045554735 0.030866979 -0.09738081 0.051507916 0.0849388
-0.035586137 0.0949235 -0.039498195 0.05590687 0.03180165 -0.020933218 -0.10778485 0.07187724
-0.0024164182 -0.029763272 -0.055913538 -0.014594516 -0.02118079 -0.040135972 0.0659581 -0.08647834
0.031959064 -0.023837533 0.06268632 0.012780815 -0.015772196 -0.018743634 0.075620525 0.055282958
0.019420817 -0.08893423 -0.0007895948 0.034324605 0.1107016 -0.13118038 -0.061456796 -0.017472684
00000000: b990 91bd 737d 12bd a842 ff3c 6064 c03d
00000010: df15 e3bb 88d7 ca3d 7291 bfba fa35 73bc
00000020: 8b5c 9a3d b095 a53c 862d 59bd adc9 88bd
00000030: 34a9 8dbd ac38 4cbc e6a4 4bbd 7be8 46bd
00000040: e64d b0bc 362e abbc 058a ec3c 26f9 4f3d
00000050: 6c9f 1e3d a92a c43d 7ea9 8abd 6027 77bd
00000060: e7e6 a8bc e7e2 623c 4c47 88bc 9a97 3a3d
00000070: bfdc fc3c 976f c7bd f7f9 523d 65f4 ad3d
00000080: c5c2 11bd 4167 c23d dcc8 21bd 9afe 643d
00000090: 7242 023d 247c abbc 4ebe dcbd 6034 933d
000000a0: c55c 1ebb 1bd2 f3bc 9805 65bd d61d 6fbc
000000b0: 5683 adbc 9e65 24bd 0a15 873d 8e1b b1bd
000000c0: 82e7 023d ee46 c3bc af61 803d a066 513c
000000d0: b134 81bc 408c 99bc efde 9a3d 6270 623d
000000e0: 6818 9f3c 2623 b6bd cffc 4eba f597 0c3d
000000f0: 85b7 e23d 2654 06be 1fba 7bbd e022 8fbc

weight f4 [32, 64, 3]
0.04333539 -0.03993411 0.017769294 -0.06120775 -0.059964463 0.03344835 0.05802563 -0.071413815
0.046491075 -0.013534254 0.046048854 0.06277523 -0.030974587 0.01913827 0.06230762 -0.0043928344
-0.03160709 0.03300159 -0.064569786 -0.022429075 -0.0130969295 0.06524254 -0.019156892 0.0040461645
-0.029605877 -0.06700076 -0.018827012 -0.022939749 0.04642986 -0.017588614 -0.052128572 0.00028744488
-0.055311657 -0.05657329 -0.0010738019 -0.036374092 0.049827848 -0.018536255 0.09317776 -0.0529462
0.044372886 0.02476767 -0.058425948 0.03994738 -0.06018199 0.01608066 -0.028353786 -0.0126373805
-0.01790584 0.034601897 -0.049443256 0.0526 0.056363106 -0.07071541 0.041140616 0.047004517
-0.05609174 -0.064642444 0.034074236 0.008333039 -0.020249307 0.036589563 0.002054668 0.013897509
0.047933627 -0.05931088 0.052962083 0.038185686 -0.020764252 -0.0019469478 0.02471665 0.060068756
0.051180143 0.035806682 -0.046319705 -0.006274128 0.022715306 0.053076748 -0.03568558 0.034904197
-0.06865226 0.052929085 0.06636426 -0.05790274 0.067457885 0.05558074 -0.056506664 -0.10059261
0.027614685 -0.09016221 0.046169166 -0.048237655 0.06842621 -0.02160592 0.04102558 0.0365969
0.034104105 0.03431762 0.046943974 0.039639104 -0.00035926315 0.053456802 -0.036450554 0.039562456
-0.050228298 -0.073086865 -0.016543383 0.0626851 -0.011640387 -0.01433357 0.037694424 0.04332316
-0.034557037 0.04645949 0.019015105 0.055234686 0.046007875 0.065160826 -0.032607105 -0.06913062
0.025894824 -0.04380061 -0.021809345 0.05452284 0.02049242 -0.033687126 0.059730574 0.026317542
0.06516276 -0.014622473 0.061445355 0.040054724 -0.02776418 0.054890405 0.008926846 0.008524328
-0.041842088 0.022442464 0.005872044 0.09402184 0.047053944 0.054769605 0.06127978 0.05587048
-0.06785453 -0.036229085 -0.03882694 -0.031697586 0.037085474 -0.035540324 0.06809274 0.027195357
-0.04722113 0.00235487 0.03898351 0.02529516 -0.054297205 -0.035855982 0.02876948 -0.006750683
-0.034705583 0.02068946 0.019961966 -0.01936077 -0.075335935 0.0016830728 -0.018868558 -0.046534464
0.038600802 -0.05706083 0.033155944 -0.039541464 -0.02821445 -0.027255 -0.026663886 0.02993588
0.01790452 -0.008639519 0.024027323 -0.04089249 -0.04688283 0.019695979 -0.01711692 0.021194598
-0.037358474 0.024194451 -0.06945689 0.05945338 0.056284092 -0.04315846 0.026103688 -0.022681603
-0.0031997978 0.0019986662 0.08218462 -0.017393744 0.018705746 -0.05729439 -0.025055911 0.040670276
-0.0029373937 0.002965944 0.038427934 0.0001906946 -0.0031684316 -0.06818975 -0.08438878 0.0040823757
-0.00067503774 0.0064377505 0.05445329 0.0284027 0.11381231 0.032572754 -0.01521992 0.04138411
-0.009199616 0.051313132 0.09040569 -0.046255615 -0.07703826 0.0061673466 0.077206545 0.018526668
0.07623093 -0.02092959 -0.030472426 -0.054062787 -0.11909852 -0.12934962 -0.050176803 3.915386e-05
-0.0025468 0.010187572 -0.064589255 0.05680093 -0.041449703 0.010255971 -0.016504806 -0.0051965606
-0.06464313 0.08355525 -0.040641923 0.01679422 -0.08634628 0.030024745 -0.058148827 0.0432411
-0.09543995 0.058099717 0.04158373 -0.06676607 0.053974442 0.121845126 0.079778485 -0.043757092
00000000: 7380 313d f391 23bd e990 913c fab4 7abd
00000010: 4c9d 75bd 2301 093d 48ac 6d3d 6841 92bd
00000020: 6d6d 3e3d c7be 5dbc b99d 3c3d 4d90 803d
00000030: 6bbe fdbc dcc7 9c3c 4636 7f3d c4f1 8fbb
00000040: 7076 01bd ad2c 073d 2a3d 84bd 2ebd b7bc
00000050: 8194 56bc e19d 853d eaee 9cbc b095 843b
00000060: 0688 f2bc b237 89bd 1b3b 9abc 24ec bbbc
00000070: 3d2d 3e3d ff15 90bc c584 55bd 33b4 9639
00000080: 7a8e 62bd 65b9 67bd d0be 8cba 00fd 14bd
00000090: 4918 4c3d 58d9 97bc fbd3 be3d 1dde 58bd
000000a0: 58c0 353d 92e5 ca3c 0c50 6fbd dd9f 233d
000000b0: 6481 76bd 97bb 833c 3346 e8bc 040d 4fbc
000000c0: 45af 92bc b8ba 0d3d 0385 4abd 1973 573d
000000d0: 00dd 663d 3ed3 90bd 1083 283d cf87 403d
000000e0: 74c0 65bd 4263 84bd 6d91 0b3d 4c87 083c
000000f0: e0e1 a5bc f0de 153d 9ca7 063b 61b2 633c
00000100: 0d56 443d f7ef 72bd c5ee 583d 9868 1c3d
00000110: cb19 aabc ba30 ffba 927a ca3c a80a 763d
00000120: 45a2 513d 07aa 123d bbb9 3dbd 3397 cdbb
00000130: 7315 ba3c 0167 593d 0b2b 12bd b4f7 0e3d
00000140: 8e99 8cbd 2bcc 583d fce9 873d 6c2b 6dbd
00000150: 5c27 8a3d a1a8 633d 8873 67bd 8003 cebd
00000160: 3138 e23c f7a6 b8bd e11b 3d3d d994 45bd
00000170: 0a23 8c3d e6fe b0bc 700a 283d a2e6 153d
00000180: bfb0 0b3d a290 0c3d 5348 403d 9d5c 223d
00000190: 7c5b bcb9 85f5 5a3d 2d4d 15bd 3e0c 223d
000001a0: 30bc 4dbd 91ae 95bd fd85 87bc 0c61 803d
000001b0: 52b7 3ebc 5ad7 6abc 7865 1a3d a073 313d
000001c0: ae8b 0dbd 4e4c 3e3d 91c5 9b3c c43d 623d
000001d0: c172 3c3d 0a73 853d 078f 05bd 5b94 8dbd
000001e0: 6221 d43c 4568 33bd 83a9 b2bc 5753 5f3d
000001f0: b8df a73c 83fb 09bd 0ca8 743d e397 d73c
00000200: 0e74 853d 1993 6fbc 20ae 7b3d 6c10 243d
00000210: b571 e3bc c3d4 603d e841 123c 9fa9 0b3c
00000220: 9c62 2bbd 42d9 b73c 466a c03b 868e c03d
00000230: a3bb 403d 1856 603d 8200 7b3d 72d8 643d
00000240: 51f7 8abd f364 14bd ff08 1fbd 54d5 01bd
00000250: f0e6 173d bb92 11bd 3574 8b3d ccc8 de3c
00000260: f26a 41bd 2a54 1a3b 2cad 1f3d cc37 cf3c
00000270: bf66 5ebd b9dd 12bd f9ad eb3c d534 ddbb
00000280: 7127 0ebd f17c a93c 4787 a33c 7a9a 9ebc
00000290: ba49 9abd 8d9a dc3a 3c92 9abc ec9a 3ebd
000002a0: e01b 1e3d 9eb8 69bd 87ce 073d 3bf6 21bd
000002b0: fe21 e7bc e145 dfbc 396e dabc 173c f53c
000002c0: 80ac 923c c58c 0dbc f3d4 c43c e27e 27bd
000002d0: 3608 40bd 7659 a13c c838 8cbc 4ba0 ad3c
000002e0: 3305 19bd 7133 c63c 6a3f 8ebd 6385 733d
000002f0: 268a 663d edc6 30bd 67d7 d53c c5ce b9bc
00000300: b3b3 51bb 0efc 023b 6950 a83d 537d 8ebc
00000310: cb3c 993c 86ad 6abd 0e42 cdbc e095 263d
00000320: 4a81 40bb 4860 423b 9c66 1d3d 31f5 4739
00000330: 76a5 4fbb 11a7 8bbd 06d4 acbd 73c5 853b
00000340: 04f5 30ba c4f3 d23b 6a0a 5f3d c7ac e83c
00000350: 6e16 e93d 026b 053d f95c 79bc 6282 293d
00000360: fcb9 16bc b82d 523d 9e26 b93d 8776 3dbd
00000370: 3cc6 9dbd 7417 ca3b 771e 9e3d 3dc5 973c
00000380: f61e 9c3d 8874 abbc 4fa1 f9bc f170 5dbd
00000390: ede9 f3bd 3a74 04be 3186 4dbd 2339 2438
000003a0: 37e8 26bb c6e9 263c 5f47 84bd 18a8 683d
000003b0: 2ac7 29bd a908 283c 1635 87bc e947 aabb
000003c0: 9e63 84bd 041f ab3d 2578 26bd 0894 893c
000003d0: 52d6 b0bd 74f6 f53c 772d 6ebd 941d 313d
000003e0: 0576 c3bd f8f9 6d3d b453 2a3d a6bc 88bd
000003f0: 4e14 5d3d f089 f93d e762 a33d a33a 33bd

bias f4 [32]
0.056398254 -0.014054217 0.011982173 0.035484675 0.041942444 -0.067031235 0.019938495 0.023213707
0.045279067 0.037321802 -0.05002125 -0.011794879 -0.06535516 0.024803434 0.06512384 0.008595553
-0.06863646 -0.01718224 -0.036081962 0.030991303 -0.004450675 -0.014368267 0.0015213506 0.04786312
0.08549269 -0.0049217707 0.057718504 0.04001552 -0.03389501 -0.016609712 -0.05572907 0.044120673
00000000: db01 673d a943 66bc e050 443c 6158 113d
00000010: d7cb 2b3d ac47 89bd 0e56 a33c ac2a be3c
00000020: 8b76 393d bfde 183d 15e3 4cbd 4f3f 41bc
00000030: edd8 85bd 9230 cb3c a65f 853d 5dd4 0c3c
00000040: 4691 8cbd c5c1 8cbc aeca 13bd 79e1 fd3c
00000050: f8d6 91bb e168 6bbc 0e68 c73a 1e0c 443d
00000060: cb16 af3d ce46 a1bb 3d6a 6c3d 50e7 233d
00000070: 7ed5 0abd 1711 88bc 2a44 64bd e1b7 343d

weight f4 [32, 64]
0.087991126 0.07215786 0.05554557 -0.08253689 -0.0114382785 -0.018638603 -0.085605256 0.07660791
-0.061869964 0.06149279 -0.03651293 -0.0415188 -0.05208562 -0.10966135 0.0759994 0.09406958
0.026924968 0.060819242 -0.05432401 0.18973663 -0.030334996 0.06798824 0.0050459877 0.04440324
0.020216841 0.043043178 0.15252495 -0.16561173 0.10827434 0.002334728 -0.07976138 -0.0487459
0.06944039 -0.048544526 -0.09909799 -0.03654674 0.004003107 0.018889798 0.10456451 -0.08191108
0.062384166 0.060552176 0.0013452853 -0.066183195 0.018760983 -0.029119488 -0.052983407 0.0051644053
-0.008713916 0.14785895 0.062158618 0.05996372 0.065398864 -0.07956505 0.062282592 0.09149496
-0.09606551 -0.0064468216 0.12943582 0.0076253046 -0.07703963 0.017782498 -0.06827423 -0.029600862
-0.07343931 0.027960017 0.053359117 0.08566627 -0.04594588 0.025216259 0.012287402 0.10053199
0.09647654 -0.11197864 0.04512573 -0.08731833 -0.0036813268 -0.0130333975 -0.06041468 0.042461645
0.12419936 -0.036712147 0.050420873 0.2428305 -0.20468804 0.02779647 -0.03597384 0.08842989
0.039702732 -0.054509446 0.019776477 -0.11864436 0.09812837 -0.13208163 -0.1033714 -0.08060966
-0.03810698 -0.059384737 0.027443271 -0.1812476 -0.12568223 0.06570625 -0.026079463 -0.033084653
-0.028098507 -0.0042157387 -0.003975595 -0.09462656 0.051673215 -0.015446471 -0.09147091 0.13826919
0.051028904 -0.006738475 -0.017653273 0.032255508 -0.12130332 0.042508822 0.030402716 0.041640915
0.0125732655 0.072430715 -0.03642858 -0.19323938 -0.09252451 -0.2457305 -0.22949015 0.041426584
0.022930628 0.1402291 0.17241895 -0.06543004 0.10715313 0.12697288 -0.13162456 0.035189386
-0.07627966 -0.04699697 -0.10892149 -0.03599289 -0.14011814 0.02154306 0.10275533 0.04780916
0.16513482 0.048856013 -0.026376193 0.002576969 -0.018297449 -0.013005055 0.035586968 -0.019121263
-0.01683803 -0.18698238 0.038181372 0.06419327 0.042743377 0.14265764 0.1351883 0.12993747
-0.12565906 -0.08989747 -0.12517789 0.068368286 0.13750911 0.1217121 -0.11199478 -0.019296674
0.022921193 -0.10171497 -0.035722543 -0.071328975 0.032799393 -0.01480511 -0.11163892 -0.029117176
0.17450745 0.10128659 0.0539689 -0.056952335 0.09240328 -0.12014451 0.07678191 -0.05333045
-0.118063256 -0.06778752 -0.0830937 -0.04454618 0.0640886 0.09513994 -0.09569032 0.0717002
0.032933522 0.042113435 -0.09973356 0.013599834 0.018358208 0.08358618 -0.09366445 0.05754456
0.009112015 0.021152569 -0.100276284 -0.018124172 0.120389625 0.071216136 -0.16681327 -0.113635875
-0.056427933 0.057788976 0.05129479 -0.23051403 0.15610074 0.036291584 0.008057082 -0.038973793
-0.1267099 0.12526754 0.059841555 -0.058265556 -0.13260786 -0.10183736 -0.03771635 -0.005506654
0.04120063 0.04852782 -0.08092825 0.078486204 0.08064787 0.028693454 -0.14516342 0.03587975
0.08692372 -0.013898983 -0.040828496 0.021596612 0.06454057 -0.07711462 0.0019932513 -0.056782816
0.053992134 -0.0433308 0.030496147 -0.15111329 -0.08317219 0.026411675 -0.027955687 -0.13124529
0.08842254 0.029984785 0.10117566 -0.14245129 -0.0823673 -0.007915837 0.0013529989 -0.12807788
00000000: b134 b43d 80c7 933d c083 633d 1a09 a9bd
00000010: 9e67 3bbc fcaf 98bc cf51 afbd 9ce4 9c3d
00000020: 5c6b 7dbd dddf 7b3d 958e 15bd 9e0f 2abd
00000030: bb57 55bd 2196 e0bd 93a5 9b3d 8da7 c03d
00000040: c091 dc3c 991d 793d da82 5ebd 524a 423e
00000050: 1981 f8bc 6b3d 8b3d d058 a53b 2ce0 353d
00000060: ca9d a53c 0b4e 303d 802f 1c3e 1f96 29be
00000070: f0be dd3d 3c02 193b ef59 a3bd c8a9 47bd
00000080: c336 8e3d a0d6 46bd e3f3 cabd 09b2 15bd
00000090: 7f2c 833b c7be 9a3c eb25 d63d ffc0 a7bd
000000a0: 8a86 7f3d 8f05 783d 4954 b03a 0e8b 87bd
000000b0: a2b0 993c fe8b eebc 2105 59bd 2c3a a93b
000000c0: d0c4 0ebc 5668 173e 099a 7e3d 859c 753d
000000d0: d7ef 853d 00f3 a2bd 081c 7f3d b661 bb3d
000000e0: febd c4bd dc3f d3bb d38a 043e b1dd f93b
000000f0: f4c6 9dbd 9aac 913c 5cd3 8bbd 827d f2bc
00000100: 5967 96bd 680c e53c 178f 5a3d cc71 af3d
00000110: bf31 3cbd 5492 ce3c 1951 493c b7e3 cd3d
00000120: 7e95 c53d 0f55 e5bd c2d5 383d f4d3 b2bd
00000130: 6a42 71bb 088a 55bc 6275 77bd 43ec 2d3d
00000140: 3c5c fe3d 7a5f 16bd 1e86 4e3d 8fa8 783e
00000150: be99 51be 6cb5 e33c 4e59 13bd bb1a b53d
00000160: 559f 223d 4c45 5fbd 4702 a23c d0fb f2bd
00000170: 87f7 c83d 6840 07be 62b4 d3bd ad16 a5bd
00000180: 1116 1cbd 693d 73bd b6d0 e03c f998 39be
00000190: d8b2 00be 0091 863d 99a4 d5bc c683 07bd
000001a0: d72e e6bc 2e24 8abb b545 82bb 92cb c1bd
000001b0: 4ba7 533d 3213 7dbc 1a55 bbbd 7096 0d3e
000001c0: af03 513d 6dce dcbb 999d 90bc 5a1e 043d
000001d0: e06d f8bd bb1d 2e3d 1e0f f93c aa8f 2a3d
000001e0: 1900 4e3c 8e56 943d 2236 15bd 8be0 45be
000001f0: 7e7d bdbd c7a0 7bbe 77ff 6abe ecae 293d
00000200: 03d9 bb3c 3898 0f3e 988e 303e 2f00 86bd
00000210: 1a73 db3d 2e05 023e 97c8 06be bf22 103d
00000220: 8338 9cbd e57f 40bd 3b12 dfbd 486d 13bd
00000230: 217b 0fbe 127b b03c 6371 d23d 8ad3 433d
00000240: 1a19 293e 3e1d 483d e312 d8bc 5ee2 283b
00000250: 88e4 95bc 2713 55bc a4c3 113d 32a4 9cbc
00000260: e9ef 89bc 4f78 3fbe 1264 1c3d c377 833d
00000270: ae13 2f3d d814 123e cd6e 0a3e 540e 053e
00000280: c5ac 00be 2a1c b8bd a22e 00be ac04 8c3d
00000290: 30cf 0c3e 3244 f93d 855d e5bd 0f14 9ebc
000002a0: 3ac5 bb3c f04f d0bd cd51 12bd ed14 92bd
000002b0: a858 063d 2291 72bc f2a2 e4bd 2587 eebc
000002c0: 15b2 323e 586f cf3d 7e0e 5d3d da46 69bd
000002d0: ee3d bd3d 530e f6bd d63f 9d3d 0871 5abd
000002e0: 26cb f1bd 2fd4 8abd 082d aabd 0e76 36bd
000002f0: e240 833d bbd8 c23d 49f9 c3bd 8ed7 923d
00000300: 4de5 063d 237f 2c3d 1c41 ccbd d7d1 5e3c
00000310: f463 963c 3b2f ab3d 26d3 bfbd d8b3 6b3d
00000320: 904a 153c 2748 ad3c a75d cdbd 2579 94bc
00000330: d68e f63d c4d9 913d 19d1 2abe edb9 e8bd
00000340: fa20 67bd 22b4 6c3d 7c1a 523d df0b 6cbe
00000350: dfd8 1f3e 7ca6 143d da01 043c fca2 1fbd
00000360: 3dc0 01be 2246 003e 6b1c 753d dda7 6ebd
00000370: 5bca 07be 1b90 d0bd 767c 1abd 2971 b4bb
00000380: fec1 283d 1bc5 463d b6bd a5bd 60bd a03d
00000390: b62a a53d 890e eb3c b8a5 14be a5f6 123d
000003a0: 1005 b23d 8fb8 63bc c83b 27bd 61eb b03c
000003b0: d92d 843d 45ee 9dbd 35a1 023b 1995 68bd
000003c0: db26 5d3d a37b 31bd 0ed3 f93c 71bd 1abe
000003d0: 2e56 aabd 4c5d d83c 5303 e5bc 2a65 06be
000003e0: e016 b53d a7a2 f53c 2f35 cf3d c0de 11be
000003f0: 30b0 a8bd 6db1 01bc 1c57 b13a d926 03be

bias f4 [32]
0.11921519 0.012084904 -0.053673446 -0.00011041939 -0.00019597988 0.07446581 0.074005336 0.072636284
-0.10766225 0.0042197793 -0.07721523 -0.10878857 0.0023795653 0.012428104 -0.10459649 0.0069043227
-0.054980077 -0.0012766136 -0.10642409 -0.07158808 -0.098302834 0.05494716 -0.11774074 -0.033294346
-0.061007 0.046251446 -0.015057796 0.085246935 -0.1007326 -0.07839163 0.0892476 0.010611953
00000000: 1827 f43d c3ff 453c b0d8 5bbd f590 e7b8
00000010: f37f 4db9 8881 983d 1c90 973d 55c2 943d
00000020: 077e dcbd 1346 8a3b 0523 9ebd 8bcc debd
00000030: 7bf2 1b3b 3f9f 4b3c af36 d6bd a83d e23b
00000040: ca32 61bd 0b54 a7ba e0f4 d9bd c59c 92bd
00000050: ff52 c9bd 4610 613d 0f22 f1bd a75f 08bd
00000060: 7ae2 79bd 2872 3d3d f9b4 76bc f295 ae3d
00000070: e54c cebd ca8b a0bd 72c7 b63d c2dd 2d3c

weight f4 [32, 32]
0.00081415364 -0.084858075 0.010476913 0.09931866 -0.0059301616 -0.09141341 0.16028494 0.0035857363
0.078723386 -0.052230664 0.008508702 0.0440329 -0.15758474 -0.048369203 0.111311235 0.042320278
0.22596705 0.049750414 -0.033877302 0.14905289 -0.20374016 -0.017176596 -0.09836478 0.07044028
0.0056041735 0.019026771 -0.08284201 0.00036160936 -0.08090987 -0.039642658 0.002865699 0.035059698
-0.11624761 0.17786007 -0.1482827 0.13352929 -0.06817461 -0.043554697 0.09934555 0.047915168
-0.10253596 -0.07430381 -0.052418314 -0.09918959 -0.11135726 -0.05891988 -0.009439099 -0.16635273
0.047658544 -0.18533415 -0.19496927 -0.04474614 0.039388478 -0.13702978 0.123043716 -0.11107497
0.170333 0.095312744 0.16998442 -0.07716396 -0.049933214 -0.062805235 -0.0814977 0.055323552
0.10816311 -0.19855787 0.10524151 0.09697544 0.09828998 -0.16921477 0.08871327 -0.078101866
-0.04823125 -0.018881826 -0.074108124 -0.10819929 -0.0759252 -0.1602514 -0.02690171 0.065318845
-0.0319827 0.12893844 0.023730231 -0.04225297 0.01852476 0.11836317 -0.10200345 0.13515376
0.14241585 -0.16936892 -0.22935516 0.017658548 -0.108511046 0.21710357 -0.14467856 -0.15483351
0.043427803 0.07714104 0.11896421 0.102221206 -0.17262697 0.059257925 -0.05192259 -0.043593988
-0.23857902 0.0068917307 -0.0852256 -0.1568322 -0.056300465 0.15106955 0.074370585 0.015096465
0.26970816 0.06625784 -0.10988449 -0.13663079 0.0360737 0.05914954 -0.10735317 -0.14952415
0.12079359 0.14800417 0.041582003 0.16321349 0.059667133 -0.051106762 -0.016365642 0.20748854
0.10628043 0.05260711 -0.20903587 0.19076887 -0.016335825 -0.139563 -0.20277393 -0.09795769
-0.1600265 -0.02740683 -0.1709228 0.02894997 0.0060211015 -0.12908308 0.040766645 -0.057568178
-0.099337906 -0.07878136 -0.12722312 0.116747774 0.15991701 0.0019021775 -0.1764364 -0.22153547
-0.18095785 0.056589212 -0.08389565 0.18394446 0.06736694 -0.12189321 -0.13551258 -0.23514347
0.114926405 0.15477653 -0.1260591 -0.097883955 -0.056700855 0.11624417 -0.11735751 -0.062193807
-0.020757902 -0.13253649 0.15502033 -0.009954815 -0.16019398 -0.07797358 -0.09763308 -0.1741149
0.06146214 0.13105525 0.08922021 -0.06355881 -0.17277387 0.03229573 -0.029158212 -0.14648643
-0.17414528 -0.042804547 0.009324689 -0.067457825 0.100014135 0.0663272 0.06731106 -0.016369957
0.011132412 0.16433816 -0.0491351 -0.17134963 -0.093745336 -0.1080188 -0.18350051 -0.04770792
-0.13494308 -0.012225245 0.015668614 0.05271574 0.10285481 0.09901038 -0.06306684 0.012290495
0.13956048 -0.08650508 0.12781617 -0.00606461 0.07670677 0.09931502 -0.041386995 -0.08859241
0.1270735 -0.13743651 0.070029564 -0.12131936 -0.12400102 -0.08969223 0.0063963984 -0.014952079
0.060621813 0.14435606 0.24374701 -0.04932705 -0.008716527 0.049361784 -0.087438405 -0.19238438
-0.043997128 0.1754576 0.0083404435 -0.074591845 -0.053015277 0.16838343 -0.13729222 -0.032497697
0.14959629 0.031234812 -0.0067196586 -0.07812266 -0.07497732 -0.16377755 -0.012969663 -0.10252696
0.10911922 0.07845386 -0.053025894 0.020980362 0.09887162 -0.07006656 -0.04365987 0.13469695
00000000: ed6c 553a 12ca adbd 5ca7 2b3c 9567 cb3d
00000010: cd51 c2bb f436 bbbd bc21 243e acfe 6a3b
00000020: ba39 a13d d2ef 55bd 1568 0b3c d85b 343d
00000030: e55d 21be c91e 46bd 25f7 e33d 0758 2d3d
00000040: e863 673e 17c7 4b3d edc2 0abd 52a1 183e
00000050: 43a1 50be efb5 8cbc 7973 c9bd fe42 903d
00000060: 37a3 b73b 08de 9b3c 12a9 a9bd 6396 bd39
00000070: 13b4 a5bd 5760 22bd 73ce 3b3b c29a 0f3d
00000080: 3a13 eebd f320 363e 6cd7 17be e7bb 083e
00000090: 219f 8bbd 6966 32bd ae75 cb3d b242 443d
000000a0: 60fe d1bd 992c 98bd 96b4 56bd e923 cbbd
000000b0: 460f e4bd f955 71bd 73a6 1abc 5f58 2abe
000000c0: 9b35 433d 3cc8 3dbe 06a6 47be ba47 37bd
000000d0: d055 213d 8951 0cbe 58fe fb3d 467b e3bd
000000e0: c66b 2e3e 5433 c33d 6510 2e3e 2308 9ebd
000000f0: c586 4cbd 08a0 80bd 44e8 a6bd f39a 623d
00000100: 9f84 dd3d c152 4bbe dc88 d73d 0f9b c63d
00000110: 424c c93d a346 2dbe 4eaf b53d dff3 9fbd
00000120: 228e 45bd 0fae 9abc 00c6 97bd 9797 ddbd
00000130: ac7e 9bbd f118 24be fa60 dcbc e3c5 853d
00000140: 4b00 03bd 7008 043e e765 c23c 7311 2dbd
00000150: 3dc1 973c 6468 f23d 2fe7 d0bd bf65 0a3e
00000160: 76d5 113e 0c6f 2dbe 14dc 6abe a9a8 903c
00000170: 0a3b debd 6650 5e3e 9e26 14be ad8c 1ebe
00000180: 5ae1 313d 1ffc 9d3d 82a3 f33d 5a59 d13d
00000190: 20c5 30be 70b8 723d c8ac 54bd 9c8f 32bd
000001a0: 0f4e 74be 07d4 e13b c28a aebd 9f98 20be
000001b0: 519b 66bd fab1 1a3e 9b4f 983d 2a57 773c
000001c0: 3017 8a3e 31b2 873d 1f0b e1bd f1e8 0bbe
000001d0: 04c2 133d ca46 723d fbdb dbbd dc1c 19be
000001e0: a162 f73d 688e 173e e451 2a3d 7021 273e
000001f0: 8665 743d 5355 51bd 3d11 86bc e077 543e
00000200: 8ea9 d93d 8e7a 573d 800d 56be ea58 433e
00000210: b5d2 85bc 9ae9 0ebe f8a3 4fbe 0b9e c8bd
00000220: fddd 23be 4a84 e0bc 6306 2fbe 7d28 ed3c
00000230: a94c c53b 5b2e 04be edfa 263d 9ccc 6bbd
00000240: ac71 cbbd 1f58 a1bd c746 02be 7519 ef3d
00000250: 49c1 233e 7c52 f93a beab 34be 32da 62be
00000260: 044d 39be 17ca 673d 7cd1 abbd f05b 3c3e
00000270: aef7 893d 26a3 f9bd cfc3 0abe 73c9 70be
00000280: 895e eb3d bd7d 1e3e a315 01be 6277 c8bd
00000290: 283f 68bd 6c11 ee3d 2259 f0bd efbe 7ebd
000002a0: 7a0c aabc a5b7 07be a6bd 1e3e 8519 23bc
000002b0: e409 24be 9db0 9fbd daf3 c7bd 2d4b 32be
000002c0: babf 7b3d 5933 063e 16b9 b63d 1f2b 82bd
000002d0: a2eb 30be 8748 043d 34dd eebc 8a00 16be
000002e0: 2453 32be d253 2fbd 95c6 183c 5427 8abd
000002f0: 36d4 cc3d 8ed6 873d 62da 893d 4a1a 86bc
00000300: b864 363c 4348 283e e341 49bd 4776 2fbe
00000310: 8efd bfbd f638 ddbd 8fe7 3bbe 6169 43bd
00000320: 852e 0abe 654c 48bc 775b 803c 76ec 573d
00000330: 8ba5 d23d f4c5 ca3d 3029 81bd 135e 493c
00000340: f1e8 0e3e 9329 b1bd 3ee2 023e a3b9 c6bb
00000350: 7018 9d3d ac65 cb3d 6985 29bd f06f b5bd
00000360: 8e1f 023e 28bc 0cbe a96b 8f3d 4976 f8bd
00000370: 3ff4 fdbd 8fb0 b7bd e198 d13b 91f9 74bc
00000380: 944e 783d 13d2 133e d198 793e 290b 4abd
00000390: c4cf 0ebc 952f 4a3d e812 b3bd 6900 45be
000003a0: 5536 34bd 28ab 333e 5ba6 083c 9cc3 98bd
000003b0: 8c26 59bd b56c 2c3e 5596 0cbe 4e1c 05bd
000003c0: c52f 193e 26e0 ff3c 9530 dcbb c6fe 9fbd
000003d0: b68d 99bd 4db5 27be b67e 54bc a8f9 d1bd
000003e0: e679 df3d 6bac a03d ae31 59bd 02df ab3c
000003f0: 347d ca3d 0e7f 8fbd b1d4 32bd ffed 093e

bias f4 [32]
0.1071422 -0.13303995 0.094719164 -0.024662253 0.012729414 -0.08849246 -0.090186164 -0.13032658
0.021763735 -0.023679843 -0.101576574 -0.028546073 -0.115650006 0.15287565 0.00966613 0.18118148
-0.10649675 -0.15641114 -0.10647731 -0.12467763 0.025754942 0.10593187 -0.038791828 0.09392589
0.0040815566 0.10440421 -0.01643376 -0.11468371 -0.16834958 -0.015551362 -0.18989359 0.09558151
00000000: 5f6d db3d a03b 08be 1ffc c13d 7e08 cabc
00000010: 088f 503c 893b b5bd 86b3 b8bd 5574 05be
00000020: dc49 b23c 3bfc c1bc 6107 d0bd 74d9 e9bc
00000030: e9d9 ecbd 6f8b 1c3e b05e 1e3c a387 393e
00000040: f81a dabd 3e2a 20be c710 dabd fc56 ffbd
00000050: 07fc d23c cff2 d83d 2ee4 1ebd 385c c03d
00000060: 94be 853b e0d1 d53d 18a0 86bc 4bdf eabd
00000070: d563 2cbe 24cb 7ebc 7773 42be 3dc0 c33d

weight f4 [32, 64]
-0.018168734 0.118501335 -0.0044750576 0.11218812 -0.0370287 -0.11687368 -0.029810775 -0.10527372
0.041577674 -0.13137624 -0.053110857 -0.05253308 -0.0016936725 -0.07102552 0.06098438 0.06739907
0.08637276 -0.057502523 0.043567628 -0.06539092 0.0044629886 -0.09850658 -0.1424761 0.145524
-0.106393695 -0.16949992 -0.04088376 0.13893795 0.035745826 0.025844075 -0.09596652 0.055623204
-0.024359692 0.02758957 -0.08916825 -0.14506903 -0.17029634 -0.0018160634 -0.053730343 0.04566469
-0.0963192 0.07306755 0.08017666 0.09045936 0.13107973 -0.051647693 -0.10589392 0.035008844
0.07119549 0.009304766 -0.045158677 -0.071547024 -0.03381044 0.0830463 0.030117365 0.12890655
-0.111466415 0.06489441 -0.09922337 -0.124351904 -0.077074155 0.10112606 -0.008359005 0.079621434
-0.07647559 0.02808256 -0.15151866 0.035473462 0.06606723 -0.19338234 -0.09501888 -0.028585128
0.011176541 -0.24865685 0.05041633 0.20665184 -0.1434473 -0.13170709 0.10727561 -0.0123833595
-0.031241853 0.08010219 0.11083337 0.119625084 0.041441713 -0.0556494 0.09996904 -0.0013315668
-0.16655636 0.044871684 0.09071197 -0.064915836 -0.07185221 -0.018028777 -0.079555534 -0.0034371796
0.052217837 -0.002131775 -0.02448479 0.062324516 -0.0022517717 -0.035553414 0.13122319 -0.110944405
0.042849403 0.005486511 0.07640513 -0.009317264 -0.059799835 -0.07356254 0.09326884 -0.054868877
0.03643691 0.007209312 -0.079315245 -0.088083506 -0.16177197 0.0391355 -0.07788302 -0.043298822
0.21268408 -0.02784708 0.18156007 -0.009941577 0.07505097 0.08004152 -0.028655011 0.010836923
-0.024245406 0.080745146 0.035999738 -0.053085543 0.024606865 -0.0026361994 -0.10076295 -0.14631785
-0.07514574 -0.033081856 0.11190439 -0.13634735 0.042001802 -0.038073346 0.008791757 0.06193204
0.11170471 -0.052970205 0.11576464 -0.022586295 0.02881177 0.08053836 -0.106795385 -0.0104049705
-0.07631148 0.04903396 -0.030658877 -0.17689267 0.027677473 -0.042437144 -0.10651178 -0.008814347
-0.08930289 0.08482921 -0.103669465 -0.04477219 0.06692222 -0.06375341 0.029037185 0.048943125
0.0024374516 -0.0100397775 0.00013138438 -0.028299667 -0.075914934 -0.024873981 0.035789154 0.03074494
0.11973485 -0.025701981 0.08008005 -0.093204625 0.038815558 -0.06960938 0.10596582 0.12904747
-0.042652804 0.071064994 0.09605328 -0.01816042 -0.04626147 0.10046663 -0.13649434 0.031037647
-0.083984576 0.034871485 -0.0058826813 0.055478178 -0.0033069304 0.009526144 -0.056462325 0.111731775
-0.15146491 -0.026125245 -0.004036699 -0.027680844 0.20524214 -0.05180779 -0.08656426 0.057435088
0.03621627 -0.04967609 0.022574857 -0.05008486 0.027206145 0.06322764 0.030682983 -0.0029840134
0.14833722 0.046779633 0.13238588 0.02846518 0.15605684 0.06692319 0.027652869 -0.06637791
0.08598233 -0.11542648 0.022344522 0.0054098205 0.12202665 0.12790672 0.049425665 -0.0044270027
0.1026288 0.037112076 0.07093918 0.045655962 -0.103914715 -0.0078057298 0.013487045 0.10605725
-0.03689531 0.06004646 -0.05461101 -0.11640973 0.003867587 -0.057124708 0.10986509 -0.051533796
0.18677747 -0.0028040933 0.15310436 -0.06342139 0.13197234 0.04920373 0.033264082 0.066368654
00000000: 99d6 94bc d4b0 f23d 81a3 92bb e3c2 e53d
00000010: 68ab 17bd 785b efbd ba35 f4bc c099 d7bd
00000020: 5a4d 2a3d 7e87 06be c58a 59bd ed2c 57bd
00000030: 38fe ddba d475 91bd c2ca 793d 8608 8a3d
00000040: 34e4 b03d c487 6bbd f873 323d adeb 85bd
00000050: 433e 923b d1bd c9bd 41e5 11be 3e04 153e
00000060: f0e4 d9bd 6391 2dbe bb75 27bd c045 0e3e
00000070: 376a 123d f4b6 d33c 188a c4bd 28d5 633d
00000080: fa8d c7bc 8603 e23c d89d b6bd fa8c 14be
00000090: 2a62 2ebe fa08 eeba 5914 5cbd e60a 3b3d
000000a0: 0043 c5bd 71a4 953d a933 a43d c242 b93d
000000b0: c439 063e 888c 53bd e9de d8bd 6f65 0f3d
000000c0: f1ce 913d 0473 183c 4ef8 38bd 3f87 92bd
000000d0: d17c 0abd 2e14 aa3d b1b8 f63c 1400 043e
000000e0: 8148 e4bd 5ce7 843d 9f35 cbbd 36ac febd
000000f0: 0ed9 9dbd 2e1b cf3d 35f4 08bc 9010 a33d
00000100: 3c9f 9cbd 660d e63c b527 1bbe 9f4c 113d
00000110: 424e 873d 0506 46be 4299 c2bd 5c2b eabc
00000120: d01d 373c e79f 7ebe 5b81 4e3d 8a9c 533e
00000130: d9e3 12be 39de 06be 51b3 db3d 93e3 4abc
00000140: eaee ffbc 9e0c a43d 9bfc e23d fffd f43d
00000150: c9be 293d a0f0 63bd 91bc cc3d f887 aeba
00000160: c08d 2abe 5fcb 373d 33c7 b93d 98f2 84bd
00000170: 4027 93bd 16b1 93bc 03ee a2bd 4e42 61bb
00000180: 5fe2 553d 40b5 0bbb 5494 c8bc fe47 7f3d
00000190: 7692 13bb 75a0 11bd 5f5f 063e d236 e3bd
000001a0: db82 2f3d 31c8 b33b 4b7a 9c3d 70a7 18bc
000001b0: acf0 74bd f5a7 96bd bc03 bf3d 30be 60bd
000001c0: df3e 153d 183c ec3b 0870 a2bd 2065 b4bd
000001d0: 8da7 25be 8c4c 203d 2281 9fbd 1b5a 31bd
000001e0: dbc9 593e 8f1f e4bc e2ea 393e ffe1 22bc
000001f0: 53b4 993d cfec a33d eabd eabc 598d 313c
00000200: 4d9e c6bc b65d a53d 7674 133d 3a70 59bd
00000210: 5694 c93c 16c4 2cbb ce5c cebd 59d4 15be
00000220: 02e6 99bd d780 07bd 212e e53d a49e 0bbe
00000230: 150a 2c3d ccf2 1bbd 4d0b 103c 73ac 7d3d
00000240: 70c5 e43d 49f7 58bd 0316 ed3d e506 b9bc
00000250: a906 ec3c 4cf1 a43d 8ab7 dabd 9c79 2abc
00000260: 3149 9cbd d5d7 483d 5328 fbbc 5a23 35be
00000270: debb e23c 92d2 2dbd d922 dabd 0d6a 10bc
00000280: 6fe4 b6bd f0ba ad3d a850 d4bd 0b63 37bd
00000290: 840e 893d 2691 82bd 64df ed3c 9678 483d
000002a0: a7bd 1f3b e17d 24bc 3ac4 0939 b4d4 e7bc
000002b0: 4a79 9bbd 85c4 cbbc a697 123d d0dc fb3c
000002c0: 8c37 f53d f68c d2bc 0201 a43d 11e2 bebd
000002d0: 10fd 1e3d 5d8f 8ebd 9c04 d93d 0525 043e
000002e0: b5b4 2ebd 868a 913d 95b7 c43d 29c5 94bc
000002f0: ab7c 3dbd 73c1 cd3d 2cc5 0bbe aa42 fe3c
00000300: 1b00 acbd 67d5 0e3d 82c3 c0bb 163d 633d
00000310: 16b9 58bb 8b13 1c3c 0a45 67bd a1d3 e43d
00000320: 9e19 1bbe 9c04 d6bc 4946 84bb f0c2 e2bc
00000330: ff2a 523e 6834 54bd 9a48 b1bd 0e41 6b3d
00000340: 8357 143d 2879 4bbd e8ee b83c c825 4dbd
00000350: 6cdf de3c 7e7d 813d e15a fb3c 708f 43bb
00000360: b6e5 173e 009c 3f3d 2a90 073e cf2f e93c
00000370: 5dcd 1f3e 070f 893d 4588 e23c 24f1 87bd
00000380: 8117 b03d b864 ecbd dc0b b73c dd44 b13b
00000390: 1ce9 f93d fbf9 023e 9172 4a3d 6410 91bb
000003a0: 0c2f d23d d502 183d 9048 913d bf01 3b3d
000003b0: 3dd1 d4bd 35c7 ffbb c4f8 5c3c 8b34 d93d
000003c0: 891f 17bd 47f3 753d cbaf 5fbd 3968 eebd
000003d0: 5877 7d3b 99fb 69bd f300 e13d 1a15 53bd
000003e0: 9842 3f3e e1c4 37bb 64c7 1c3e 13e3 81bd
000003f0: c223 073e da89 493d eb3f 083d 4aec 873d

bias f4 [32]
0.0933798 -0.017847456 -0.010693061 0.090353414 0.13128673 -0.1967389 -0.052736834 -0.036339555
-0.07429073 -0.01904233 -0.00950307 0.067733854 0.08014431 -0.052063648 0.06901127 -0.101581566
-0.07539883 0.07336599 0.0036674424 0.056810576 -0.04536098 0.0015279936 0.07556766 -0.09942296
0.0955981 -0.004533975 -0.1038515 -0.01822953 0.07750722 -0.00030685085 0.14904484 0.021769114
00000000: e93d bf3d d434 92bc f331 2fbc 360b b93d
00000010: 0770 063e ec75 49be 9402 58bd c9d8 14bd
00000020: bd25 98bd a9fe 9bbc c4b2 1bbc 0cb8 8a3d
00000030: b322 a43d b140 55bd c855 8d3d ff09 d0bd
00000040: b46a 9abd e840 963d 7959 703b 35b2 683d
00000050: 6fcc 39bd f546 c83a 38c3 9a3d 449e cbbd
00000060: f0c8 c33d bd91 94bb 18b0 d4bd 1856 95bc
00000070: 1bbc 9e3d d3e0 a0b9 369f 183e 2455 b23c

weight f4 [6, 32]
0.027395368 -0.14471936 0.019625183 0.09682623 0.0684589 0.038710516 -0.0038641673 -0.075310364
-0.14398704 -0.15692344 6.648122e-05 0.022029255 0.011056169 0.100119784 0.07095484 -0.16252826
0.09382138 0.04454788 0.023300253 -0.11961869 -0.033472683 0.07167488 -0.05870136 0.116799206
-0.113314696 0.010046722 -0.1591008 0.023862131 0.12411621 0.09182856 0.0776715 0.023999127
0.090773955 0.06710489 -0.10092279 0.022927633 0.08283305 -0.018309683 0.050697353 0.026073994
0.0031075098 -0.07992267 -0.057002943 -0.123210736 -0.057188272 0.0900036 0.03819343 -0.06733506
-0.010469022 -0.113675356 0.026596569 0.00036978663 0.030572759 0.0631691 -0.014969051 0.057640973
0.0014432753 0.06621307 -0.08534025 0.0823035 -0.10487417 -0.040650714 0.12585676 -0.0036111986
-0.017839123 -0.0986704 -0.071806 -0.13322477 0.034017745 0.15876438 0.10171098 0.018256718
-0.04104985 -0.068698384 0.017126206 -0.051210746 0.014104046 -0.16932185 -0.040798515 0.08685432
0.03225612 0.089538254 0.046716046 0.10230066 0.039409447 0.04651603 -0.046611518 0.024184141
-0.09776652 -0.082920514 0.013138073 0.15031958 -0.023448402 -0.10875215 -0.024261462 -0.06012829
-0.043948084 -0.049873367 -0.06693212 0.038861915 0.03849165 0.11850887 0.058179364 0.038018547
0.06991888 -0.11548017 -0.0476033 0.09318988 -0.029155798 -0.087338515 -0.12184376 0.083216935
-0.01745357 -0.028380783 0.058744363 -0.023914129 -0.055037588 0.05128871 -0.046137605 -0.00097205356
0.0039214576 -0.039486412 0.062014222 0.081322156 0.019191878 -0.05511088 -0.048286796 0.038136255
0.09805821 -0.12364342 0.14102557 -0.068852976 0.17635393 -0.17923832 -0.09487668 0.10655439
0.10474481 0.14810148 -0.13826945 -0.022747163 0.24688156 -0.047906138 0.15593077 -0.0161966
-0.08644592 0.045301054 0.23611788 -0.083391376 0.13119164 0.1500374 -0.21392465 0.13000602
-0.021704258 0.10437158 0.00020468944 -0.008281584 -0.019284306 0.06565439 0.06330891 -0.10810718
-0.040628467 -0.0034019414 -0.04498723 0.122389324 0.011511899 -0.019321239 0.07190639 0.077125095
0.008352715 -0.13464937 -0.013634229 0.011581602 0.04594981 -0.004593029 0.058963258 0.01433356
-0.015373246 0.0030792777 0.0017854237 -0.06689739 0.04478212 0.014036236 -0.0034437685 -0.052179955
0.0017263428 -0.013815401 -0.073580444 0.012550183 0.017395152 -0.027386906 0.117010124 0.027571604
00000000: 406c e03c 5031 14be fec4 a03c d54c c63d
00000010: 2e34 8c3d eb8e 1e3d f83d 7dbb 523c 9abd
00000020: 5771 13be 8ab0 20be d56b 8b38 b276 b43c
00000030: ef24 353c 9a0b cd3d c550 913d cf6d 26be
00000040: 6c25 c03d d677 363d 2ce0 be3c a5fa f4bd
00000050: a71a 09bd 48ca 923d d670 70bd 6c34 ef3d
00000060: 8911 e8bd 029b 243c 52eb 22be 847a c33c
00000070: a430 fe3d 9d10 bc3d 3c12 9f3d d199 c43c
00000080: b2e7 b93d 4a6e 893d 9cb0 cebd bbd2 bb3c
00000090: 60a4 a93d 30fe 95bc 07a8 4f3d 2199 d53c
000000a0: 5da7 4b3b 7fae a3bd eb7b 69bd e955 fcbd
000000b0: 403e 6abd cf53 b83d b770 1c3d f7e6 89bd
000000c0: 4386 2bbc a0ce e8bd 0ce1 d93c ecdf c139
000000d0: b973 fa3c cd5e 813d c040 75bc f118 6c3d
000000e0: 482c bd3a b89a 873d dec6 aebd bd8e a83d
000000f0: 45c8 d6bd 5d81 26bd 98e0 003e dca9 6cbb
00000100: 5a23 92bc b513 cabd 060f 93bd 136c 08be
00000110: 3156 0b3d 2193 223e d94d d03d 1d8f 953c
00000120: e323 28bd bdb1 8cbd 424c 8c3c 5cc2 51bd
00000130: a814 673c b562 2dbe 581c 27bd ade0 b13d
00000140: fe1e 043d d55f b73d 5359 3f3d 0283 d13d
00000150: cd6b 213d 9887 3e3d b8eb 3ebd d21d c63c
00000160: d039 c8bd 3bd2 a9bd 1241 573c 60ed 193e
00000170: dd16 c0bc 72b9 debd f9bf c6bc 1549 76bd
00000180: e802 34bd 0448 4cbd b513 89bd ac2d 1f3d
00000190: 6ca9 1d3d c7b4 f23d 7c4d 6e3d 56b9 1b3d
000001a0: a131 8f3d de80 ecbd aefb 42bd 56da be3d
000001b0: 24d8 eebc 89de b2bd 3989 f9bd a46d aa3d
000001c0: cafa 8ebc d17e e8bc ee9d 703d 90e7 c3bc
000001d0: 186f 61bd 1c14 523d c9fa 3cbd 69d1 7eba
000001e0: 927f 803b 81bc 21bd a002 7e3d 3b8c a63d
000001f0: 4938 9d3c f2bb 61bd 60c8 45bd c334 1c3d
00000200: bed2 c83d c338 fdbd 0269 103e ca02 8dbd
00000210: 2096 343e 408a 37be b44e c2bd 3039 da3d
00000220: 7284 d63d eaa7 173e 8296 0dbe 4258 babc
00000230: 85ce 7c3e 3a39 44bd 51ac 1f3e bbae 84bc
00000240: 8f0a b1bd 998d 393d e3c8 713e 19c9 aabd
00000250: 1a57 063e 67a3 193e 100f 5bbe 4c20 053e
00000260: 21cd b1bc c4c0 d53d e7a1 5639 7baf 07bc
00000270: 1ffa 9dbc cf75 863d 1aa8 813d 4c67 ddbd
00000280: 096a 26bd 1bf3 5ebb 8844 38bd 41a7 fa3d
00000290: 679c 3c3c 9347 9ebc a843 933d c3f3 9d3d
000002a0: d3d9 083c 86e1 09be 1a62 5fbc c2c0 3d3c
000002b0: de35 3c3d 1f81 96bb 7583 713d 4fd7 6a3c
000002c0: 11e0 7bbc b5cd 493b e104 ea3a 8001 89bd
000002d0: 756d 373d 3ef8 653c d9b0 61bb a6ba 55bd
000002e0: 7446 e23a fe59 62bc 58b1 96bd 489f 4d3c
000002f0: 4780 8e3c 815a e0bc 01a3 ef3d d8dd e13c

bias f4 [6]
-0.020669822 -0.021319238 0.058542274 0.065562285 -0.1047285 -0.040109374
00000000: c253 a9bc afa5 aebc 06ca 6f3d 8545 863d
00000010: e57b d6bd ba49 24bd
