SwarmNet - PyTorch/models/model_10_step_polar_more_training.pkl (torch, 80187 bytes, 14 tensors)

weight f4 [32, 7, 3]
00000000: 9fa2 673a d416 263e abf0 373e 1e4d 143e
00000010: 6d9e 0f3e 03cd 0dbd 3e2d 7dbd 04aa 2b3e
00000020: fcff 14bc f739 263e aed6 cb3d 6fac 11bd
00000030: 5a50 ff3d 7b1d 4bbd 367a b03d 8031 593b
00000040: fdb8 54be bf2d 59bd 3395 403e b0e9 4cbd
00000050: 43c3 ad3d 7676 3ebe ae09 bcbd 1370 313e
00000060: b89c a23d d6dc 3c3d d900 b93d 96c4 133e
00000070: abe4 4cbe f200 51be 2024 673e b23f 783d
00000080: 8ba5 fabd f3dd 493e 230c 9dbb 929c 303e
00000090: 3110 17be 8f85 1fbe b0d3 393d 5032 1b3e
000000a0: 799a 2cbe 6587 08be 25bb fa3d a836 54be
000000b0: f1ea 083e 852d c2bc a4dd b4bd 2f85 afbd
000000c0: d2d6 68bc 5ba1 00be c6fd 1bbd 5f31 50be
000000d0: 5028 023e 73d2 4dbe d505 afbd 48c8 84bd
000000e0: 2fe8 123e 13a1 5c3d 6563 debd d3ab 913e
000000f0: fc2f afbd 58d7 183e 0f9e 80bd 782c 1cbe
00000100: 68f7 12bd 1f34 e7bc 2426 39be 7b64 953d
00000110: f77b 5dbe 4d03 003c c937 19be b65a 5f3d
00000120: a749 083e 2344 a3bd b7e8 18bd 00cb ff3d
00000130: b876 003e 7ffe f43b 8eb0 4f3d 92c5 c03d
00000140: 6d56 28bd fa10 61bd 5bae 0cbd ecb1 0c3e
00000150: fa2a 823d aca7 debd c42c f9bc 9210 303e
00000160: b7f0 88bc be53 513e 5459 363e 46e9 673d
00000170: 111a c1bc 7bec ef3d 4207 43bd 6d4f b7bc
00000180: a84e 153c 25da 37bd 1c94 4a3e 8677 353e
00000190: d7be 2ebe 4539 1fbd d724 95bc 7334 4bbe
000001a0: be51 15bd 4d6a c03d df24 d93d e339 10bd
000001b0: e371 bfbd 88ab 17be 4e3c b7bc d530 d93d
000001c0: dd03 103e ac34 463e c2ff 1ebd a1ad 213e
000001d0: e58c 2c3e 3e8c 9d3d cf0c bcbd cba5 b83d
000001e0: 7203 17be 4802 59be 9b74 3ebe 5431 f4bd
000001f0: 8e24 8d3c 9229 7a3a ff1b 07be a7f7 053d
00000200: 79d0 36be 38bb f03d 1875 463d 41db 443d
00000210: adfa a2bd 2c81 6bbd 6609 463e e8bb 26be
00000220: f3ee 4c3e 6050 d33d fb67 bebd 7206 ecbd
00000230: 5abf 6fbe 590b b53d be48 0d3e b531 213e
00000240: fc4f 523d a6d1 2ebc c7e0 a8bd 22fa 45be
00000250: 9c31 aebc 4a23 27bd e0f6 273e 83ed 13be
00000260: c03b e23c bec4 173e 7ea1 babd c125 c43d
00000270: 5c1a 4dbc 4ac8 bd3c dc49 ba3d 7635 53be
00000280: e228 63be 8b6b 0d3d 0e2f 22be f65d 07be
00000290: 0a45 513d 2736 2d3d c72c 573e a865 1abe
000002a0: 8f3a b5bd b842 0d3e f60f 40be 6049 ce3c
000002b0: 8230 05be 52ae 113e 71f8 db3d 3d4e 893d
000002c0: 2974 2f3e b8d3 c5bd a6a3 953c 2b77 77be
000002d0: 7fa0 e33d fc18 b2bd 082a 8a3d 16c4 29bc
000002e0: dac8 033e 5a0e cc3a 75c0 9cbd b524 56be
000002f0: 3025 a33d 17f0 f6bd 4e08 2abe 5bae c7bd
00000300: f83d bebc 6b06 4ebd 82db b6bd f3c8 d63c
00000310: 7331 5f3c d67f 553e b1bf 853d 5eb2 893d
00000320: c711 5e3e e5c9 103d 04cb 07be 7cef 8abd
00000330: 901b 583c 03af 26be 0983 98bc fed3 0dbe
00000340: 4bf1 933d 410e 663e b3d9 703d 0f48 1dbe
00000350: 50cd 4a3e 66e8 4d3e 5174 0e3e 08c4 933d
00000360: c24e 933d bbf2 0d3d 96f2 84bd 7d2a 723c
00000370: f264 de3c 94dc cabd ad40 7fbd f11f 86bd
00000380: 8035 113e 9f47 40ba 09ca 33be 8ab3 ec3c
00000390: c5f6 693d 5cc6 273d 8d71 56be c808 903d
000003a0: f4f2 5e3d 557f b23b 8859 b73c ac60 3d3e
000003b0: 0566 5f3c 5525 043e b07b 9a3b 1a39 c9bd
000003c0: c10a 5e3e 1caf ae3d 4c40 48bd 9408 343e
000003d0: c80d 6fbe 383c bcbd 30c5 cf3c ab28 453e
000003e0: 023b 00be 01cb 3ebe a2d8 4bbe 3a23 01be
000003f0: 5e17 483d 9915 473e defa 58be a0a1 14be
0.0008836183 0.16219646 0.17962901 0.14482543 0.14025278 -0.034619343 -0.061810724 0.16764075
-0.009094235 0.1623305 0.09953056 -0.035564836 0.12466498 -0.04958866 0.0861706 0.0033141077
-0.20773692 -0.053022142 0.18806915 -0.05002755 0.08484509 -0.18599877 -0.09181534 0.17327909
0.07940048 0.046109043 0.09033365 0.1443046 -0.20009105 -0.20410517 0.22572374 0.06060762
-0.12238606 0.19713573 -0.0047927066 0.17247227 -0.1475227 -0.15578292 0.045367897 0.15155911
-0.16855802 -0.13332899 0.12242726 -0.20723975 0.13370873 -0.023703346 -0.08831337 -0.08570325
-0.014211373 -0.12561552 -0.038083814 -0.20331334 0.1271069 -0.20099811 -0.08546034 -0.06483513
0.14346384 0.05386455 -0.10858802 0.28451404 -0.08554074 0.14925897 -0.06280147 -0.15251338
-0.035880476 -0.028223095 -0.18080956 0.07294556 -0.2162932 0.007813287 -0.14962687 0.054529868
0.13309346 -0.079719804 -0.03733131 0.12489891 0.12545288 0.0074766274 0.050705485 0.094126835
-0.041098047 -0.05494783 -0.034345966 0.13739747 0.063558534 -0.108718246 -0.030416854 0.17193821
-0.016716344 0.20442101 0.17807513 0.05661895 -0.023572 0.11715027 -0.047614343 -0.02237674
0.009112991 -0.044885773 0.19783062 0.17721376 -0.17064987 -0.038872976 -0.018206043 -0.19844227
-0.03645491 0.09395275 0.10602736 -0.035211455 -0.09347894 -0.14811528 -0.022367623 0.10605017
0.14063974 0.1935603 -0.03881813 0.1578889 0.16850622 0.07692765 -0.091821305 0.090159975
-0.14747408 -0.21192276 -0.18599169 -0.11923471 0.017229345 0.00095429376 -0.13194273 0.032706883
-0.17852964 0.11754459 0.048451513 0.04806066 -0.07957969 -0.057496235 0.19339523 -0.16282618
0.20013027 0.10318065 -0.092971765 -0.11524667 -0.23412839 0.08840055 0.1379728 0.15741618
0.05134581 -0.010670101 -0.08245998 -0.193337 -0.02126389 -0.04080514 0.16402769 -0.14446072
0.027616382 0.14821145 -0.091128334 0.095775135 -0.012518492 0.023166794 0.09096119 -0.20625862
-0.22183564 0.03452639 -0.15838262 -0.13219437 0.05109123 0.04228797 0.21013175 -0.15077841
-0.0884906 0.13794982 -0.18756089 0.025181472 -0.13006786 0.14226654 0.10740746 0.06704376
0.17134155 -0.09659523 0.01826651 -0.24166553 0.111145966 -0.08696172 0.06746298 -0.010361692
0.12869588 0.0015568242 -0.07653896 -0.2091244 0.07966077 -0.12057512 -0.1660473 -0.097500525
-0.023222908 -0.05029909 -0.089285865 0.026218867 0.013622629 0.20849547 0.06530703 0.06723474
0.21686469 0.03534879 -0.13261038 -0.06783959 0.013190165 -0.16277699 -0.01861717 -0.138504
0.07223757 0.22466375 0.058801364 -0.1535952 0.19804883 0.20108184 0.13911559 0.07215124
0.07192756 0.034655314 -0.06491582 0.014780638 0.027147744 -0.09905353 -0.06231754 -0.06549061
0.14180565 -0.0007334891 -0.17557539 0.028894205 0.057120103 0.040960655 -0.20941754 0.07032925
0.054430917 0.005447308 0.022381559 0.18493909 0.013635163 0.12904866 0.0047144517 -0.098253444
0.2168379 0.08529493 -0.048889443 0.17581397 -0.23345101 -0.09191173 0.025362581 0.19253795
-0.1252251 -0.18632127 -0.19906858 -0.12611094 0.04885041 0.19441833 -0.21189448 -0.1451478

bias f4 [32]
00000000: 29a6 61bd a91a d7bc a9a0 203c 2c90 9cbd
00000010: a423 103d 6654 d33d 706f 0e3e 4c82 c93d
00000020: 68a0 4e3e 4136 fdbd bf3b 7f3b c82c bd3d
00000030: b237 3e3b 82b8 56bd e313 003e 6fcd dfbc
00000040: 3ad8 42be 00a6 973c e702 673d 4f30 483e
00000050: 7f84 703d 02cd 1a3e ccda 3d3e 3438 6b3d
00000060: 8caa d8bd c38e 3abe 0bce f23d 39a0 49be
00000070: b6a0 763d 620e 35be 0528 2abe b95a 303d
-0.055090103 -0.02625783 0.009803929 -0.07644686 0.03519024 0.10318832 0.13909698 0.09839305
0.20178378 -0.12363864 0.0038945524 0.09237057 0.0029024896 -0.052422054 0.12507586 -0.027319638
-0.19027796 0.018511772 0.056399252 0.19549678 0.058720108 0.15117267 0.18540496 0.057426646
-0.10579404 -0.18218522 0.11855706 -0.19690026 0.06021186 -0.17681268 -0.16616829 0.04305527

weight f4 [64, 32, 3]
00000000: 5ace 90bc 3837 f93b 7b85 55bc 5814 033c
00000010: d9ae 873d e91f 613d 8d8c c03c 1133 883d
00000020: a124 703d e5f7 8c3d b14c f63c 2d9d ad3d
00000030: ea25 68bd fc83 80bd e327 083d b29f fdbc
00000040: c7af 63bc ac33 273d d527 38bd 62c2 b73d
00000050: 4f2a adbc a00a c4bd 315f adb8 c7e9 533d
00000060: e66b c63d ae1b c0bd c0ae af3d 0524 7e3d
00000070: c3ac 69bd 4b0d 2e3d 7378 c13d 9609 a4bd
00000080: 926d 813c d426 af3c e959 90bd bab0 8a3d
00000090: 37a3 5f3c dd9f 1a3d 8644 143d 2b62 d7bd
000000a0: 817a 973b 8f2b adbd d4f1 f5bb c6d2 a8bd
000000b0: 9f77 be3d ecc5 b3bd acc9 95bc 2a99 1b3d
000000c0: 5619 aebc 4282 1f3d 5760 88bd a3bc 963d
000000d0: d839 83bd a7bc bfbd 19a4 c5bb ac33 f03c
000000e0: 4ca8 9e3d cc21 b13d 4184 babd 3ed9 a2bd
000000f0: c5f5 aebd 768a 833d f2e0 84bd c879 a6bd
00000100: 8dbd 5ebd 57e0 9b3d 10f5 1b3d ad81 0b3d
00000110: c38e 42bd 0796 b7bd 54ef 9bbd 6ecb 933d
00000120: 2877 8fbd c6c6 85bd 0140 0b3d b050 20bd
00000130: 1fdb c8bd ca03 9dbd 9696 a33d e9ae ae3d
00000140: 598d a5bc fa22 4cbc eabf 3ebd d8c8 013d
00000150: 8f13 41bd cb3f c2bd 7d80 aebd a7c5 4c3d
00000160: 9c16 a33d 92ef 95bc 9407 f8bc 2d60 9f3d
00000170: 5c91 47bc 5618 a43d 3a00 74bd 20e0 563a
00000180: 975e 343c 5032 94bc c90e 4b3d 8f42 d53b
00000190: 03cc c0bd 595c d9bd 7ea2 b03d fc2a 87bd
000001a0: d096 d53c 3535 f43c ef2c 7ab9 565c 973c
000001b0: 8670 94bd 9f10 9bbc e6b6 ba3d 074b 9bbd
000001c0: 209a 3b3d e49e 1abc fe42 9f3d 9653 023c
000001d0: 352f 813c 8fd0 ba3a de58 903d c977 6a3d
000001e0: 5689 bc3d 9749 19bd 9d51 75bd fe00 173d
000001f0: cf0d d1bc f9d4 d1bc ffbf e1bb 7e46 b33d
00000200: 7d0d 383d c5cf b93d 4928 6fbd 0ee7 42bb
00000210: 9092 99bc 5f43 63bb 9b23 7fbb 05ee d7bb
00000220: 6613 96bd 18da e1bd 3593 0fbd 0bb6 52bc
00000230: 346b 4fbd 17fa 92bd 44ce 483c edf0 97bd
00000240: 987a 8abc cc50 91bc 9720 53bd 6627 5bbd
00000250: 22aa a7bd b42c fabc 5d6b 973d eb0c e63c
00000260: 426b b73d f0e2 54bd a6b0 45bd 3391 7c3b
00000270: 9c21 343d 52ff 1abc 3971 363a 6c36 58bd
00000280: dcaa d63d 97bb 6c3d e79a b23d 6e5f 463c
00000290: 69fa 93bd 51d6 813d fb61 d63c 135d adba
000002a0: 6c2b 5a3d d53d 4c3d 9a63 adbd c175 013d
000002b0: 5556 c4bd 8998 39bd 2761 433c 304e ce3d
000002c0: de4e 9fbd f774 033d 73fb 083d 0cae 873d
000002d0: 7716 bebd bf9c 983c aa5e 603d 7b4e 6a3d
000002e0: a7e2 803d 42d0 a23d 1b1e b03d 5c2a 55bd
000002f0: bd98 c0bd d89a acbc 1e02 66bd 7a0c 133d
00000300: 0b86 98bc 04cd 7fbd f689 883b 90ec 063d
00000310: 26ea 14bc c58a a43a c962 86bc 1a16 6a3d
00000320: 4cb4 b4bd 38d6 cfbd 8429 083d a83f 433d
00000330: 365a 37bd a9fc abbd c0c6 803d ac90 b0bd
00000340: d5f8 30bc 1f3e 1c3c e556 b73d e2db 72bd
00000350: 3169 8a3d a5c3 6dbc bb92 b1bd 8962 84bd
00000360: b113 ee3c 2271 0c3d 8ee6 83bc 45df 0d3d
00000370: 49a6 ab3d 1fe9 893c 85e3 293d e8cb 5cbc
00000380: fe77 b93d fe41 86bc a215 9bbd ea75 d93c
00000390: 4a88 3bbd 8184 60bd 17d2 86bd b080 58bd
000003a0: ad0c 133d c826 9f3d dfdd 94bd 9ab0 8b3d
000003b0: 8551 b23c cf7c c4bc f993 19bd 2264 003d
000003c0: c622 d43c 9287 e7bc fcfa 22bd af8c 2f3c
000003d0: 80f8 a93d 8aa9 733d 7c44 7bbd f619 4e3c
000003e0: 25b7 8cbb 9f7c 3d3d 7ae8 68bd 5b19 a9bd
000003f0: 6a48 623d 1771 3e3b 8ab0 273d c001 853b
-0.017676521 0.0076054595 -0.0130323125 0.008000456 0.066251464 0.054962073 0.02350452 0.06650365
0.058628682 0.0688322 0.030065866 0.084772445 -0.056676783 -0.06275174 0.033241164 -0.030959938
-0.013896889 0.040820763 -0.04495986 0.089726225 -0.021138338 -0.09572339 -8.2670136e-05 0.05173662
0.09688549 -0.093802795 0.08578253 0.06204607 -0.057049524 0.042493146 0.09446802 -0.08009641
0.015799318 0.02138082 -0.07048399 0.06771989 0.013649753 0.037750114 0.03619816 -0.10516771
0.004622758 -0.08455574 -0.007505635 -0.08243327 0.0930016 -0.08777985 -0.018284641 0.037987866
-0.021252315 0.038942583 -0.06659 0.07360198 -0.06407517 -0.093621545 -0.006031525 0.029321514
0.07746944 0.08649024 -0.09107257 -0.07951592 -0.085429706 0.06422894 -0.064882174 -0.08128697
-0.05437999 0.07611149 0.038075507 0.034059215 -0.04749943 -0.08964162 -0.076140076 0.072165355
-0.07005149 -0.06532054 0.033996586 -0.03913945 -0.09807419 -0.07666738 0.07987706 0.08529455
-0.020209001 -0.012459511 -0.046569742 0.03168568 -0.047137793 -0.09484824 -0.08520601 0.049993183
0.07963297 -0.018302713 -0.030277051 0.07782016 -0.0121806525 0.08012454 -0.05957053 0.00081968494
0.01100888 -0.018090397 0.049574647 0.0065081785 -0.09413912 -0.10613317 0.08624743 -0.065999955
0.02607289 0.029810527 -0.00023858597 0.018476646 -0.07248025 -0.018928824 0.09116916 -0.0758267
0.045801282 -0.009437297 0.077764496 0.007954499 0.01576958 0.0014252829 0.070482 0.057243142
0.09205882 -0.037423696 -0.059892286 0.03686618 -0.02551928 -0.025614249 -0.006889343 0.0875368
0.04493474 0.09072832 -0.05838803 -0.002973977 -0.018746644 -0.0034677607 -0.0038931135 -0.0065896534
-0.07327919 -0.11027926 -0.035052497 -0.012860785 -0.050639346 -0.07176607 0.012256209 -0.07419
-0.01690416 -0.017738722 -0.051544752 -0.05350437 -0.08186747 -0.030538894 0.07393525 0.028082332
0.08956005 -0.051974237 -0.04826417 0.0038538694 0.043977365 -0.009460287 0.00069596205 -0.052786276
0.104818076 0.057796087 0.087209515 0.012107713 -0.07225496 0.06339706 0.026169768 -0.0013226591
0.053264067 0.049863655 -0.08466263 0.03160644 -0.09586779 -0.045311484 0.011925018 0.10073507
-0.077787146 0.03209397 0.033442926 0.06624994 -0.092816286 0.01862943 0.05477778 0.05720375
0.062932305 0.07949878 0.08599492 -0.05204235 -0.094041325 -0.021069929 -0.056154363 0.03590057
-0.018618604 -0.062451378 0.004166837 0.032940447 -0.009089028 0.0012553564 -0.016404526 0.057149984
-0.088234514 -0.10148281 0.033242717 0.04766813 -0.044763766 -0.083978005 0.062879086 -0.08621344
-0.010801514 0.009536295 0.08952121 -0.059291728 0.06758345 -0.014511977 -0.08670565 -0.064641066
0.029062124 0.03428758 -0.016101148 0.034636755 0.08381326 0.016834794 0.041476745 -0.013476349
0.0905609 -0.01638889 -0.075724855 0.026545484 -0.045784272 -0.054813866 -0.0658304 -0.0528571
0.03590076 0.07771069 -0.07268881 0.068207934 0.021767387 -0.023985295 -0.037494633 0.031345494
0.025895488 -0.028262887 -0.03979014 0.010714694 0.08299351 0.059487857 -0.06134461 0.012579432
-0.0042942935 0.046261426 -0.056862332 -0.08256789 0.05524484 0.0029059106 0.040939845 0.0040590465

bias f4 [64]
00000000: 68a3 73bd f9c8 843d 064a 623d 3e6c 74bb
00000010: abe4 53bc 4536 2cbd 1ab4 b93d 14ce c0bd
00000020: e1ce 363d ab9f 50bd 0a91 6d3d 1a07 383d
00000030: 516a d1ba 6894 75bd 4475 0b3d c405 dcbc
00000040: 38ca a03d af7d 8e3d f048 0d3d 7658 983d
00000050: 95da 46bd b16c d43c 1d9e 20bc 1e1c 763d
00000060: 1f5a b4bd 51a1 b33b 6b6d 76bd df3f c43d
00000070: aa0e 0c3d 9de0 593d c955 903d ec6b 79bc
00000080: 57bf 443d e70e debc 13a1 b43d 7399 c7bb
00000090: 9fb2 543c 61bf c43d 7625 00bc b08d acbd
000000a0: 3a35 20bd 8611 5c39 de97 a93d 4723 813c
000000b0: a563 a4bc c4ec 10bd 0e2d b3bd 7efb 2b3d
000000c0: 7985 b2bd 0ff4 773d bc1a 2dbd 7a7d 3cbd
000000d0: 10f2 063d 2cad 4a3d 3880 a8bd 0f5c 1f3c
000000e0: be8e 8d3d cb20 8ebc be77 73bd 605d d13d
000000f0: 4ad2 dcbd eefb fabc a9e6 efbd 7bc5 9bbd
-0.05948201 0.06483645 0.055246376 -0.0037295963 -0.012932937 -0.042043943 0.09067555 -0.09414306
0.04463089 -0.05093352 0.05799965 0.044928648 -0.0015977119 -0.059955984 0.03404738 -0.026858218
0.0785107 0.06957566 0.034493387 0.074387476 -0.0485483 0.025930734 -0.009803322 0.06008541
-0.08806252 0.005481877 -0.060162943 0.09582495 0.034193672 0.053192724 0.07047612 -0.0152234845
0.04803404 -0.027106715 0.08819785 -0.0060912906 0.01298204 0.09606815 -0.007821431 -0.08425462
-0.03911326 0.00020987363 0.082809195 0.015763892 -0.020067045 -0.035382047 -0.08748828 0.04198789
-0.08716864 0.060535487 -0.042261824 -0.0460181 0.032945693 0.049481556 -0.08227581 0.009726538
0.069119915 -0.017349621 -0.059440367 0.10222888 -0.10782297 -0.030637708 -0.11713917 -0.07606026

weight f4 [32, 64, 3]
00000000: d3b1 a8bd 0802 3a3c 1f3c 03bd fcea e63c
00000010: b044 2a3c 8c26 edbc 03c8 843d 7efe 713d
00000020: d7bf ac3b a85c a13b d1db f13c 9169 873d
00000030: 3788 713d 460a 0cbd 8a90 1f3d 5458 12bb
00000040: 5ddc 05bd bb15 3dbd ea87 c23c b88f d73b
00000050: f902 9fbd efa6 a2bc 25e0 b13d 6dea 293d
00000060: f25e 3bbb 9ce4 9f3c 6ea8 30bd 7946 21bd
00000070: 4722 81bd a40b c83c bfcd 05bd 16a7 84bd
00000080: 78fe 78bc d7a5 be3c 4efb a43b 8d2f 203b
00000090: 77c3 70bd 7801 7cbd d1f3 243d 8bd7 babc
000000a0: 607a 9a3c 6152 af3d 9092 bfbb ccd8 9cbc
000000b0: dee3 f6bc 50f6 f9bd 3ee7 08be 20d1 64bd
000000c0: 58d9 37bc 7784 f13b 5705 fd3c bb6d 5abd
000000d0: fe99 f4bc cb10 57bd 046d 063b 4ee7 ac3d
000000e0: 21a2 21bc 1069 cc3c d733 413c 010a 823d
000000f0: 001c 82bc 9829 0d3d a419 c13c 04e3 cabc
00000100: c262 a5bc d6d8 ed3c 4dc2 4f3d caf9 58bd
00000110: 1acd 883c e297 3dbc afda 3cbb 62c0 ccbc
00000120: 063c 7c3c 80ba 45bd 3408 073c 385f 633c
00000130: 323a bfbc ede6 3d3d 8e1e c33c ec15 0cbd
00000140: 2f57 57bd bbfd 44bd c4d1 92bc 5a78 943c
00000150: e2b5 323d b494 0dbd f36a 6a3d e2af 813d
00000160: 48dc f33c df24 9cbc 42d4 8dbd 9609 623d
00000170: cc38 debc 9d23 afbd f23b a5bc 9905 31bc
00000180: 9268 173d 3c21 633d 37ad 483d 08dc 90bc
00000190: 4b65 23bd 2535 2abc 7429 70bc 9dce 1f3d
000001a0: 935f 043d 447e 2abd ad62 283d ca3b 65bb
000001b0: 0b96 7dbd 020a bcbd 40a4 aebc 48a4 1abd
000001c0: 83bf fabc 902d 21bd 4885 4f3d bf34 5e3d
000001d0: 6d5a 5c3c cc7d 213d b003 4abd aee7 773d
000001e0: 1776 0b3d bb7c 463c e508 853c 47e4 203c
000001f0: ab35 6fbd e3a9 583d b7a5 8d3d 6330 0e3d
00000200: 78e0 873d 0194 233c b1b0 5cbd ef5d d83c
00000210: 8ce0 e8bc 7d3d b93c f7cb 40bd 56cc 643d
00000220: da1f 213c b2dd 81bd 3bf9 5ebd 9909 7f3d
00000230: 0891 cfbc 6754 f3bc b449 ddbb 17a6 a2bc
00000240: 8678 0c3c 355b 1bbd 764d 55bd 69e0 6a3d
00000250: 7c87 893c 6a75 19bd 6763 85bc b9b3 8e3d
00000260: 8b8f cabc a902 533d 8356 a63c 2129 d83d
00000270: c904 943d a40a fe3b d22a 81bb 39e3 b7bd
00000280: 17ff 77bd f731 bb3c d6dc 3c3d 425d de3c
00000290: 9256 103c 0a83 14bd 0e9a df3b 70ca 223c
000002a0: 045d 07bd b34e ab3c d461 4fbd ef14 2f3d
000002b0: fafa 363d 0a8f 333d 5059 26bd 3c97 153c
000002c0: 6e27 583d dc22 193d 1288 873d 5f78 2f3a
000002d0: ba6e 85bd 727e 07bc 2ab5 3f3d bc0d 7a3d
000002e0: f89a bfbc 0ff0 35bd 05d3 a3bc 0a12 a7bc
000002f0: 36af 15bd 8f35 ad3c 1e80 6dbd 5a0f 24bc
00000300: ca3a 853d 0d0e 1f3d 57fe ca3c bf1c 9f3b
00000310: 1184 b93c eab7 9bbc 6179 60b9 dd92 193b
00000320: a5a9 523d e306 913d cd80 3bbc 6039 133b
00000330: f00c 6a3d f21d 583c 9b0b 573d 461e c9bc
00000340: f125 ddbc 07b3 c63c 0878 bd3c 04d0 083c
00000350: cf9e 1ebd a29e abbd b7b5 b23c 512c 94bd
00000360: 6a8b 013c 5b0e 993c 12b7 acbc 7b66 0a3d
00000370: 9c62 d63c 9b23 07bd 9415 4c3d d6f5 853d
00000380: 1d43 5a3d db18 613a fa01 b7bc c1e5 073d
00000390: 5914 26bd 3344 ea3c 5730 613d 27a2 6a3d
000003a0: 53e4 343d 4583 ecbb 7f53 2fbd bacb 5cbd
000003b0: 0997 76bd 0fbe 153c d462 f03c e514 6dbd
000003c0: cf84 803d 9aa8 9e3d f62d 3f3c a0ce c1b9
000003d0: 85c5 0d3d fa64 40bd b626 5f3d f7e5 5fbb
000003e0: dd21 04bd 1c40 2fbc 6493 15bd 13dd a93c
000003f0: 7536 29ba 84a2 b53c d0ea 463d 8edb 89bd
-0.08237042 0.011353023 -0.032039758 0.028188221 0.010392353 -0.028949045 0.06483462 0.059080593
0.0052718925 0.0049243756 0.029523762 0.06611932 0.058967795 -0.034189485 0.038956203 -0.002233048
-0.032680858 -0.046163302 0.02374645 0.006578412 -0.07764239 -0.01985499 0.0868533 0.04148333
-0.0028590527 0.01951819 -0.043129377 -0.03937385 -0.06305366 0.024419613 -0.032666918 -0.064771816
-0.015197389 0.023272438 0.0050348407 0.0024442405 -0.05878016 -0.06152484 0.040271584 -0.022807857
0.018857181 0.085606344 -0.005846329 -0.019146346 -0.030137952 -0.122051835 -0.13369462 -0.0558635
-0.011221252 0.0073705274 0.030886335 -0.053327303 -0.029858585 -0.05250625 0.0020511756 0.08442555
-0.009865315 0.024952441 0.011792145 0.06349564 -0.015882492 0.034463495 0.023571797 -0.024766453
-0.020188693 0.02903406 0.05072241 -0.052972592 0.016699363 -0.011571856 -0.002881687 -0.024994079
0.01539517 -0.048273563 0.008241702 0.013877682 -0.02334318 0.046362806 0.02381828 -0.034200594
-0.05257338 -0.04809354 -0.01792229 0.018123794 0.04363049 -0.034565642 0.0572309 0.06332375
0.029768124 -0.01906055 -0.069252506 0.055184923 -0.027126692 -0.085517146 -0.020170186 -0.010804557
0.03696496 0.055451617 0.048993316 -0.017683044 -0.039891522 -0.010388647 -0.014658321 0.0390154
0.03231771 -0.041624323 0.04110973 -0.0034978264 -0.06191067 -0.09181596 -0.021318555 -0.037754327
-0.030608898 -0.039350092 0.050664216 0.05424952 0.013449294 0.03942661 -0.049319923 0.06052368
0.034048166 0.012114699 0.016239593 0.009820051 -0.05840079 0.05289639 0.06916373 0.034714114
0.06634611 0.009984017 -0.053879444 0.026411979 -0.028427385 0.022612328 -0.047069516 0.055858932
0.009834254 -0.06341113 -0.054436903 0.062265012 -0.025337711 -0.029703332 -0.006753171 -0.019854588
0.008573657 -0.03792878 -0.052075826 0.05734292 0.016788237 -0.03746549 -0.01628275 0.06967873
-0.02472665 0.05151621 0.020304924 0.1055472 0.07227475 0.0077527333 -0.003941872 -0.08978886
-0.060546007 0.022850974 0.046109043 0.027144078 0.0088097025 -0.03625778 0.0068237847 0.00993596
-0.03304769 0.02091155 -0.050630406 0.042744573 0.044672944 0.043837585 -0.04061252 0.009130295
0.052771978 0.03738676 0.0661775 0.0006693657 -0.0651526 -0.008269893 0.04680363 0.061048254
-0.023389325 -0.04441839 -0.019998083 -0.020394344 -0.036544047 0.021143703 -0.05798351 -0.010013426
0.06505354 0.03883176 0.024779482 0.0048557217 0.022645982 -0.019008595 -0.00021407522 0.0023433485
0.051431317 0.07081392 -0.011444283 0.0022464618 0.057141244 0.013190733 0.052501302 -0.024550568
-0.026995631 0.024255289 0.023128524 0.008350376 -0.03872567 -0.08379866 0.021815164 -0.07235015
0.007906774 0.018683603 -0.021083388 0.03378914 0.026170067 -0.03299294 0.049825266 0.0654103
0.05328666 0.00085867726 -0.02233981 0.033178095 -0.04054675 0.028596973 0.05497774 0.057283547
0.04416306 -0.007217797 -0.042804237 -0.053905226 -0.060202632 0.009139552 0.029344 -0.057881255
0.06275331 0.07747002 0.011668673 -0.00036965776 0.034612197 -0.0469713 0.054480277 -0.003416417
-0.032258857 -0.010696437 -0.036517516 0.0207353 -0.0006454953 0.02217222 0.04856378 -0.0673133

bias f4 [32]
00000000: e70b 633d 9147 3b3d c7de f53c 7900 c03c
00000010: 1bb0 80bc 10ee 6abc aff4 733d 6fb4 5a3d
00000020: 6e2e 81bd c181 833d 545a 56bb f175 cabc
00000030: 41b7 403b 810e 8abd ea9d 233d 664f 4ebd
00000040: e6be 32bd c69a 82bd 899b 20ba 0241 a63c
00000050: 15fb 893b 4efd 8fbd b461 82bd ceae db3c
00000060: 87c5 2d3c 8009 5bbc 3775 193d 57d0 8a3d
00000070: 627b 413d b5a5 38bc 82af 47bd f641 6d3d
0.055431273 0.045722548 0.030013455 0.023437725 -0.015708974 -0.014338985 0.05955952 0.05339473
-0.06307684 0.06421233 -0.0032707648 -0.024714442 0.0029406103 -0.06741048 0.03994552 -0.05036869
-0.043639086 -0.06377177 -0.0006126692 0.02029467 0.0042108395 -0.07030736 -0.06366292 0.026816752
0.010606176 -0.013368964 0.0374653 0.06778019 0.047236808 -0.011269976 -0.04875136 0.057924233

weight f4 [32, 64]
00000000: 6847 973d 9229 8dbd a5c1 723d 3e89 8c3d
00000010: a092 d83d b91a b13b 7820 e2bc 76d2 543d
00000020: f64b 4d3d 51ec aa3c 5cf2 c1bc 8870 fbbd
00000030: 6acc 4e3c 5924 663d d1dc 873d e6ae d2bd
00000040: b597 a5bd 0c62 b6bd 3d19 d7bc c8ce d93d
00000050: cf93 5bbc f099 243d 2ce0 183d 491c c93d
00000060: 9332 4d3c 4f6d 903c 8b6c cebd 41f3 eabc
00000070: be7e debc 27ab bbbd 3665 c43d 64bb 41bd
00000080: 8919 cdbd 5bc3 e9bd c1b4 833d 0100 ac3d
00000090: 78fa a43d 5ffa e73d d127 b33d ac13 993d
000000a0: a1ea e53d 2af5 f23d 211c 943c e810 dfbd
000000b0: bc52 de3d e0e8 b63d 7e90 e9bc b89f 6abd
000000c0: c2e3 99bc 15c1 a03d 95af ce3c 1274 d03c
000000d0: a39d ebbc 9880 713d bf66 1d3e f9c0 e8bd
000000e0: c7ee f13d a215 073e 388b a3bc 40dd 8a3d
000000f0: 54f9 263d dde5 8d3c 65d3 723b a0f7 193d
00000100: cc50 5e3d 3bc0 3b3d 428b cbbd 9609 7b3d
00000110: c581 023d 8459 6c3d 0719 8bbd 673d 903d
00000120: 0a8c 2ebd e5b1 eabd 2f95 413e 3236 2a3d
00000130: c9ac 693d ec83 25bd a522 ab3d 185d 1bbe
00000140: 2366 b33c 3ab4 333d a076 fcbc 43a5 813d
00000150: 99d9 dabc 04ce 50bd c723 2ebb 3e00 8f3c
00000160: 8a2e e93d 9811 90bd fc01 eabc 63dc f3bd
00000170: 1f99 223b 3142 9bbd bb2f df3d 0973 a0bb
00000180: e7d3 5dbd 3de1 c0bc 94d1 9ebc d9a9 f0bd
00000190: 723b f7bd ee9b 2dbd 1eb3 a5bd 734c c73d
000001a0: 557f 323d fe93 9e3c a553 23bd cc42 923c
000001b0: 1333 a93c 3fef eb3c 2bca fdbd 6c1f 413d
000001c0: c906 eebd b67d afbc a819 d43d 137f 04be
000001d0: 5af9 a23d e035 533c 88b8 143d 285e d83c
000001e0: f7b7 cb3c ef1f df3d 46d9 103c c1f6 8c3d
000001f0: e13c 07bd 5ad8 da3d 0219 32bd 7e04 773d
00000200: f09b 30bc a2a3 25bd c7a8 8a3d e0e0 05bc
00000210: c3d6 91bd 2af4 9fbb f3f3 aa3d 24e9 013d
00000220: e4fe 193d 12f1 b93d a81e da3c bf82 81bd
00000230: 2073 6abd 228b 63bd 5f31 c83d 5859 7b3c
00000240: dbba 543d 64df 67bc 1f5e aaba e6b1 debd
00000250: e50f 9abd 525e cebd 3a3d 243d e577 9dbc
00000260: 3459 eebd f5fd c83d 0a0e f03c 7b0b fcbc
00000270: 1f1a bd3d bf3e 9f3d 4224 81bb b3b2 96bd
00000280: bb68 be3d 74f3 383d 3ae5 6b3d 3725 4bbd
00000290: d989 8f3d 1818 b83d 823d 04bd 63e8 813d
000002a0: fe8e 993d c002 06bd bee1 ebbd a8f0 dc3d
000002b0: f386 cbbd c94e a23d 2aa7 91bd d3fc 46bc
000002c0: 724d 1c3d 7618 c9bd 8591 fb3d 93ba ac3d
000002d0: 8849 cdbd 8227 fdbd 5981 fe3c 98e5 bd3d
000002e0: 3d5d 983d 1579 c73c c00c 263d 03e6 783d
000002f0: 37bd 163e 5dda e1bd 3622 b53d 8c79 7c3d
00000300: 194b cbbb cb0f 6dbd ebc3 ff3d ce24 ecbd
00000310: ef63 eabc f754 c33d ef45 a9bd c951 0ebd
00000320: d311 f93c 624f 06bd d6c8 8ebd c1c7 f0bc
00000330: 75cc a23c 0bc0 ea3d 0c22 b93d 9a24 043c
00000340: b673 d43d 00db d9bd a60a 7f3c 8b79 b13d
00000350: d55a ea3c a463 7e3d 030f ac3d fa02 293d
00000360: a567 15be e5c8 d43d 0bf0 efbd 7954 dd3c
00000370: cae4 87bd 7e26 96bc a770 54bd a786 7d3d
00000380: 53da d73d 0311 c1bd 83f9 3f3d 5192 d9bd
00000390: 76a2 19bd 3864 443d a77c 1bbd d602 363d
000003a0: c717 87bd def9 8c3d c7fe b73d e2f6 a03d
000003b0: 2aa2 613d 71ee 96bd 70bc c5bd 8523 8f3d
000003c0: 9435 753c 78a6 24be 9acb a4bd 177d 7dbd
000003d0: f892 cebd 2057 283c b0a9 c43d a506 c3bd
000003e0: 48d7 18be 66e1 c43d f659 823d 3875 0e3d
000003f0: 3875 6fbd 0597 b8bd 4c7c 05bd d1df 563b
0.073866665 -0.068926945 0.059266705 0.06862114 0.105748415 0.005404797 -0.027603373 0.051958524
0.05012127 0.020864638 -0.023675136 -0.12277323 0.012621978 0.056187008 0.06633914 -0.102872655
-0.080855764 -0.0890542 -0.026257152 0.106351435 -0.0134019395 0.04018587 0.037323162 0.09819848
0.012524265 0.017630247 -0.10079297 -0.028680446 -0.027160045 -0.09163504 0.09589617 -0.04729785
-0.10014636 -0.11414214 0.064309604 0.08398438 0.080555856 0.11327051 0.08747829 0.07474455
0.112263925 0.118631676 0.01807982 -0.108918965 0.10855624 0.08931136 -0.028511282 -0.057281226
-0.018785361 0.078493275 0.025230208 0.025445972 -0.02876169 0.058960527 0.15371226 -0.113649316
0.11813121 0.13191846 -0.019963846 0.06780481 0.04076512 0.017321521 0.003705227 0.03758967
0.054276273 0.045837622 -0.09938671 0.06128844 0.03186204 0.057702556 -0.06791883 0.070429616
-0.04261402 -0.11459712 0.18904565 0.04155559 0.057049546 -0.040409014 0.08356217 -0.15172231
0.021899289 0.04387305 -0.030818284 0.06330349 -0.026715087 -0.05097772 -0.0026571618 0.01745617
0.1138583 -0.07034606 -0.0285654 -0.1190727 0.0024810506 -0.075809844 0.10897776 -0.0048965258
-0.054157164 -0.023544902 -0.019387044 -0.11751146 -0.12071885 -0.042385034 -0.080908045 0.097313784
0.043578465 0.019357678 -0.03987469 0.017854117 0.020654237 0.028800605 -0.12392076 0.047149107
-0.11622388 -0.021422248 0.10356456 -0.129391 0.07957716 0.012891263 0.036308795 0.026412085
0.024867995 0.10894763 0.0088408645 0.06883002 -0.033017043 0.10685797 -0.04348088 0.06030702
-0.010779366 -0.040439256 0.06770473 -0.00817129 -0.07121041 -0.0048814015 0.08347311 0.03171648
0.0375966 0.09079184 0.026625946 -0.06323766 -0.057238698 -0.05555261 0.09775042 0.015341125
0.05193601 -0.014152382 -0.0012998021 -0.10873775 -0.07522563 -0.10076584 0.040097453 -0.01922221
-0.11638108 0.098140635 0.02930357 -0.030767193 0.09233498 0.0777564 -0.00394109 -0.07358303
0.092973195 0.04515405 0.057591654 -0.049596038 0.07008714 0.089889705 -0.03228522 0.063431524
0.07497977 -0.032717466 -0.11517666 0.10788089 -0.09937849 0.07925183 -0.07111962 -0.012145239
0.038159795 -0.09819119 0.12283615 0.08434024 -0.100237906 -0.12361051 0.031067537 0.09272307
0.07439659 0.024349729 0.040539503 0.06076623 0.14720617 -0.110279776 0.08844416 0.061639354
-0.0062040207 -0.05787639 0.1248854 -0.115304574 -0.028612105 0.0953769 -0.08265292 -0.034745965
0.030404007 -0.03279055 -0.069719 -0.029392125 0.019872883 0.114624105 0.09039697 0.008065367
0.103736326 -0.10637474 0.015566504 0.086657606 0.028607765 0.062106743 0.08401301 0.041262604
-0.14590319 0.1038988 -0.117157064 0.027017819 -0.06635435 -0.018328901 -0.051865246 0.061895993
0.10539689 -0.09427073 0.046868812 -0.10623611 -0.03750845 0.04794714 -0.037960675 0.0444363
-0.06596332 0.06883596 0.08984142 0.07859589 0.055086292 -0.07369698 -0.09655082 0.06989197
0.014966387 -0.16079128 -0.080466464 -0.061886873 -0.10086626 0.0102746785 0.09602678 -0.09522752
-0.14925873 0.09613304 0.06364815 0.034779757 -0.058461398 -0.0901318 -0.03258924 0.0032787214

bias f4 [32]
00000000: 3fd8 0a3c 9ce1 983d 62ca cf3d c7fc 8cbd
00000010: ba8f 29bc 4169 c93d dea7 e3bd bcf6 083b
00000020: 428c 1d3c 65f7 b43d 4f69 83bc 9435 1cbd
00000030: e92e 2bbc bc78 e9bd 148b 353d c8d6 a93d
00000040: 1a84 533d df16 9c3d 9c5f 063d f7bb ba3d
00000050: d5c4 e83d 6d59 93bc e148 a13d 8fe8 0c3d
00000060: ceb0 5e3d ce97 b53d f0ce e5bd 2846 10bd
00000070: a0f4 193d 0575 c03d 2c36 c83d 10a0 e3bd
0.008474409 0.074649066 0.10146023 -0.06884151 -0.0103492085 0.09834529 -0.111160025 0.0020899018
0.00961596 0.08836249 -0.016041426 -0.038137034 -0.010448196 -0.113999814 0.04432209 0.082929194
0.051639654 0.0762155 0.032806024 0.09117883 0.11365668 -0.017986977 0.07875229 0.034401473
0.054367833 0.08866845 -0.11221111 -0.035223156 0.03758681 0.0939732 0.097759575 -0.11114514

weight f4 [32, 32]
00000000: a037 b13b a724 1bbe 603c bbbc 22ff 9a3d
00000010: 5051 09be 4a93 b83d 3809 12be 90d0 ab3c
00000020: 73f2 95bd 098a 0ebe 92b0 07be e916 26be
00000030: 30e2 633c ea50 bd3d bfd2 c0bd db17 fabd
00000040: 0a92 e43d 5ad7 df3d 80da e43b 6fc0 2e3e
00000050: c04f 2c3b e8ea a73c 2b3a 15be 20a1 1dbd
00000060: e03a 02be 65d4 ecbd ffcb 093e 1812 14be
00000070: 34d1 ecbd 8012 9dbb 47fb a0bd 2850 38bd
00000080: e42d 023d 7ba2 4bbe 1e74 e03d c4a0 50bd
00000090: 278a 10be a29f 443e 4028 08bd 6419 c0bc
000000a0: f0f8 1fbe 8c7b 15be 53a4 b6bd 1729 47be
000000b0: 9129 0dbd e82c 08be 71b2 64bd fb0b 8bbd
000000c0: bc87 5d3b 3a22 3bbe 21dd 93bd c361 2c3e
000000d0: 12ab b33d 4f0e d4bd b997 1fbe 0b61 313e
000000e0: cd0d 2abe f2b5 063e d02b ab3d 7de1 95bd
000000f0: c01f dbbc 67f2 3dbe fda8 3d3d 07ad b53d
00000100: 7fc1 93bd 798b 08be eb58 783d 631a c0bd
00000110: e2ab 1f3d e620 b03d 7214 debd 832f 0e3e
00000120: b4e0 08be ebe1 123e 96dd 79bd 7707 b73d
00000130: 2713 ddbd d70f 123e 15fa d1bc 9ef3 1f3d
00000140: 07c1 143e 0b32 aa3d b168 543c 2bc9 24be
00000150: 1247 67bc e7d7 b0bd 4bab 373d 7a31 4abd
00000160: 71f6 a53c 0036 12be 0da6 c43d dde1 1c3e
00000170: 4e8d eebd d8ff 3bbe e5ad 193e 726a b2bd
00000180: 0d76 beba b4c9 0b3d 75a8 8e3d abf9 d73d
00000190: c51f 95bc 81e0 0a3e 2ab2 1cbd a910 1d3d
000001a0: 9bd3 763c 3633 e63b 3386 2a3e a551 493d
000001b0: 35e9 22be 81a1 b6bc 0614 8fbd bc63 a2bd
000001c0: 5c45 223d 348f d23d ab4c e63d 26c8 01be
000001d0: 57ac ccbd 0039 d13d 05c2 f3bd 3acf 2b3d
000001e0: 7b3d 393e 4c37 70bd 4461 d0bd 3ad8 92bc
000001f0: 083b 2dbd 6d89 b23b 1d00 1e3c 9e44 263e
00000200: dffb 1ebe 9c4f 263d d57d b5bd 165c cd3d
00000210: 515a b2bd 80e3 813a d07f efbd d760 253e
00000220: 73c4 96bd 1807 913d 161b a23d b0a5 53bd
00000230: 95cc 03be 469f d3bd 427e ef3d 99cb 0a3e
00000240: 09c6 10be 9344 133e 0694 6dbd e551 0d3e
00000250: c0dd 7d3c 7cf3 07be 4275 ecbd 4a38 ab3d
00000260: 6b98 213e ac5d 2dbd a054 703d 0580 0cbe
00000270: 4483 16be 8857 97bc 7f6c 0abe 93a8 fbbd
00000280: 1263 2e3e 6614 57bd f175 71bd 55c1 ac3d
00000290: bd07 e9bd b8a9 733d 3d94 a6bc d5ed 223e
000002a0: bacf 10be f166 af3d 29ca 2cbe 5cbc d2bd
000002b0: 3f70 af3d 50e3 663c 01a3 e2bd bd5c 0a3e
000002c0: 11e7 103e 5dd6 18be 2b88 493d e814 43bd
000002d0: 1132 01be baa6 bcbd 392c 263e 3e8c 1fbe
000002e0: 1a64 2abe 7e32 813c 177a 0bbe 7ea3 903d
000002f0: 1200 1abe 123d 803d c414 0bbc 9889 2b3b
00000300: f42e 96bd ac0f 493d eeaf a43d 70b2 6f3d
00000310: 6711 0c3e 10c6 fdbd b82c 8abc 1a43 65bd
00000320: 90c0 053d 0c74 58bd 5aaa 803d 544e 6d3d
00000330: becd 30be e42c bdbd 5be0 1a3e 53be 06be
00000340: 2238 de3d c11d e7bd 5624 0bbe e43b 303d
00000350: d884 ddbc d6fd c9bd 12f3 f63d d0f4 03be
00000360: 5fad 183e 35ad 8dbd dc5e 96bd 6a3b 2bbe
00000370: acc3 2c3d abfe afbd 42f8 16be c826 6c3d
00000380: ab5b 18bd fba2 32be 93d0 213d bb67 07bd
00000390: add3 30be 3f52 09be 6941 07be 56f6 4cbb
000003a0: 7c31 133e a928 1d3c 4032 7cbc 5d02 3b3d
000003b0: e3d4 793d 688c 86bc cacf 07be dd2e 493d
000003c0: 2edf 01bd fade 93bd d90c fe3d 4c73 2c3e
000003d0: 5cf1 96bc f514 2dbe c37f 1c3e 1c4b b5bd
000003e0: b047 1abe f82d b33c 1fa9 ca3d 852b 183e
000003f0: 6ad9 fdbd 5262 62bd 08bf cbbc 5ebb 77bd
0.0054082423 -0.151507 -0.022855937 0.07568194 -0.13409925 0.09012468 -0.14261329 0.020973474
-0.07321634 -0.13919844 -0.1325095 -0.16219677 0.013908908 0.09243949 -0.094151966 -0.12211581
0.11160667 0.10929747 0.006984055 0.17065595 0.0026292652 0.020497754 -0.1457297 -0.03848374
-0.12717772 -0.115639485 0.13456725 -0.14460027 -0.1156334 -0.004793465 -0.07860427 -0.044998318
0.031782046 -0.198862 0.109596476 -0.050934568 -0.14115201 0.1920152 -0.03324151 -0.023449607
-0.15622306 -0.1459791 -0.08918061 -0.19449268 -0.03446347 -0.1329838 -0.055834237 -0.067893945
0.0033802828 -0.18274775 -0.07219911 0.16834168 0.087728634 -0.10354292 -0.15585221 0.17322175
-0.16606827 0.13155344 0.08357966 -0.07318399 -0.026748538 -0.185495 0.046303738 0.08870893
-0.07214641 -0.13334455 0.060631674 -0.09380033 0.03898228 0.08600025 -0.108437434 0.13885312
-0.13366967 0.14343993 -0.061002336 0.08936971 -0.10794669 0.14263855 -0.025631944 0.03905069
0.14526759 0.08310326 0.0129644135 -0.16092364 -0.014116066 -0.0863493 0.044841092 -0.04936359
0.020259114 -0.14278412 0.09601984 0.15320535 -0.116480455 -0.18359315 0.15007742 -0.08711709
-0.0014531031 0.034127906 0.069657244 0.10545667 -0.018203625 0.13562204 -0.038255848 0.038345966
0.015065099 0.007025148 0.16652755 0.049150128 -0.15909274 -0.022293808 -0.06986241 -0.07929179
0.039616928 0.1028122 0.11245092 -0.12674007 -0.09993809 0.1021595 -0.11902241 0.041945674
0.18089859 -0.058646485 -0.10174802 -0.01792537 -0.042292625 0.0054485113 0.009643582 0.16237113
-0.15525769 0.040603265 -0.08861891 0.100273296 -0.08708633 0.0009909719 -0.116943 0.16150223
-0.073616885 0.07081431 0.079153225 -0.051671684 -0.1287101 -0.10333113 0.11694004 0.13554229
-0.14138044 0.14381628 -0.058002494 0.13800772 0.015494764 -0.13276476 -0.11545803 0.08360346
0.15780799 -0.04232566 0.058674455 -0.1372071 -0.14698511 -0.018474355 -0.1351795 -0.12288012
0.1702998 -0.052509688 -0.05895037 0.08435313 -0.11378429 0.05948803 -0.020334357 0.15911038
-0.14141741 0.085645564 -0.16873993 -0.10289833 0.08566331 0.014092281 -0.11066247 0.1351194
0.14150645 -0.14925523 0.049202126 -0.04762736 -0.12616755 -0.09211488 0.16227807 -0.15580842
-0.16639748 0.015771147 -0.13620792 0.07062434 -0.1503909 0.06261648 -0.008488838 0.0026174542
-0.07333174 0.04908721 0.080413684 0.05851978 0.13678513 -0.12391293 -0.016867027 -0.055972196
0.032654345 -0.052845046 0.06282492 0.057936028 -0.17265984 -0.09237078 0.15124647 -0.1315854
0.1085055 -0.11284972 -0.1358808 0.043025866 -0.027040884 -0.098628685 0.12058081 -0.12886357
0.14909886 -0.06917802 -0.07342312 -0.16721883 0.042178795 -0.08593496 -0.1474314 0.057654172
-0.037196796 -0.17444985 0.039505553 -0.03305791 -0.17268248 -0.1341028 -0.13208546 -0.0031274757
0.14374346 0.009592214 -0.01539284 0.04565655 0.06099404 -0.016424373 -0.13262859 0.049116958
-0.03170698 -0.07220264 0.12404794 0.16840857 -0.018425636 -0.16902526 0.15283112 -0.088522166
-0.15066409 0.021872506 0.098955385 0.14860351 -0.12394984 -0.055269547 -0.024871364 -0.06048142

bias f4 [32]
00000000: 57ff 08be fbfa 13be 562f dcbd 23ae e73d
00000010: 2a44 a33d bc4f 93bc 8c8e 4f3d fb1d 2cbe
00000020: b8c7 ffbd 5823 943d 686f 8e3d 277e 39bc
00000030: 358c 99bc 915e e83d 1001 053d 1f02 f93d
00000040: 9e0b d53d 4926 31be cd6d c13c d259 833d
00000050: cfd8 913d f257 ecbd 9867 febb 0333 0a3e
00000060: 9487 953d 134d 1d3e 8863 1fbe 3922 2fbe
00000070: 049e 853d 7f9d c43c 1ba2 d6bd 5063 003c
-0.13378654 -0.1445121 -0.10751216 0.11312511 0.07971986 -0.017982356 0.050673053 -0.16808312
-0.12489265 0.07233304 0.06954843 -0.011321581 -0.018743614 0.11346162 0.032471716 0.12158608
0.104026064 -0.17299761 0.023611927 0.06413616 0.07121431 -0.11540212 -0.007763814 0.13496022
0.0730125 0.15361433 -0.15565312 -0.17102899 0.0652428 0.024000881 -0.10480138 0.007836178

weight f4 [32, 64]
00000000: bdb0 e8bc 9fd0 e23d 2657 04be 0d6d 223d
00000010: 2e4e 6c3d 19cb e9b9 b89f 3ebd 6ae7 c7bd
00000020: 5792 c43d 2709 073e bd8b ffbd 21fd 553d
00000030: cacf 883b bfea 3f3e 8c59 14b9 9fde 993c
00000040: 8c30 4d3b 461d e5bc a7bf cd3d 007d 02bd
00000050: 751d 263d 12a1 b2bd edd3 74bd 515c 0abc
00000060: 9477 1d3e 695f 6fbd 2551 d1bd 8022 463c
00000070: 45c2 a73c c53d 9e3d 2b09 923d 8068 f7bd
00000080: 4092 bfbb 0863 463e 446b 8cbc 9af8 853a
00000090: 641f 1bbd cdaf 113d 945b 173d dd6e 853c
000000a0: 6a99 94bd fa28 e5bd 80da 113b 6dd5 33bc
000000b0: 8d6c 21bb d460 2c3d 0874 d0bd 6b91 963d
000000c0: e218 ca3d 6b3a c1bd a94d 803d f994 5ebc
000000d0: 3fce df3c f04e c23c 4e33 c9bd ce9b 883d
000000e0: bdec b8bd 3096 9d3d 5a27 a9bd ebfd a63d
000000f0: 4346 dfbd 3427 893d 9225 efba 202b 9bbd
00000100: e2e2 e4bc af41 463d 41c9 a2bd c64a 05bd
00000110: 2eae ccbd 89b7 d8bd 57a6 243d a0e9 033d
00000120: 1517 f43b 4911 5ebd 8057 f43c 781e ae3c
00000130: af07 ba3d 3403 81bd 8b93 d0bd fd83 b3bd
00000140: 460b 8e3d 965e 863d a09f 65ba 8c98 48bd
00000150: cf06 b0bd 2c30 033d 1d93 943d ceb6 0b3d
00000160: 316a 55be f3e7 c4bd f091 b43d ed2b debd
00000170: ed06 87bd 6094 10bd ca9b 63bc 82de 503b
00000180: b087 2ebd ca60 313c 19f9 453d 6423 7b3b
00000190: 9280 c6bd f861 5abd e002 e23c a08c 92bc
000001a0: e52b e53c 98c9 b33b ac19 473d 244f e0bc
000001b0: ec07 eebb b19c 1bbc 600b e3bc 3d5f 183d
000001c0: 805e 04bb 36df acbd 5229 49bc 2f46 30bd
000001d0: 528f 763d a8b8 ac3c 557b 8fbd a01b 98bc
000001e0: bf1a ff3d 16a1 9c3d 0c09 abbd 3bfc 21bd
000001f0: b83f 5fbd f32f b2bc 2729 c1bd 6bd0 653d
00000200: a385 a5bd 94f4 bdbd ab2c 16be 77a1 823d
00000210: fd21 be3d c48b e3bd 04c4 1fbe e8e7 bfbd
00000220: 44a5 44bd 1a2f d4bb 475b 0cbd d6a0 c6bc
00000230: eb52 85bd be5c 5cbb 52a4 97bd 1105 033d
00000240: 3dff 3a3d 8877 d5bc 3449 acbd 1f39 b2bd
00000250: 416d f2bd e8af 4c3d 5389 a0bd f4b6 d8bd
00000260: 0374 173e f337 793d 6643 5c3d 2393 853c
00000270: 36b5 20bd e62c 103d 2d65 db3d a366 513d
00000280: 18ab 42bd a5cb 9f3b ebac ae3d 506e b33b
00000290: e258 843d 77c2 1a3e 140d 3fbd ae66 87bd
000002a0: ce1f c03d 8f2b e43b a041 b33c f14d b63d
000002b0: 5576 edbd 5b0c a23c 107f bd3c e6bb 843d
000002c0: 745a e43d 0fe4 9a3d 7435 bb3d ed17 0a3d
000002d0: f30b 5dbd 58b7 e9bd 8f62 a73d 2a9b 97bd
000002e0: 2058 a6bd 4638 2abe f49c ccbd 80a9 67bd
000002f0: 6868 93bd 67e2 63bd e964 3c3c f22f a6bd
00000300: 3f92 08be 7509 313b 9f58 c2bd 51a2 eb3d
00000310: fde4 04be 1bfa 383b 8237 8cbd 79cb 3d3d
00000320: de98 7dbd 3c13 28bd a6c6 f63c 5a6a b3bb
00000330: f12e 4dbd d48e 31bc 7f43 0c3e 1c31 8d3d
00000340: 6217 b83d 5eae 0a3e c3ef 143e 830c eebc
00000350: 5c60 18bd c636 d13d 9d62 6a3c 04f2 6ebc
00000360: 4019 913d 555e c13d c503 ea3c b555 69bd
00000370: 7fe9 ef3d 106c 46bd 1589 dc3d 1b87 473d
00000380: 3641 cabd af2a dabd 11a8 673c 784d acbd
00000390: 28c9 d93c 40a7 7ebd 8847 a9bc 8e23 aabd
000003a0: ea46 bc3d 3d83 f5ba 681d 71bd b1c6 a43d
000003b0: 9e58 8c3c c7dd abbc 8ec1 913d 3e6b 7abd
000003c0: 109a 3e3c 150b b13d 3b3d 493d bf7e 2d3d
000003d0: 821a 0abe 0a78 b9bd 4f1a c13d 1007 0fbd
000003e0: e096 f83d b236 7cbd 9c70 2a3d deba 4fbd
000003f0: cf3a e8bd 1f06 6e3d 3fbf 563c 534f 513d
-0.028404588 0.110749476 -0.1292387 0.03965478 0.057691745 -0.00044592543 -0.04653904 -0.097609356
0.095982246 0.13187085 -0.12477825 0.052243356 0.004175161 0.18741892 -0.00014147739 0.018782912
0.0031309454 -0.02796806 0.100463204 -0.03185749 0.040555436 -0.08722128 -0.05977242 -0.0084448615
0.15377647 -0.0584406 -0.10220555 0.012093186 0.020478377 0.07726625 0.07130655 -0.12080479
-0.005846292 0.19373715 -0.017140992 0.0010221184 -0.037871733 0.035568047 0.03695257 0.016288215
-0.07255824 -0.11189456 0.002225548 -0.010976178 -0.0024631352 0.04208453 -0.10178381 0.07351955
0.09868027 -0.094349705 0.062648125 -0.013585323 0.027320025 0.023719281 -0.09824239 0.066703424
-0.09029529 0.076946616 -0.08259459 0.081539 -0.10902073 0.066969305 -0.001824545 -0.07576585
-0.027940217 0.048402485 -0.079485424 -0.032542013 -0.0999416 -0.105818816 0.040197697 0.032205224
0.0074490407 -0.054215703 0.02982688 0.021254763 0.09083497 -0.06299439 -0.101843916 -0.08765409
0.06935744 0.065610096 -0.0008759443 -0.048973605 -0.08595049 0.032028362 0.07254622 0.034109883
-0.2084129 -0.09614553 0.08816898 -0.10848222 -0.06593118 -0.03529775 -0.0138921235 0.0031870906
-0.04260987 0.010826299 0.04833326 0.0038320655 -0.096924916 -0.053316087 0.027589262 -0.01788932
0.027975032 0.0054866783 0.048608467 -0.027381487 -0.007264128 -0.009497807 -0.027715385 0.0372002
-0.0020197928 -0.084410116 -0.012277918 -0.043035682 0.060195275 0.021084145 -0.070059456 -0.01856786
0.12456273 0.07647912 -0.08351335 -0.039547186 -0.054504126 -0.02175138 -0.09431677 0.056106966
-0.0808213 -0.09275165 -0.14665477 0.06378453 0.092838265 -0.111106426 -0.15602118 -0.093704045
-0.048009172 -0.0064753415 -0.034266736 -0.024246614 -0.06509956 -0.0033624615 -0.074043885 0.031987254
0.04565357 -0.026057974 -0.084124 -0.08702301 -0.11837245 0.049972445 -0.078386925 -0.105817705
0.14790349 0.060844373 0.053775214 0.016305512 -0.039235316 0.03519907 0.10712657 0.051123273
-0.04752645 0.0048765712 0.08529075 0.0054757968 0.064622656 0.15113245 -0.04664333 -0.066113815
0.09381066 0.0069632004 0.021881878 0.08901585 -0.11594836 0.019781282 0.023131877 0.06481151
0.11150065 0.0756303 0.09141055 0.033714224 -0.053966474 -0.11411923 0.081730954 -0.07402642
-0.08122277 -0.16623029 -0.09990874 -0.056558132 -0.07197648 -0.055635836 0.011498668 -0.081146136
-0.13337038 0.0027013693 -0.094895594 0.11505569 -0.12977977 0.0028225246 -0.06846525 0.046336625
-0.061913364 -0.04103397 0.03012402 -0.0054753246 -0.050093595 -0.010837276 0.13697623 0.068941325
0.08988835 0.13543078 0.14544587 -0.0290587 -0.03720127 0.10215525 0.014305738 -0.014584068
0.07084894 0.094418205 0.02856625 -0.056966502 0.11714458 -0.0484429 0.10768334 0.04871283
-0.09875719 -0.106526725 0.014139191 -0.084132135 0.026585177 -0.06217122 -0.020663992 -0.08307563
0.09193213 -0.0018731129 -0.058865935 0.0804571 0.0171321 -0.020979775 0.07116996 -0.06113743
0.011633411 0.08644692 0.04913066 0.042357203 -0.13486674 -0.09056099 0.09428846 -0.034918845
0.12138152 -0.0615756 0.0416113 -0.05071532 -0.11339342 0.058111306 0.01310712 0.05110104

bias f4 [32]
00000000: 01be 9b3d 6e1a ca3d a17d fb3d 7edf 243d
00000010: d4d9 9abb 3159 b73d c740 95bd 232a 803d
00000020: 743e 6d3d 1e26 aabd c324 f93d 6116 b0bc
00000030: a321 5e3d 5135 ddbd b6f4 b83d 09b2 6b3d
00000040: 8e7f 0d3d 41a2 09be 293a aabd 7086 cc3d
00000050: 4f9e d23d 2171 403d 0abd 9c3d 681b 113d
00000060: 5062 39bd f85c d63d ca68 e5b9 f0ab c33d
00000070: 4e1d dfbd 48c5 d6bd 5299 af3d 4d9e 08be
0.076046 0.09868322 0.12279821 0.0402522 -0.004725674 0.08952559 -0.07287746 0.06258037
0.057920888 -0.083080515 0.12165215 -0.021495046 0.054231297 -0.10801185 0.0903105 0.057542834
0.034545474 -0.13440801 -0.083118744 0.099865794 0.10284101 0.046982888 0.07653244 0.035426527
-0.045259774 0.10466951 -0.00043756358 0.09554279 -0.10894261 -0.10486847 0.085741654 -0.13341637

weight f4 [6, 32]
00000000: 73e0 3bbd 6d45 fb3d 6b56 a33d f4fb b8bd
00000010: 7c2c 08be c50d 163c 7080 e63b b951 543d
00000020: 63e5 8ebd 1a36 673c 13a5 023e cd3f b1bd
00000030: 8b83 61bd 4f6a 9f3d 93b7 fabd c5fa 563d
00000040: ac92 023c aad6 133e 36cd b8bd fb5e fc3c
00000050: b329 933d 524f 90bd 5054 91bd fb41 b2bd
00000060: b0be fb3c 7aa6 153e 42db 3f3d e162 d03d
00000070: aa91 273d 7d02 38bb 0911 59bd 3b70 073e
00000080: e6c1 a3bc e44c 853d 8a62 4abe 3337 2ebd
00000090: f7f6 bc3d 0837 2f3e d73a c53d 0898 8ebe
000000a0: 66f1 46bc bf4b d43d 3a60 9e3d 5880 d13d
000000b0: d080 633d 8fd5 adbd 4b53 e83d cda4 ae3d
000000c0: 3703 c03d cf80 b2bd 0c3f cebd 6980 6cbd
000000d0: 4a0b 543c ac0d c7bd 7ab8 043e 37a9 783d
000000e0: ca09 e7bd 22cd a5bd 6d5a 093d f3a8 c3bd
000000f0: fd08 85bd 89c2 efbd 229b d2bd 39db c6bd
00000100: 3606 1e3e a079 be3d 47e9 3f3e 0a71 0fbe
00000110: 7610 46be 0643 003e b735 303e 5be4 84bd
00000120: 67b0 02be 2997 bd3d 22b5 1ebe ee59 443e
00000130: 994c 2abc 7b9c 063d a935 003c bac3 06be
00000140: 8cab 573d cb7d d33c e961 07bd 5f3c 8cbd
00000150: 1e53 183e fd70 283e 33cb c13d 4dda 0f3e
00000160: 6f6b a8bd 09eb 013e 1eec c03d 67d0 7c3d
00000170: 9c57 87bd 6e74 2fbe b90f 933d 117f ac3d
00000180: 0792 ce3d aa53 8b3d 3a96 a23d f6e0 b13c
00000190: 147e 873d 2317 92bd 0d6d 32bc 5508 e5bd
000001a0: 25ea 73bc bfe8 253e 73a8 b4bb 2f06 7ebd
000001b0: 084f 883d 1e7c fa3b 1a9e f7bc 9de0 abbb
000001c0: c784 79bc c6b1 62bd 3102 4e3d 9360 0cbd
000001d0: e0c4 a1bd b29b af3d b8b9 90bd 6c4e a03d
000001e0: 43f6 353d be68 8a3d c600 2e3d 9369 b33d
000001f0: d07f 353e 7ce5 063b 7127 03bd 5a85 dbbb
00000200: 133b 8cbd 0574 a2bc 598d fd3d 1d5b 06be
00000210: 34c1 98bd aa93 1b3d 29ed 09be 74a9 9ebc
00000220: 45b0 a73d ef41 31bc 9f41 593d 337c d6bb
00000230: a6a7 bbbc 4812 ec3d c1c5 4bbc 5d52 013d
00000240: a5f5 133e 71ae 273e 6c0c 6fbd 759e b4bd
00000250: f24f 54bd 52e8 243e 0251 143e 7b74 4dbd
00000260: d8be 1dbe 506a e3bd fd85 153e f3d8 ad3c
00000270: 8e60 21be 4945 cd3c 007a ce3d 53d6 e23d
00000280: cdd4 c03d a92f 30bc c3ce b13c 2d55 e03d
00000290: 8617 1a3d 8e1c 04be 1030 79bd 87ff a7bd
000002a0: 03ad 083e 74af 18bd 44aa 5f3d d262 89bd
000002b0: 8f10 10be 89cd b5bc 8ab6 86bd 4780 683d
000002c0: c416 05bd b9e4 173e 43b3 d0bd bc41 163d
000002d0: 0007 b7bd 17ff 26be 2b46 d83c c3d8 97bd
000002e0: 00ea 36bc 0185 9bbd cb77 45bd 34ee e3bd
000002f0: 5e6c 0b3d 308f 4ebc b833 f23c fb89 90bc
-0.04586835 0.12269101 0.07975467 -0.09032431 -0.1329822 0.009158556 0.007034354 0.05183575
-0.06977346 0.01411202 0.12758283 -0.08654747 -0.05505709 0.07783949 -0.12242045 0.052485246
0.00796954 0.14437357 -0.09023516 0.030807009 0.07185688 -0.07046379 -0.070961595 -0.08703991
0.030730575 0.14614287 0.04683996 0.1017511 0.0409104 -0.0028077655 -0.05299476 0.13226406
-0.019989919 0.06508806 -0.19764152 -0.04253311 0.09226792 0.17110837 0.096303634 -0.27850366
-0.012142515 0.1036601 0.077331975 0.10229558 0.055542767 -0.08487999 0.11344012 0.08527527
0.09375613 -0.087159745 -0.10070619 -0.05773965 0.012942145 -0.097194046 0.12960997 0.06070825
-0.11281164 -0.080957666 0.033533502 -0.09553709 -0.06495855 -0.117070265 -0.102834955 -0.09709782
0.15432057 0.09300542 0.18741332 -0.14007965 -0.19342217 0.12525567 0.1720799 -0.06488868
-0.12762605 0.09257347 -0.15498784 0.1917493 -0.010394239 0.032864075 0.007825294 -0.13160601
0.052653834 0.025816819 -0.03305236 -0.06847452 0.14875457 0.16449352 0.09462585 0.14048119
-0.08223616 0.12687315 0.09420036 0.061722185 -0.06608507 -0.17134258 0.07180733 0.084226735
0.10086446 0.06803067 0.0793881 0.021713715 0.06615844 -0.07133319 -0.010890258 -0.1118323
-0.014887367 0.16202067 -0.005513245 -0.062017616 0.06655699 0.0076441905 -0.030226756 -0.005245282
-0.0152294105 -0.05534532 0.05029506 -0.034271788 -0.07898879 0.085746184 -0.07066673 0.07827458
0.044424307 0.06758259 0.042481206 0.08760371 0.17724538 0.002058356 -0.032020036 -0.0066992464
-0.06847205 -0.019830713 0.123804756 -0.13120694 -0.074587256 0.03798262 -0.13469376 -0.01936791
0.081879176 -0.010818942 0.053041097 -0.0065455674 -0.02290709 0.11526924 -0.012437285 0.03157269
0.14449175 0.16375138 -0.058361456 -0.08819286 -0.051834054 0.16104248 0.14484027 -0.050159913
-0.15404832 -0.11104262 0.14601894 0.021221614 -0.15759489 0.025057452 0.100818634 0.11076035
0.094155885 -0.010753551 0.021705037 0.10953746 0.03762009 -0.12901518 -0.06083685 -0.08203035
0.13347249 -0.0372767 0.054605737 -0.067083016 -0.14068817 -0.022192733 -0.06577785 0.05676296
-0.032492414 0.14833345 -0.101904415 0.036683783 -0.08936882 -0.16308247 0.026400646 -0.07414391
-0.011164188 -0.07593728 -0.048209947 -0.11129418 0.034038894 -0.012607381 0.029565677 -0.01764392

bias f4 [6]
00000000: 6d35 c4bd b3b6 95bd e16e b93d 1bf1 71bc
00000010: a179 9cbd 7e06 f3bb
-0.09580503 -0.07310238 0.090543516 -0.014766957 -0.076403864 -0.0074165454
