SwarmNet - PyTorch/models/model_in_progress_2.pkl (torch, 80187 bytes, 14 tensors)

weight f4 [32, 7, 3]
-0.17403564 -0.0827887 0.000955212 0.16158527 -0.18810411 0.09150026 0.06749022 -0.09798402
0.060504846 -0.11438325 -0.0818063 -0.18195894 0.016375594 -0.13530043 -0.092148386 0.04836952
0.03572524 0.20452027 0.09227052 0.13840286 0.03312172 -0.15568428 -0.0015506169 -0.09167091
0.14925218 -0.17415029 0.08251478 -0.17742124 -0.041681774 -0.014048763 -0.05793922 -0.11455471
-0.22934563 0.20898843 0.0041641025 -0.07587897 -0.013349753 0.12739468 -0.22528398 0.15079801
0.1449782 -0.22413488 0.13851568 0.16337651 -0.048816927 -0.0064563695 -0.017920654 0.09485437
-0.17318988 0.18170857 0.07568954 -0.22453354 0.07670025 -0.026441235 0.028676232 0.22158167
-0.100257106 0.25016978 0.16508183 0.17967506 0.051416967 -0.14681233 -0.14755636 0.17203784
-0.00060479995 0.07349177 0.08560674 -0.1692291 0.12855524 -0.04845567 0.06805418 0.094329104
-0.14267024 -0.17665271 0.020301083 -0.23195969 -0.16520484 -0.111198 0.19267024 -0.15221491
0.20501128 0.101754524 -0.10414063 -0.17665698 -0.12573029 -0.13205338 -0.053575505 -0.013221661
-0.034571607 0.14396879 -0.16103774 0.06180964 -0.016662603 0.25547326 0.08531888 -0.07509869
-0.24889278 0.018648386 0.010345669 -0.042656254 0.018112391 0.17063174 0.09894244 0.06959391
0.12223728 -0.02299914 0.048888683 -0.010157723 0.099502206 0.16971292 -0.20497419 -0.19766419
0.10436723 -0.048770256 -0.2212515 -0.14807333 -0.18290353 -0.17750068 -0.04743537 -0.1746684
-0.07665661 0.133965 -0.16265488 0.1010587 0.19768508 0.068655096 0.19668774 -0.044694092
-0.18347317 0.18392628 -0.19698904 0.003595775 -0.08487595 -0.05085802 -0.001274287 0.02176811
0.13966945 0.14472401 0.047872487 0.0657105 -0.12338015 -0.10414903 0.03566691 0.14442989
-0.15939945 -0.044007994 0.06731807 0.029045837 -0.09842458 -0.18507576 -0.01373432 -0.054116715
-0.07513033 0.16455178 -0.121095724 -0.117184296 0.14737901 0.20437112 -0.010270485 -0.16664144
0.1848344 -0.23409057 0.1722663 -0.063382454 -0.019435644 0.12832297 0.18332207 0.20020622
-0.09066393 -0.10476738 -0.1725923 0.028650077 0.01633993 0.14509878 0.013099973 -0.17591529
-0.15426596 -0.1457254 -0.10322021 -0.1966201 0.010637417 0.2811153 0.2617731 -0.046470977
0.13847083 0.11021114 -0.036849577 0.10823238 -0.13176206 -0.06632435 -0.02783337 0.021951701
-0.025052318 0.114156865 0.026687624 -0.21963511 0.0662078 0.17804652 0.071266286 0.14051884
-0.115571044 -0.11807473 -0.08234008 -0.2023458 0.16619605 0.029258236 -0.18570337 0.17212176
0.08494195 0.20566127 -0.10204793 -0.08659984 -0.07783516 -0.11882889 0.04050605 -0.0027466237
-0.14793335 -0.06540142 -0.18968472 -0.15089072 0.03646968 -0.26788798 -0.1855246 -0.11852842
-0.04601726 0.10968835 -0.024998754 0.13955884 -0.079979524 0.08123209 0.08782749 -0.07570599
-0.1679927 -0.06507545 -0.11656072 0.11555938 -0.10053596 0.067340404 -0.072780564 0.14565484
0.04320465 0.06747878 0.1640126 0.10783423 -0.2400626 0.06545578 0.08517356 -0.13121538
0.0929598 0.05720044 0.0964137 -0.1528386 -0.14550643 0.16183035 0.006348162 -0.030838342
00000000: 6636 32be 1f8d a9bd 3167 7a3a 9c76 253e
00000010: 5d9e 40be 7d64 bb3d 5038 8a3d d9ab c8bd
00000020: eed3 773d c441 eabd 108a a7bd 7253 3abe
00000030: 1c26 863c 328c 0abe 4bb8 bcbd 1e1f 463d
00000040: a154 123d c36d 513e 54f8 bc3d 7bb9 0d3e
00000050: a4aa 073d b36b 1fbe 123e cbba f5bd bbbd
00000060: 90d5 183e 7454 32be 82fd a83d eaad 35be
00000070: 82ba 2abd c82c 66bc ad51 6dbd a99b eabd
00000080: 95d9 6abe 1001 563e 0673 883b 6f66 9bbd
00000090: ecb8 5abc c073 023e d8b0 66be cb6a 1a3e
000000a0: 2a75 143e 9d83 65be 0ed7 0d3e 2c4c 273e
000000b0: 42f4 47bd f48f d3bb 56ce 92bc 0243 c23d
000000c0: b058 31be d011 3a3e 1e03 9b3d 1fec 65be
000000d0: 0515 9d3d 4a9b d8bc 6bea ea3c 4ee6 623e
000000e0: 9953 cdbd 4116 803e 360b 293e bdfc 373e
000000f0: 999a 523d f955 16be 0419 17be b02a 303e
00000100: 708b 1eba da82 963d 9652 af3d 654a 2dbe
00000110: fca3 033e 7479 46bd fd5f 8b3d 9e2f c13d
00000120: 2618 12be 73e4 34be 754e a63c d786 6dbe
00000130: 752b 29be c7bb e3bd 594b 453e 3ade 1bbe
00000140: 7aee 513e ad64 d03d af47 d5bd 91e5 34be
00000150: 71bf 00be 0039 07be fd71 5bbd aa9f 58bc
00000160: f59a 0dbd 8e6c 133e 14e7 24be 1b2c 7d3d
00000170: 0380 88bc 64cd 823e aabb ae3d 58cd 99bd
00000180: c0dd 7ebe 80c4 983c e280 293c 53b8 2ebd
00000190: 7060 943c 16ba 2e3e 55a2 ca3d 4087 8e3d
000001a0: 8a57 fa3d b168 bcbc 803f 483d 946c 26bc
000001b0: d0c7 cb3d 39c9 2d3e c1e4 51be 7b68 4abe
000001c0: 7cbe d53d 52c3 47bd c18f 62be 89a0 17be
000001d0: 104b 3bbe bdc2 35be 974b 42bd 46dc 32be
000001e0: 24fe 9cbd 1f2e 093e 008f 26be ddf7 ce3d
000001f0: f56d 4a3e 0b9b 8c3d 8368 493e 2711 37bd
00000200: 64e0 3bbe 2c57 3c3e 7fb7 49be 18a7 6b3b
00000210: 71d3 adbd 8050 50bd fa05 a7ba 0953 b23c
00000220: 8205 0f3e 8832 143e f115 443d 3a93 863d
00000230: bbae fcbd 164c d5bd 7717 123d 6ee5 133e
00000240: 9c39 23be ba41 34bd 0ede 893d 89f1 ed3c
00000250: d492 c9bd 8084 3dbe ea05 61bc 7da9 5dbd
00000260: eedd 99bd 4380 283e 0901 f8bd 52fe efbd
00000270: 86ea 163e aa46 513e 8945 28bc 0ea4 2abe
00000280: 3b45 3d3e 70b5 6fbe 9466 303e a9ce 81bd
00000290: 8037 9fbc 1967 033e c8b8 3b3e dc02 4d3e
000002a0: 03ae b9bd 4890 d6bd 09bc 30be 91b3 ea3c
000002b0: 51db 853c c694 143e 45a1 563c 2323 34be
000002c0: e5f7 1dbe 0a39 15be 1e65 d3bd c856 49be
000002d0: 9048 2e3c 58ee 8f3e 2007 863e 5a58 3ebd
000002e0: 4ccb 0d3e 61b6 e13d 95ef 16bd f0a8 dd3d
000002f0: a2ec 06be 10d5 87bd cf02 e4bc 0ed4 b33c
00000300: 853a cdbc 13cb e93d 01a0 da3c 07e8 60be
00000310: f497 873d d451 363e 0ff4 913d 2ce4 0f3e
00000320: 83b0 ecbd 2ad1 f1bd eaa1 a8bd bd33 4fbe
00000330: 4c2f 2a3e f8ae ef3c 0629 3ebe b040 303e
00000340: 0cf6 ad3d de98 523e 81fe d0bd 425b b1bd
00000350: 0a68 9fbd 905c f3bd ace9 253d b300 34bb
00000360: d77b 17be 2ef1 85bd b63c 42be 1983 1abe
00000370: 3b61 153d 9d28 89be 29fa 3dbe 07bf f2bd
00000380: 987c 3cbd 49a4 e03d 30ca ccbc 83e8 0e3e
00000390: 4ecc a3bd 035d a63d e6de b33d be0b 9bbd
000003a0: 4706 2cbe 4746 85bd 63b7 eebd 65aa ec3d
000003b0: cce5 cdbd c4e9 893d fa0d 95bd 8b26 153e
000003c0: 5cf7 303d 5132 8a3d ebf2 273e 31d8 dc3d
000003d0: f8d2 75be ae0d 863d 7a6f ae3d 535d 06be
000003e0: b561 be3d 024b 6a3d 8c74 c53d b981 1cbe
000003f0: a3ff 14be dbb6 253e 3e04 d03b b1a0 fcbc

bias f4 [32]
0.08445918 -0.028604781 0.15295821 0.20951194 -0.04390698 -0.07680218 -0.11932854 0.09178234
0.14452384 0.047032535 -0.06606118 -0.16816467 0.11883203 -0.0031286576 -0.15985325 0.22146869
0.230238 0.029232357 0.046081245 -0.08083619 0.05743217 0.067428745 -0.20327722 -0.12920678
-0.20067507 0.20000798 -0.062495258 -0.07253504 -0.07109406 -0.19244416 -0.23035139 0.06686897
00000000: eff8 ac3d 9354 eabc 14a1 1c3e 4c8a 563e
00000010: ced7 33bd 764a 9dbd 8662 f4bd 61f8 bb3d
00000020: 0ffe 133e 30a5 403d 154b 87bd 5c33 2cbe
00000030: 355e f33d 2a0a 4dbb 92b0 23be b0c8 623e
00000040: 83c3 6b3e b278 ef3c b0bf 3c3d 728d a5bd
00000050: ff3d 6b3d 1518 8a3d e727 50be c84e 04be
00000060: c47d 4dbe e4ce 4c3e 07fb 7fbd 408d 94bd
00000070: c399 91bd 1510 45be 3ce1 6bbe 99f2 883d

weight f4 [64, 32, 3]
-0.04687356 0.06918016 0.003294159 0.024201453 0.0027677836 -0.046594705 0.028444575 0.043433577
-0.069417946 -0.015814248 -0.045552287 0.089712806 0.0020327803 -0.07903864 0.052826073 0.051282264
0.07582501 -0.042468797 -0.011800399 -0.10224167 0.05213617 0.093403585 0.04672982 -0.0048619662
0.05594539 0.03804963 0.065618575 -0.03191126 -0.10039306 -0.06348229 0.009656607 -0.10110258
0.040079996 -0.011092269 0.030127794 0.10214361 -0.025756406 0.003601621 0.006500911 -0.013373424
0.07070782 -0.11386754 -0.03217304 -0.056355245 0.06598001 -0.040796325 0.10403871 -0.047857698
0.003666867 -0.09311092 0.07256311 -0.047520943 0.0076519926 0.10849237 0.012498914 -0.061443675
-0.030988313 -0.06832848 0.07103721 0.02736109 -0.013100527 -0.014302039 -0.03468746 0.046920355
0.00249096 0.017794399 -0.0023638352 0.044096198 -0.00036289345 0.011991138 -0.037723713 0.017317481
-0.11690144 -0.026528643 0.052306235 -0.018847939 -0.040710542 0.051318623 0.09678782 0.053236835
0.018587718 -0.009951083 0.03450582 -0.10272034 0.043622345 -0.07760971 -0.07690149 0.07964636
-0.026832638 0.036284257 -0.06495683 0.05780705 0.058337122 0.041933138 0.04714367 -0.031715013
0.0400146 -0.057189956 -0.086432405 -0.07760382 0.05782097 -0.11781947 0.016705148 -0.07500675
0.05645358 -0.04061924 0.0911732 -0.009127209 0.015197111 -0.07315474 -0.023319427 -0.03176192
0.068077326 0.047609832 0.086745195 -0.058354273 0.010387576 -0.029084856 -0.18966931 -0.013381528
-0.115537114 -0.07648522 0.034729715 0.012603921 0.06964727 -0.07021864 0.08108066 -0.010705759
0.0037280258 0.082610324 0.07313137 -0.004366035 0.074728586 0.06238287 0.04406664 -0.079343036
0.06880725 0.059759784 -0.009652784 -0.0071813795 -0.08166517 -0.05300054 -0.03431154 0.071633145
0.11391824 -0.016369417 0.09580641 0.033426628 0.044333033 -0.09923071 0.029706096 0.012803463
-0.12110373 0.004602355 0.06876225 -0.029903045 -0.071699984 0.010947691 -0.048909143 -0.00063030515
0.008071623 -0.12976025 -0.09138225 -0.1181227 -0.08394389 -0.07827603 0.0109790675 0.035435632
-0.09749096 0.044258382 0.046921402 0.030178433 0.037009712 -0.02719727 0.0680653 -0.089896925
-0.019764097 0.036476985 0.049598906 -0.0907093 0.010917401 -0.032317653 0.007047061 0.01839639
-0.052016884 -0.013915004 -0.009564166 -0.0984568 -0.07878901 0.044705678 0.07176255 -0.04531655
-0.038432363 0.033284932 -0.06268673 -0.07230737 -0.05994844 0.06831838 0.07098142 0.06369706
0.047937147 0.0013404503 -0.032101024 0.002568996 0.006749879 -0.007195986 -0.02223281 0.091058336
0.046422277 -0.06896281 -0.0547697 0.08241235 0.009660181 0.05638062 -0.07494651 -0.024906663
0.05323365 0.05982754 0.0876464 -0.015117652 0.025076134 -0.03136165 0.06761948 0.012001803
0.07506555 0.052195396 0.024423221 0.13543573 0.0019251457 0.06749547 -0.05966304 -0.010821089
0.043778706 -0.061530888 0.052492555 -0.096584745 -0.03864197 -0.07589383 0.010576646 -0.04490762
0.032402113 -0.044620913 -0.07465897 -0.074260704 -0.032270513 0.087527685 -0.051414378 0.022428358
0.044325948 -0.06469301 -0.09053215 -0.03213834 0.06615004 -0.097665794 -0.08599468 0.026736256
00000000: 7dfe 3fbd 54ae 8d3d d1e2 573b 2042 c63c
00000010: b463 353b 17da 3ebd 9904 e93c 68e7 313d
00000020: ff2a 8ebd e28c 81bc 0995 3abd 59bb b73d
00000030: 6538 053b 03df a1bd 2760 583d 5a0d 523d
00000040: 254a 9b3d c3f3 2dbd 7656 41bc 1564 d1bd
00000050: bd8c 553d 614a bf3d c567 3f3d 2151 9fbb
00000060: fe26 653d eed9 1b3d 0863 863d 62b5 02bd
00000070: e09a cdbd 0103 82bd bf36 1e3c df0e cfbd
00000080: ec2a 243d 59bc 35bc 90ce f63c ab30 d13d
00000090: 19ff d2bc 2c09 6c3b 9805 d53b 351c 5bbc
000000a0: 43cf 903d 6333 e9bd e1c7 03bd c2d4 66bd
000000b0: 8720 873d 0c1a 27bd 3f12 d53d 6f06 44bd
000000c0: d24f 703b f0b0 bebd f89b 943d 52a5 42bd
000000d0: 91bd fa3b 3f31 de3d 3fc8 4c3c 5dac 7bbd
000000e0: 34db fdbc cdef 8bbd f57b 913d 5d24 e03c
000000f0: 98a3 56bc 1953 6abc 7014 0ebd 8f2f 403d
00000100: 603f 233b 8fc5 913c 93ea 1abb 379e 343d
00000110: bc42 beb9 7a76 443c 2e84 1abd 64dd 8d3c
00000120: 066a efbd 9952 d9bc 103f 563d fe66 9abc
00000130: 19c0 26bd 7a33 523d b138 c63d de0e 5a3d
00000140: 4545 983c de09 23bc fa55 0d3d 0b5f d2bd
00000150: 58ad 323d d7f1 9ebd 877e 9dbd a11d a33d
00000160: 1fd0 dbbc cd9e 143d 1608 85bd 16c7 6c3d
00000170: e8f2 6e3d 15c2 2b3d b919 413d 9ae7 01bd
00000180: 59e6 233d 0440 6abd 7903 b1bd c0ee 9ebd
00000190: aed5 6c3d 564b f1bd 3cd9 883c 249d 99bd
000001a0: de3b 673d 5c60 26bd 04b9 ba3d 4a8a 15bc
000001b0: 4efd 783c 27d2 95bd 6208 bfbc c918 02bd
000001c0: 206c 8b3d 8702 433d 77a7 b13d e404 6fbd
000001d0: a730 2a3c 5d43 eebc ac38 42be 323e 5bbc
000001e0: b99e ecbd 48a4 9cbd bf40 0e3d ad80 4e3c
000001f0: 3aa3 8e3d cace 8fbd 9e0d a63d 3567 2fbc
00000200: e551 743b 9a2f a93d e6c5 953d f510 8fbb
00000210: 4d0b 993d 2e85 7f3d 397f 343d 9a7e a2bd
00000220: d1ea 8c3d adc6 743d b626 1ebc c751 ebbb
00000230: 1240 a7bd 1817 59bd 428a 0cbd 66b4 923d
00000240: f74d e93d 2819 86bc 2736 c43d 5cea 083d
00000250: 8e96 353d 7839 cbbd 335a f33c 9ec5 513c
00000260: 3b05 f8bd 5acf 963b 39d3 8c3d 3bf7 f4bc
00000270: 71d7 92bd f25d 333c f454 48bd 103b 25ba
00000280: d73e 043c dfdf 04be 9e26 bbbd 50ea f1bd
00000290: c6ea abbd 2f4f a0bd 8ce1 333c f424 113d
000002a0: 57a9 c7bd 4748 353d a830 403d c338 f73c
000002b0: 7f97 173d cfcc debc d265 8b3d e11b b8bd
000002c0: 51e8 a1bc e468 153d 3928 4b3d ccc5 b9bd
000002d0: e6de 323c 845f 04bd 08eb e63b 07b4 963c
000002e0: a80f 55bd c2fb 63bc 05b3 1cbc b8a3 c9bd
000002f0: 225c a1bd 4d1d 373d 3ef8 923d d99d 39bd
00000300: 416b 1dbd c855 083d e661 80bd e315 94bd
00000310: 7f8c 75bd 82ea 8b3d b55e 913d 9b73 823d
00000320: be59 443d 0cb2 af3a 5d7c 03bd 9a5c 283b
00000330: 172e dd3b 4ecc ebbb 9521 b6bc cb7c ba3d
00000340: 4925 3e3d 603c 8dbd 3156 60bd cec7 a83d
00000350: bc45 1e3c 5def 663d 8e7d 99bd 0f09 ccbc
00000360: 870b 5a3d b90d 753d f57f b33d 07b0 77bc
00000370: 776c cd3c 1375 00bd 157c 8a3d 36a3 443c
00000380: f8bb 993d d7ca 553d 3513 c83c aaaf 0a3e
00000390: 2c55 fc3a 113b 8a3d 3b61 74bd f04a 31bc
000003a0: 4d51 333d d007 7cbd 6f02 573d 39ce c5bd
000003b0: 0b47 1ebd 396e 9bbd ab49 2d3c 0df1 37bd
000003c0: 14b8 043d 6bc4 36bd cde6 98bd ff15 98bd
000003d0: 162e 04bd b741 b33d e297 52bd adbb b73c
000003e0: 208f 353d c57d 84bd eb68 b9bd 7ea3 03bd
000003f0: ac79 873d 0105 c8bd fb1d b0bd fe05 db3c

bias f4 [64]
-0.06821538 -0.037134208 0.024271924 0.09523489 -0.0072199963 0.10020319 0.0038150174 -0.016280605
0.075585306 0.015658544 -0.053509824 -0.0747515 -0.063979045 -0.01884503 -0.0457388 -0.041860886
-0.015272849 -0.01803629 0.029010946 0.050774716 0.04454633 0.09749603 -0.07079559 -0.0649522
-0.017650245 0.010625817 -0.020072423 0.041985154 0.031545803 -0.09774732 0.052706126 0.083369344
-0.038247526 0.09026547 -0.03974982 0.03480593 0.03588224 -0.019681394 -0.09963842 0.07561236
-0.0036383213 -0.020093614 -0.050702885 -0.013287995 -0.01412362 -0.036495086 0.06536682 -0.09175835
0.031959064 -0.008857443 0.070923306 0.011521621 -0.01778722 -0.018885288 0.07038986 0.05645026
0.012434233 -0.08602427 -0.0066023953 0.037695616 0.10461825 -0.121452466 -0.061456796 -0.016316874
00000000: 81b4 8bbd 0a1a 18bd ead5 c63c 830a c33d
00000010: b895 ecbb 5537 cd3d 5f05 7a3b e75e 85bc
00000020: 78cc 9a3d 5946 803c 1e2d 5bbd 5017 99bd
00000030: 7207 83bd e460 9abc 9c58 3bbd 5276 2bbd
00000040: f93a 7abc d7c0 93bc 5da8 ed3c 26f9 4f3d
00000050: 3676 363d 00ac c73d 47fd 90bd a905 85bd
00000060: 3f97 90bc e817 2e3c ec6e a4bc a0f8 2b3d
00000070: 2c36 013d bf2f c8bd 61e2 573d 8cbd aa3d
00000080: 70a9 1cbd 1add b83d b5d0 22bd aa90 0e3d
00000090: 41f9 123d e03a a1bc 3a0f ccbd a7da 9a3d
000000a0: e770 6ebb 5d9b a4bc d4ad 4fbd e4b5 59bc
000000b0: c266 67bc df7b 15bd 0adf 853d cdeb bbbd
000000c0: 82e7 023d cf1e 11bc 3d40 913d 2ec5 3c3c
000000d0: 81b6 91bc 52b5 9abc 8f28 903d 6338 673d
000000e0: f4b8 4b3c 7e2d b0bd e858 d8bb b866 1a3d
000000f0: 1842 d63d 12bc f8bd 1fba 7bbd f7aa 85bc

weight f4 [32, 64, 3]
0.041421827 -0.041205153 0.016815858 -0.05184893 -0.049582876 0.04384055 0.05685916 -0.07334895
0.044044092 -0.014053615 0.04564752 0.062242992 -0.02801263 0.020973345 0.06365297 -0.0011842505
-0.02654304 0.038765844 -0.0618868 -0.017006401 -0.003711666 0.06270836 -0.022179253 0.00031154367
-0.030368606 -0.062698 -0.007212211 -0.026615525 0.042660296 -0.02168682 -0.061407663 -0.009472138
-0.06742162 -0.05272203 0.0036900726 -0.029719686 0.033677142 -0.03423098 0.078515016 -0.054291964
0.042059965 0.022916397 -0.058284122 0.040293265 -0.059122197 0.015172879 -0.029067077 -0.012962249
-0.018603455 0.035290156 -0.047218375 0.059103794 0.06317732 -0.06390977 0.043773383 0.04971381
-0.0533229 -0.064642444 0.034074236 0.008333039 -0.019844545 0.033375297 0.0037171792 0.01413432
0.048027083 -0.059129845 0.053466808 0.038920034 -0.019551476 -0.003967814 0.022281887 0.059032448
0.048701413 0.036334787 -0.042585604 -0.0056629465 0.02448889 0.055649966 -0.031388685 0.039958287
-0.0638868 0.053605985 0.068382025 -0.052818544 0.06745972 0.055581883 -0.056499656 -0.093865775
0.03260516 -0.08652905 0.042873688 -0.04813712 0.072520934 -0.018526416 0.043783054 0.03865799
0.033415385 0.03317836 0.0443234 0.041114934 0.00025381887 0.05472735 -0.03736747 0.03838835
-0.04972982 -0.06693855 -0.0103967395 0.068842515 -0.008677833 -0.022716256 0.03174112 0.04212113
-0.035452455 0.045657787 -0.0034533776 0.03332137 0.029462097 0.058262043 -0.039591607 -0.07613461
0.029415842 -0.040127087 -0.018062735 0.049618453 0.014500638 -0.040244754 0.05398992 0.025833804
0.0717665 -0.015245857 0.06001755 0.039527256 -0.026726207 0.05536575 0.00927717 0.00900895
-0.04036402 0.025784362 -0.016518652 0.0714129 0.024246266 0.048075065 0.054575335 0.04911557
-0.06785453 -0.036229085 -0.03882694 -0.033903293 0.035729088 -0.035581253 0.06353039 0.022894884
-0.05221636 0.0011986474 0.03729331 0.022654109 -0.05597902 -0.03872868 0.024354523 -0.00782808
-0.036615375 0.017652089 0.022714593 -0.020992508 -0.07486931 0.008193035 -0.018789424 -0.046252474
0.031581815 -0.06457944 0.025702182 -0.042114824 -0.033006657 -0.033222668 -0.02991307 0.025813637
0.013407071 -0.008368629 0.027315909 -0.0345391 -0.0485367 0.019450285 -0.01577621 0.026587112
-0.03158672 0.030041454 -0.06945689 0.05945338 0.056284092 -0.0423684 0.0272469 -0.020827265
-0.005135002 0.00046693097 0.07883508 -0.019081755 0.01859729 -0.04901855 -0.0198023 0.044134676
-0.0009488088 0.0035308849 0.03954818 0.0013273311 0.0053522917 -0.059284534 -0.07424237 0.024281371
0.017100874 0.02426124 0.04847427 0.021429516 0.103702456 0.03637767 -0.010220915 0.046782423
-0.009440291 0.049679454 0.08677555 -0.039311573 -0.0738918 0.0058773225 0.07420281 0.0137916375
0.071662836 -0.018711582 -0.03203119 -0.055395942 -0.07439081 -0.08741984 -0.009953147 -0.01609164
-0.024086716 -0.011262779 -0.062386885 0.057729475 -0.04143299 0.013673745 -0.009864589 0.0058492655
-0.06579296 0.08230772 -0.042569738 0.0057599554 -0.09900987 0.0144210495 -0.06358016 0.04024292
-0.09680244 0.058099717 0.04158373 -0.06676607 0.028242998 0.09889048 0.05384947 -0.034249596
00000000: efa9 293d bcc6 28bd 69c1 893c 8b5f 54bd
00000010: 6a17 4bbd 2692 333d 27e5 683d f937 96bd
00000020: 9467 343d 2241 66bc e5f8 3a3d 82f2 7e3d
00000030: be7a e5bc 4bd0 ab3c 7d5c 823d da38 9bba
00000040: ca70 d9bc efc8 1e3d 037d 7dbd 0251 8bbc
00000050: 6c3f 73bb 3e6d 803d 44b1 b5bc af56 a339
00000060: 95c7 f8bc cf67 80bd 6954 ecbb cd08 dabc
00000070: 90bc 2e3d 8fa8 b1bc 9a86 7bbd 0731 1bbc
00000080: 5914 8abd 0ef3 57bd 25d5 713b b376 f3bc
00000090: 0bf1 093d c935 0cbd 7bcc a03d 4061 5ebd
000000a0: 1247 2c3d 2bbb bb3c 55bb 6ebd 8d0a 253d
000000b0: 1e2a 72bd ab97 783c 141e eebc 9d5f 54bc
000000c0: 4666 98bc 698c 103d 0e68 41bd d216 723d
000000d0: 1c63 813d 20e3 82bd b84b 333d b5a0 4b3d
000000e0: 1d69 5abd 4263 84bd 6d91 0b3d 4c87 083c
000000f0: 0791 a2bc 89b4 083d eb9b 733b a393 673c
00000100: 0cb8 443d 2332 72bd 0300 5b3d 9d6a 1f3d
00000110: 6b2a a0bc 7004 82bb 8188 b63c 02cc 713d
00000120: 227b 473d c9d3 143d 3e6e 2ebd 3d90 b9bb
00000130: ed9c c83c 38f1 633d 6c91 00bd 4dab 233d
00000140: 15d7 82bd f391 5b3d e00b 8c3d 4258 58bd
00000150: 5228 8a3d d4a9 633d 2f6c 67bd b33c c0bd
00000160: fd8c 053d 2436 b1bd 529c 2f3d 6e2b 45bd
00000170: db85 943d b6c4 97bc dc55 333d d757 1e3d
00000180: 92de 083d 08e6 073d 748c 353d 2268 283d
00000190: fe12 8539 c929 603d a20e 19bd 1a3d 1d3d
000001a0: 7fb1 4bbd 1417 89bd 1657 2abc 4efd 8c3d
000001b0: 782d 0ebc 7117 babc fa02 023d 3587 2c3d
000001c0: 9836 11bd a903 3b3d 1052 62bb fd7b 083d
000001d0: 7f5a f13c 2ea4 6e3d cf2a 22bd 76ec 9bbd
000001e0: 7ef9 f03c 4d5c 24bd 4df8 93bc b83c 4b3d
000001f0: 1594 6d3c afd7 24bd 8924 5d3d 6aa1 d33c
00000200: 51fa 923d c2c9 79bc f6d4 753d 55e7 213d
00000210: ebf0 dabc 32c7 623d 45ff 173c 469a 133c
00000220: be54 25bd ba39 d33c 2052 87bc ed40 923d
00000230: 1ba0 c63c 5cea 443d 638a 5f3d 682d 493d
00000240: 51f7 8abd f364 14bd ff08 1fbd 2ede 0abd
00000250: aa58 123d a6bd 11bd 391c 823d 0d8e bb3c
00000260: d2e0 55bd ef1b 9d3a dfc0 183d 1c95 b93c
00000270: 424a 65bd f7a1 1ebd 2383 c73c 5941 00bc
00000280: 01fa 15bd 1d9b 903c f413 ba3c 7bf8 abbc
00000290: 1555 99bd 143c 063c 47ec 99bc 3c73 3dbd
000002a0: ef5b 013d 3a42 84bd 628d d23c 9880 2cbd
000002b0: fd31 07bd 7e14 08bd 410c f5bc 1f77 d33c
000002c0: 55a9 5b3c 931c 09bc 9dc5 df3c df78 0dbd
000002d0: 6bce 46bd 3456 9f3c 1c3d 81bc 37cd d93c
000002e0: 1461 01bd 7f19 f63c 6a3f 8ebd 6385 733d
000002f0: 268a 663d 7d8a 2dbd e434 df3c f19d aabc
00000300: 8543 a8bb 6ace f439 4974 a13d 5751 9cbc
00000310: 5859 983c adc7 48bd 6f38 a2bc 90c6 343d
00000320: 7bb9 78ba 6b66 673b 46fd 213d d7f9 ad3a
00000330: 4762 af3b 57d4 72bd 620c 98bd bae9 c63c
00000340: 2217 8c3c 82bf c63c f58c 463d f48c af3c
00000350: f461 d43d c000 153d a075 27bc ed9e 3f3d
00000360: 73ab 1abc af7c 4b3d 61b7 b13d 2c05 21bd
00000370: 9654 97bd 8e96 c03b a5f7 973d 52f6 613c
00000380: f7c3 923d 0849 99bc 2333 03bd dbe6 62bd
00000390: 365a 98bd 2c09 b3bd 8612 23bc 9dd2 83bc
000003a0: 8151 c5bc 8587 38bc 6489 7fbd be75 6c3d
000003b0: a4b5 29bd d807 603c 169f 21bc 32ab bf3b
000003c0: 76be 86bd f390 a83d 9b5d 2ebd 02be bc3b
000003d0: b0c5 cabd 4446 6c3c 5136 82bd c3d5 243d
000003e0: 5c40 c6bd f8f9 6d3d b453 2a3d a6bc 88bd
000003f0: dc5d e73c 1887 ca3d 4391 5c3d 4e49 0cbd

bias f4 [32]
0.054874346 -0.011671984 0.0016694261 0.032215465 0.041899465 -0.06421118 0.018421538 0.038331915
0.042823453 0.03912753 -0.048075657 -0.008306298 -0.059763595 0.023476666 0.06022088 0.008983483
-0.067967 -0.023139518 -0.034015108 0.03046849 -0.0012433567 -0.018521126 0.0024024933 0.04368839
0.08346919 -0.008172394 0.053900793 0.044106353 -0.027344313 -0.008864691 -0.052653644 0.040466283
00000000: ecc3 603d d93b 3fbc a5d0 da3a 5df4 033d
00000010: c69e 2b3d 2781 83bd c4e8 963c ed01 1d3d
00000020: a567 2f3d 3044 203d fbea 44bd 2417 08bc
00000030: acca 74bd 2352 c03c 2baa 763d 752f 133c
00000040: 4832 8bbd 168f bdbc 6d53 0bbd 0e99 f93c
00000050: 21f8 a2ba 9eb9 97bc 2673 1d3b 99f2 323d
00000060: e5f1 aa3d 81e5 05bc 14c7 5c3d dda8 343d
00000070: 2e01 e0bc 353d 11bc 59ab 57bd f9bf 253d

weight f4 [32, 64]
0.08785261 0.07975694 0.06063709 -0.08024377 -0.011800023 -0.03162051 -0.08890294 0.066372514
-0.06068543 0.06929611 -0.03510577 -0.044671368 -0.09202598 -0.113381475 0.078258246 0.11593271
0.031647284 0.023494469 -0.037336107 0.17856112 -0.0015740292 0.065216415 0.0059756325 0.03821797
0.016372908 0.03148353 0.09781427 -0.13880448 0.11024456 0.008484244 -0.06921581 -0.042665817
0.06983182 -0.03728133 -0.104587294 -0.037381258 -5.4736494e-05 0.018077087 0.10259984 -0.06826676
0.06516201 0.074608736 0.0074786344 -0.069769084 -0.0023739212 -0.029853018 -0.05214637 0.014113965
-0.003676326 0.10855938 0.06295876 0.04547989 0.08527254 -0.07765129 0.0691438 0.08040566
-0.09984724 -0.0029536823 0.11700849 0.02505935 -0.07799245 0.015927577 -0.05809405 -0.01801551
-0.07275591 0.028719816 0.049839992 0.08365851 -0.0310457 0.02802684 0.008284243 0.09541286
0.097851545 -0.13852227 0.04803447 -0.08930658 -0.0050875223 -0.013154759 -0.06093607 0.05150062
0.11078908 -0.017875751 0.078697 0.23886327 -0.17582189 0.029092891 -0.03451716 0.092927285
0.035202153 -0.06275576 0.033649474 -0.10173496 0.13027877 -0.09550452 -0.053071372 -0.07511483
-0.03726634 -0.07651308 0.023338964 -0.17001991 -0.08768083 0.066975 -0.025803903 -0.06471853
-0.040338576 -0.024539389 -0.0049339524 -0.07718742 0.05037328 -0.015804743 -0.089743465 0.10101766
0.043229587 -0.015922172 -0.016478008 0.021719499 -0.07748814 0.046364643 0.02931328 0.033118516
0.01915971 0.0666773 0.009099888 -0.13131958 -0.029545726 -0.2123007 -0.19713616 0.034201715
0.029034851 0.13327584 0.15423697 -0.06011137 0.10829022 0.11974717 -0.12950301 0.06414019
-0.083667405 -0.009197805 -0.10472675 -0.036144882 -0.115907334 0.028682435 0.107829034 0.035830252
0.14532612 0.052779566 -0.038863398 -0.029479291 -0.028727463 -0.001020347 0.05095234 -0.045946337
-0.0028481483 -0.13261063 0.07468366 0.065149985 0.031399135 0.13277158 0.14600308 0.13345268
-0.12461112 -0.08383571 -0.13626641 0.06885826 0.12937921 0.110495746 -0.11471513 -0.0076132454
0.0147986 -0.10584582 -0.03424389 -0.08028507 0.023269396 -0.00078329083 -0.11173261 -0.039476484
0.13814987 0.09165922 0.039814778 -0.06084042 0.03303872 -0.1297784 0.07598394 -0.049573556
-0.14583641 -0.07109391 -0.094556645 -0.03495385 0.05544526 0.0872167 -0.07634569 0.08984095
0.03966259 0.038211476 -0.0693985 0.022803994 0.025138924 0.061230678 -0.09930677 0.059645094
0.026417121 0.03845576 -0.1054366 -0.0407502 0.09588273 0.07498991 -0.15992147 -0.091455616
-0.05333691 0.020688271 -0.024912018 -0.20242785 0.075374454 0.026636444 -0.0020732365 -0.047115274
-0.15543123 0.09518591 0.059311964 -0.04994866 -0.11256096 -0.052518662 -0.020419667 0.020400831
0.04788545 0.042499255 -0.069770634 0.08321321 0.083905615 0.03571739 -0.1373373 0.04361663
0.08736744 0.0011285078 -0.043540064 0.026374126 0.089399464 -0.062431786 0.007514438 -0.029693192
0.056782573 -0.01691592 0.024903283 -0.13748673 -0.0123969475 0.035535526 0.020387936 -0.16131373
0.11063806 0.028300947 0.099524625 -0.10703449 -0.08475859 -0.0097699715 0.006025117 -0.089872986
00000000: 12ec b33d 9b57 a33d 995e 783d d856 a4bd
00000010: e254 41bc 8284 01bd bf12 b6bd 50ee 873d
00000020: 4991 78bd 1eeb 8d3d 11cb 0fbd 53f9 36bd
00000030: 1e78 bcbd 8c34 e8bd dc45 a03d 216e ed3d
00000040: 95a0 013d 7977 c03c bfed 18bd bad8 363e
00000050: a84f ceba 2f90 853d 3dcf c33b 728a 1c3d
00000060: 7a20 863c e0f4 003d d952 c83d c322 0ebe
00000070: e6c7 e13d 8001 0b3c 05c1 8dbd 5ac2 2ebd
00000080: fc03 8f3d 4fb4 18bd dd31 d6bd 171d 19bd
00000090: dd94 65b8 6616 943c dd1f d23d 71cf 8bbd
000000a0: a973 853d 77cc 983d 550f f53b 18e3 8ebd
000000b0: ca93 1bbb 518e f4bc 6f97 55bd 433e 673c
000000c0: 84ee 70bb 6154 de3d 86f0 803d 1f49 3a3d
000000d0: 5fa3 ae3d a407 9fbd 449b 8d3d b9ab a43d
000000e0: b67c ccbd 9192 41bb 26a2 ef3d 4449 cd3c
000000f0: 81ba 9fbd 8d7a 823c 07f4 6dbd 4395 93bc
00000100: 0d01 95bd d245 eb3c 0525 4c3d 2755 ab3d
00000110: 8d53 febc 8b98 e53c a2ba 073c d167 c33d
00000120: 6466 c83d c8d8 0dbe cbbf 443d 5ee6 b6bd
00000130: 3bb5 a6bb 0f87 57bc 1a98 79bd 50f2 523d
00000140: 63e5 e23d 2b70 92bc e52b a13d 9398 743e
00000150: a70a 34be 3754 ee3c de61 0dbd a950 be3d
00000160: 2230 103d 1886 80bd 08d4 093d 6b5a d0bd
00000170: cc67 053e e097 c3bd 5e61 59bd ced5 99bd
00000180: 97a4 18bd e4b2 9cbd 5b31 bf3c b319 2ebe
00000190: 0292 b3bd 302a 893d b562 d3bc 268b 84bd
000001a0: 103a 25bd d406 c9bc feac a1bb 7014 9ebd
000001b0: 3654 4e3d f378 81bc 6ccb b7bd 59e2 ce3d
000001c0: 8211 313d 376f 82bc e3fc 86bc 17ed b13c
000001d0: 1ab2 9ebd dae8 3d3d 6722 f03c 48a7 073d
000001e0: d3f4 9c3c 1c8e 883d b217 153c a478 06be
000001f0: e109 f2bc 5b65 59be 10de 49be 1917 0c3d
00000200: 7fda ed3c 7679 083e 4cf0 1d3e 5737 76bd
00000210: 43c7 dd3d 013e f53d 709c 04be ef5b 833d
00000220: d159 abbd 64b2 16bc fa7a d6bd a80c 14bd
00000230: d360 edbd 6df7 ea3c 78d5 dc3d bec2 123d
00000240: 5fd0 143e 632f 583d 3a2f 1fbd 8e7e f1bc
00000250: db55 ebbc 2abd 85ba 67b3 503d 3a32 3cbd
00000260: 00a8 3abb 15cb 07be bff3 983d 5b6d 853d
00000270: 619c 003d 46f5 073e d581 153e d2a7 083e
00000280: 1d34 ffbd 0fb2 abbd 6c89 0bbe 8f05 8d3d
00000290: fc7b 043e 984b e23d c4ef eabd 8878 f9bb
000002a0: d475 723c b1c5 d8bd 5243 0cbd 806c a4bd
000002b0: 769f be3c c255 4dba 11d4 e4bd 18b2 21bd
000002c0: 2977 0d3e d4b7 bb3d d214 233d ce33 79bd
000002d0: 9c53 073d a1e4 04be 789d 9b3d a40d 4bbd
000002e0: 2456 15be af99 91bd eaa6 c1bd c52b 0fbd
000002f0: 921a 633d ab9e b23d 215b 9cbd 88fe b73d
00000300: 3d75 223d a383 1c3d cd20 8ebd 71cf ba3c
00000310: 25f0 cd3c 05cd 7a3d 5961 cbbd 6a4e 743d
00000320: b868 d83c c983 1d3d 25ef d7bd afe9 26bd
00000330: 2a5e c43d 4f94 993d 74c2 23be 154d bbbd
00000340: ce77 5abd 737a a93c 4a14 ccbc 3f49 4fbe
00000350: ec5d 9a3d ac34 da3c 23df 07bb f2fb 40bd
00000360: 5d29 1fbe d5f0 c23d 1af1 723d f796 4cbd
00000370: 5c86 e6bd cf1d 57bd 2547 a7bc a51f a73c
00000380: 8923 443d b313 2e3d e8e3 8ebd b06b aa3d
00000390: b5d6 ab3d 664c 123d 26a2 0cbe 5aa7 323d
000003a0: b3ed b23d 70ea 933a 1157 32bd 8d0e d83c
000003b0: 1117 b73d 79b8 7fbd ad3b f63b 233f f3bc
000003c0: d894 683d 4193 8abc f801 cc3c 52c9 0cbe
000003d0: 911c 4bbc b38d 113d 9a04 a73c 6d2f 25be
000003e0: 3596 e23d 63d7 e73c 91d3 cb3d e634 dbbd
000003f0: e995 adbd 3b12 20bc 586e c53b 540f b8bd

bias f4 [32]
0.11691978 0.012116129 -0.055025887 0.012074573 -0.002155326 0.06965824 0.060674272 0.07398156
-0.100870505 -0.0054630754 -0.07437511 -0.10601072 -0.012228819 0.014097938 -0.100027435 0.0017294027
-0.05800375 0.002847082 -0.110372946 -0.06996356 -0.10203575 0.050808813 -0.111256376 -0.03875543
-0.05865572 0.052344985 -0.011865665 0.08736146 -0.09711321 -0.080715634 0.09294636 0.021105941
00000000: a373 ef3d ba82 463c d362 61bd 6ed4 453c
00000010: 5f40 0dbb fba8 8e3d 9685 783d a583 973d
00000020: 3295 cebd 9903 b3bb fa51 98bd 261c d9bd
00000030: 625b 48bc 0afb 663c 2fdb ccbd 20ad e23a
00000040: 5795 6dbd 1c96 3a3b 360b e2bd 0e49 8fbd
00000050: 1ff8 d0bd e71c 503d 62da e3bd 04be 1ebd
00000060: fb40 70bd b267 563d 3568 42bc 91ea b23d
00000070: 4ae3 c6bd 3d4e a5bd a95a be3d 5ee6 ac3c

weight f4 [32, 32]
-0.0032877463 -0.083012015 0.034001723 0.11225867 -0.0044982 -0.10006653 0.1261002 0.002787811
0.087111965 -0.04379495 0.017773107 0.050380684 -0.12127728 -0.037589077 0.114153236 0.041511063
0.20139696 0.038245384 -0.030396331 0.15429284 -0.19413239 -0.024305504 -0.09545911 0.0517327
0.00096155505 0.02322028 -0.09504349 -0.013947678 -0.071292736 -0.040504 0.011133053 0.038074527
-0.12202895 0.17036642 -0.15145792 0.14817967 -0.067729324 -0.036472823 0.042009946 0.02754294
-0.096522205 -0.12588216 -0.047837816 -0.12196656 -0.1151112 -0.0702676 -0.0057563228 -0.1641776
0.021595541 -0.17402335 -0.1323073 -0.06124402 0.039388478 -0.1535221 0.12439052 -0.079511516
0.17118077 0.0890273 0.15959747 -0.09740304 -0.05669537 -0.06592623 -0.09157145 0.048471548
0.1099842 -0.18884856 0.11593156 0.09636552 0.09986969 -0.16655459 0.03947888 -0.081804514
-0.04887643 -0.031787623 -0.069536954 -0.10355869 -0.04683766 -0.15213116 -0.019860497 0.067707665
-0.004337155 0.11198997 0.05371919 -0.041836374 -0.017683532 0.12307863 -0.1011826 0.082252376
0.14651985 -0.17304479 -0.22803457 0.028290788 -0.10614314 0.19027795 -0.14273465 -0.14342642
0.04899529 0.06720936 0.11759307 0.13004997 -0.17136298 0.068249665 -0.046509184 -0.02606102
-0.23981622 0.04813031 -0.097423375 -0.15781848 -0.07392918 0.1447712 0.08703082 0.018465737
0.27400774 0.061079126 -0.100452565 -0.13564096 0.04539158 0.05591493 -0.114949696 -0.1573627
0.12451814 0.15732642 0.04674767 0.17005302 0.0638173 -0.08067738 -0.015138707 0.19523399
0.113968775 0.12055239 -0.20944127 0.17125593 -0.016316889 -0.1364031 -0.1604395 -0.1105529
-0.17148203 -0.0724703 -0.16186851 0.006816683 -0.014649838 -0.122865506 0.039177626 -0.05504295
-0.08860413 -0.08918773 -0.132407 0.11508781 0.13055924 0.014686324 -0.1528597 -0.20135249
-0.18064709 0.053517118 -0.050450068 0.1647967 0.12120758 -0.097337164 -0.094954096 -0.17445807
0.11699861 0.15015008 -0.12941213 -0.09540621 -0.05457563 0.11853169 -0.11118062 -0.059553403
-0.017918566 -0.13179454 0.15376893 -0.011049068 -0.1587006 -0.077240236 -0.09589768 -0.17296338
0.058315445 0.13085058 0.08922021 -0.06167855 -0.17265922 0.03419126 -0.02971773 -0.14962439
-0.17264937 -0.035558965 0.0075249826 -0.067457825 0.100014135 0.07025626 0.06405454 -0.017912183
0.019678514 0.16945551 -0.047255825 -0.17424902 -0.08691113 -0.098722436 -0.17886208 -0.041270442
-0.13319652 0.027330203 0.010128053 0.05977016 0.094924204 0.10612417 -0.046546556 0.018189577
0.15528828 -0.08170921 0.109260745 -0.005953341 0.05948043 0.11010866 -0.03184755 -0.07912762
0.13356914 -0.12940855 0.07178144 -0.10539225 -0.1142485 -0.06901032 0.011666727 -0.015697878
0.045856494 0.116863735 0.23472683 -0.051766038 -0.009751378 0.05161187 -0.08022074 -0.21546797
-0.06929861 0.15220962 -0.02915977 -0.09411004 -0.067464255 0.15784034 -0.14362688 -0.03781041
0.13863806 0.039688118 0.005019303 -0.0641606 -0.09525867 -0.17322859 -0.03660961 -0.10434753
0.09653445 0.08071769 -0.07948303 0.011609493 0.082678676 -0.10948216 -0.06274497 0.109165534
00000000: 3b77 57bb 3402 aabd 6445 0b3d e0e7 e53d
00000010: a365 93bb aeef ccbd 6920 013e b5b3 363b
00000020: c267 b23d 5562 33bd e898 913c fa5b 4e3d
00000030: 3960 f8bd 01f7 19bd 2cc9 e93d 8107 2a3d
00000040: 013b 4e3e 31a7 1c3d ba01 f9bc f1fe 1d3e
00000050: a4ca 46be 561c c7bc 1180 c3bd abe5 533d
00000060: de10 7c3a 7538 be3c 29a6 c2bd cd84 64bc
00000070: ed01 92bd 86e7 25bd 6967 363c 09f4 1b3d
00000080: 50ea f9bd 8974 2e3e c917 1bbe 69bc 173e
00000090: acb5 8abd 8764 15bd 9f12 2c3d bba1 e13c
000000a0: 6fad c5bd 41e7 00be 96f1 43bd 9bc9 f9bd
000000b0: 6cbf ebbd 76e8 8fbd 899f bcbb 2c1e 28be
000000c0: 22e9 b03c 2d33 32be 917b 07be 02db 7abd
000000d0: d055 213d e634 1dbe 75c0 fe3d efd6 a2bd
000000e0: 034a 2f3e f253 b63d 856d 233e 3f7b c7bd
000000f0: 6739 68bd 5504 87bd d089 bbbd 1a8a 463d
00000100: 653f e13d 8461 41be 876d ed3d 495b c53d
00000110: 7b88 cc3d 498d 2abe 9bb4 213d 2089 a7bd
00000120: a732 48bd bd33 02bd 6469 8ebd 9416 d4bd
00000130: d9d8 3fbd 45c8 1bbe 7bb2 a2bc 51aa 8a3d
00000140: b11e 8ebb ff5a e53d a708 5c3d 9e5c 2bbd
00000150: 0edd 90bc a610 fc3d d338 cfbd ef73 a83d
00000160: 4d09 163e a732 31be e581 69be 15c2 e73c
00000170: 9361 d9bd 39d8 423e 0829 12be 60de 12be
00000180: 49af 483d 10a5 893d a3d4 f03d d22b 053e
00000190: c779 2fbe 7bc6 8b3d 6a80 3ebd ec7d d5bc
000001a0: 6292 75be 4a24 453d e885 c7bd 2b9b 21be
000001b0: 2f68 97bd e73e 143e 373d b23d 7545 973c
000001c0: be4a 8c3e 1b2e 7a3d 13ba cdbd 77e5 0abe
000001d0: 85ec 393d 0e07 653d bf6a ebbd b023 21be
000001e0: 5e03 ff3d 2d1a 213e 7c7a 3f3d 6122 2e3e
000001f0: a5b2 823d 2f3a a5bd 5708 78bc 6beb 473e
00000200: 7668 e93d 2ce4 f63d c677 56be b75d 2f3e
00000210: ffaa 85bc 41ad 0bbe 414a 24be 8f69 e2bd
00000220: fc98 2fbe 4f6b 94bd dcc0 25be 7b5e df3b
00000230: e005 70bc e9a0 fbbd b878 203d b774 61bd
00000240: 1576 b5bd 0ea8 b6bd b395 07be 28b3 eb3d
00000250: 52b1 053e e89e 703c 4187 1cbe 592f 4ebe
00000260: 8dfb 38be c434 5b3d bba4 4ebd 77c0 283e
00000270: ae3b f83d b558 c7bd 4b77 c2bd 23a5 32be
00000280: f89c ef3d f1c0 193e 9d84 04be 5564 c3bd
00000290: b28a 5fbd bec0 f23d aab2 e3bd 45ee 73bd
000002a0: f5c9 92bc 26f5 06be 9a75 1d3e 2607 35bc
000002b0: 6982 22be 2130 9ebd 0166 c4bd 501d 31be
000002c0: 2ddc 6e3d b2fd 053e 16b9 b63d a6a2 7cbd
000002d0: 94cd 30be 220c 0c3d 9972 f3bc 2337 19be
000002e0: ffca 30be 47a6 11bd 2194 f63b 5427 8abd
000002f0: 36d4 cc3d 84e2 8f3d 072f 833d 92bc 92bc
00000300: d634 a13c bf85 2d3e 538f 41bd 566e 32be
00000310: 76fe b1bd fd2e cabd 9f27 37be 320b 29bd
00000320: ab64 08be 97e3 df3c 22f0 253c 8ed1 743d
00000330: 9f67 c23d a157 d93d 9aa7 3ebd 4f02 953c
00000340: e403 1f3e 2957 a7bd 19c4 df3d 3e14 c3bb
00000350: c0a1 733d a680 e13d 9472 02bd a90d a2bd
00000360: 59c6 083e ad83 04be 2602 933d e4d7 d7bd
00000370: 1efb e9bd 4855 8dbd cd25 3f3c d698 80bc
00000380: 05d4 3b3d 4156 ef3d 3b5c 703e a008 54bd
00000390: 3ec4 1fbc f866 533d c54a a4bd a3a3 5cbe
000003a0: 6eec 8dbd d7dc 1b3e 78e0 eebc c4bc c0bd
000003b0: b32a 8abd e6a0 213e ed12 13be 17df 1abd
000003c0: 23f7 0d3e 0290 223d f778 a43b a266 83bd
000003d0: fa16 c3bd d662 31be f5f3 15bd 28b4 d5bd
000003e0: dbb3 c53d 514f a53d 00c8 a2bd be35 3e3c
000003f0: 7053 a93d 2f38 e0bd 6f80 80bd 2e92 df3d

bias f4 [32]
0.112510376 -0.14672124 0.097306535 -0.020596914 0.01261435 -0.085899174 -0.07459897 -0.124501385
0.03389569 -0.024773657 -0.09985606 -0.036151957 -0.11480248 0.16277376 0.010375337 0.18209551
-0.10762364 -0.17355971 -0.11118412 -0.12467763 0.026020342 0.09225251 -0.032962397 0.088105574
0.0020326767 0.10534156 -0.024109317 -0.11170922 -0.15876539 -0.025743349 -0.19366539 0.0893394
00000000: d76b e63d 183e 16be a648 c73d dcba a8bc
00000010: 6bac 4e3c e8eb afbd 58c7 98bd 95fa febd
00000020: 35d6 0a3d 20f2 cabc 5681 ccbd 1314 14bd
00000030: 901d ebbd 2aae 263e 51fd 293c 3f77 3a3e
00000040: c869 dcbd a3b9 31be 80b4 e3bd fc56 ffbd
00000050: 9d28 d53c e2ee bc3d 9403 07bd b270 b43d
00000060: a836 053b 51bd d73d e780 c5bc cec7 e4bd
00000070: 6593 22be b7e3 d2bc 3850 46be 93f7 b63d

weight f4 [32, 64]
-0.02525001 0.10950127 -0.009851642 0.11181148 -0.040367253 -0.10781059 -0.025029304 -0.07397879
0.044424023 -0.12431228 -0.059000656 -0.049864363 -0.0154123325 -0.058661122 0.060872126 0.067283675
0.084355876 -0.05665565 0.044929594 -0.08456323 0.013855599 -0.08848421 -0.12176062 0.12905128
-0.12662275 -0.16261822 -0.0033100627 0.15630756 0.04413918 0.028773248 -0.098150566 0.04906447
-0.026401654 -0.021026773 -0.0900647 -0.15631734 -0.14839529 0.0066159056 -0.071019866 0.05193008
-0.09559749 0.07788656 0.083759904 0.09866689 0.12975433 -0.074123695 -0.09736362 0.031406306
0.043908183 0.046316545 -0.072528705 -0.071547024 -0.031249164 0.08765396 0.035542257 0.13230948
-0.08900883 0.052920092 -0.0921343 -0.12072082 -0.064906165 0.10161139 0.016971432 0.07906008
-0.080698416 0.020791637 -0.15661874 0.027425522 0.051399976 -0.1572795 -0.08204823 -0.02850879
0.03834961 -0.2100774 0.059028 0.20233327 -0.13566972 -0.12166191 0.107528396 -0.037725244
-0.072908156 0.045120023 0.118491895 0.13476513 -0.006195568 -0.040217422 0.11957244 0.001723932
-0.12297302 0.04022731 0.06639201 -0.055648465 -0.06918433 -0.014299326 -0.050504502 0.0026674788
0.056268033 -0.002131775 -0.037566528 0.029159082 -0.058161274 -0.045557823 0.09456709 -0.1209465
0.047828276 -0.0103374 0.01685899 -0.008489309 -0.05811325 -0.06920736 0.055574328 -0.055801522
0.06451606 0.030845003 -0.07205415 -0.088083506 -0.17061557 0.041545704 -0.08587254 -0.049855966
0.17781286 -0.041121546 0.14143412 -0.014689552 0.052588426 0.09193768 -0.04586501 0.020028366
-0.029502783 0.083494276 0.028649835 -0.056520533 0.031639565 -0.0025600889 -0.08588592 -0.121380076
-0.061712902 -0.037728075 0.11120537 -0.14164671 0.044822775 -0.036537804 0.011966716 0.051965743
0.1099663 -0.0844962 0.105662026 -0.024570419 0.0577784 0.0858948 -0.09295105 -0.01742203
-0.077168144 0.05961131 -0.06901206 -0.113805234 0.012108993 -0.061449774 -0.09543143 -0.024961036
-0.09915214 0.0566679 -0.10259693 -0.04688173 0.09744965 -0.057430524 0.016169777 0.05693581
0.010910697 -0.027918348 0.0076745395 -0.033344734 -0.06582851 -0.025626456 0.04729858 0.04305424
0.07779386 0.000757107 0.063292876 -0.093204625 0.040746845 -0.04077347 0.09899273 0.13459903
-0.045324385 0.062114615 0.09870295 -0.01816042 -0.025384985 0.09963832 -0.11538542 0.027835501
-0.08823764 0.044227306 -0.03165299 0.053603195 -0.013367756 0.00894259 -0.06360935 0.14137913
-0.1446759 -0.031762544 -0.004751838 -0.036043998 0.20342751 -0.059450727 -0.088220365 0.043466557
0.038896233 -0.053101145 0.021829717 -0.064936526 -0.040962294 0.049618308 0.01565646 0.024203416
0.16352412 0.05025972 0.0762702 0.022585178 0.15067148 0.063631915 0.02733624 -0.051341284
0.08301559 -0.11381756 0.027472341 0.007500884 0.054387975 0.11811584 0.05765887 -0.021509523
0.09325698 0.021941815 0.05531901 0.03798517 -0.106771395 0.011933705 -0.005465231 0.10889827
-0.0013265788 0.062327586 -0.04170876 -0.11640973 -0.0062572253 -0.062567234 0.10800057 -0.06179022
0.16113791 0.0012240524 0.11614001 -0.06844294 0.12600634 0.05104642 0.006418241 0.06665066
00000000: 1cd9 cebc 3442 e03d c868 21bc 6bfd e43d
00000010: 2258 25bd cccb dcbd 410a cdbc 3182 97bd
00000020: f7f5 353d 7097 febd acaa 71bd 933e 4cbd
00000030: 0284 7cbc a546 70bd 0d55 793d 06cc 893d
00000040: c6c2 ac3d c10f 68bd 1808 383d 7d2f adbd
00000050: 9802 633c 3637 b5bd a25d f9bd 0526 043e
00000060: 65a9 01be 6485 26be a3ed 58bb 170f 203e
00000070: 49cb 343d e0b5 eb3c 2a03 c9bd d3f7 483d
00000080: 4848 d8bc 5740 acbc d773 b8bd a711 20be
00000090: eff4 17be 3dca d83b dd72 91bd a3b4 543d
000000a0: 9ec8 c3bd fd82 9f3d 508a ab3d de11 ca3d
000000b0: 52de 043e 2ace 97bd 9466 c7bd e6a3 003d
000000c0: 11d9 333d 6bb6 3d3d ee89 94bd 3f87 92bd
000000d0: 3ffe ffbc eb83 b33d c294 113d 237c 073e
000000e0: 434a b6bd bdc2 583d e8b0 bcbd 7a3c f7bd
000000f0: 86ed 84bd a219 d03d ac07 8b3c 40ea a13d
00000100: 3645 a5bd 3953 aa3c aa60 20be 7dab e03c
00000110: c888 523d e10d 21be e708 a8bd 448b e9bc
00000120: 7b14 1d3d 881e 57be 58c7 713d 7430 4f3e
00000130: 01ed 0abe e129 f9bd d937 dc3d c985 1abd
00000140: df50 95bd c6cf 383d e1ab f23d dfff 093e
00000150: 3104 cbbb 06bb 24bd 65e2 f43d 8ff5 e13a
00000160: 47d9 fbbd 64c5 243d 89f8 873d a5ef 63bd
00000170: 84b0 8dbd b847 6abc cfdd 4ebd ded0 2e3b
00000180: 4f79 663d 40b5 0bbb 5cdf 19bd 07df ee3c
00000190: 843a 6ebd d79a 3abd 64ac c13d ccb2 f7bd
000001a0: 95e7 433d 335e 29bc dd1b 8a3c be16 0bbc
000001b0: 2908 6ebd 97bc 8dbd e8a1 633d 2390 64bd
000001c0: ff20 843d a9ae fc3c 2091 93bd 2065 b4bd
000001d0: d9b5 2ebe d42b 2a3d f1dd afbd c535 4cbd
000001e0: 9314 363e 116f 28bd 1bd4 103e 72ac 70bc
000001f0: f666 573d d349 bc3d f3dc 3bbd 8712 a43c
00000200: d2af f1bc 0cff aa3d 0fb3 ea3c 1382 67bd
00000210: 7d98 013d 2ac7 27bb f5e4 afbd 1e96 f8bd
00000220: abc6 7cbd c188 1abd a4bf e33d d60b 11be
00000230: 1698 373d aaa8 15bd 0b10 443c 08da 543d
00000240: 0336 e13d 580c adbd 5565 d83d e747 c9bc
00000250: 0ba9 6c3d 9de9 af3d 1f5d bebd a5b8 8ebc
00000260: 550a 9ebd fd2a 743d 3256 8dbd b812 e9bd
00000270: cc64 463c c2b2 7bbd 8e71 c3bd 167b ccbc
00000280: 4710 cbbd 9a1c 683d 571e d2bd 0f07 40bd
00000290: af93 c73d 453c 6bbd 7b76 843c 8635 693d
000002a0: c8c2 323c 05b5 e4bc b47a fb3b 7d94 08bd
000002b0: 19d1 86bd 93ee d1bc 28bc 413d a559 303d
000002c0: 6352 9f3d 9778 463a b29f 813d 11e2 bebd
000002d0: 2ae6 263d 1502 27bd b3bc ca3d 54d4 093e
000002e0: 10a6 39bd e56b 7e3d c624 ca3d 29c5 94bc
000002f0: 2cf4 cfbc 2d0f cc3d 314f ecbd 4707 e43c
00000300: f0b5 b4bd b127 353d 91a6 01bd 068f 5b3d
00000310: 6f04 5bbc f183 123c 9e45 82bd b1c5 103e
00000320: eb25 14be 7119 02bd 4eb5 9bbb dfa2 13bd
00000330: 4d4f 503e 9b82 73bd e1ac b4bd fd09 323d
00000340: a851 1f3d 9680 59bd 3cd4 b23c 71fd 84bd
00000350: 14c8 27bd 913c 4b3d fa41 803c 3e46 c63c
00000360: de72 273e 23dd 4d3d 8d33 9c3d 8d04 b93c
00000370: a049 1a3e 7351 823d 40f0 df3c 3d4b 52bd
00000380: 1404 aa3d 2e19 e9bd ad0d e13c fac9 f53b
00000390: edc5 5e3d b8e6 f13d b52b 6c3d bd34 b0bc
000003a0: 84fd be3d 52bf b33c 3096 623d 5696 1b3d
000003b0: f6aa dabd 9685 433c ae15 b3bb 0e06 df3d
000003c0: 99e0 adba 364b 7f3d ced6 2abd 3968 eebd
000003d0: 6909 cdbb 4023 80bd 672f dd3d be17 7dbd
000003e0: 5601 253e 6270 a03a d0da ed3d d02b 8cbd
000003f0: ce07 013e 0d16 513d 1c50 d23b 2480 883d

bias f4 [32]
0.08496956 -0.017189043 -0.009772701 0.099153295 0.1289597 -0.18797202 -0.043091696 -0.04559931
-0.075009294 -0.02993317 -0.0060160756 0.06374522 0.07655504 -0.04489736 0.05756983 -0.10207452
-0.07799735 0.056416307 0.0116326595 0.061045166 -0.028615013 -0.020673292 0.074571304 -0.09739363
0.09823756 -0.010619775 -0.104781166 -0.01471961 0.076495424 -0.002024912 0.14466581 0.017563881
00000000: 8504 ae3d 09d0 8cbc ae1d 20bc e210 cb3d
00000010: 030e 043e bd7b 40be eb80 30bd 58c6 3abd
00000020: 799e 99bd 6836 f5bc 8022 c5bb db8c 823d
00000030: e4c8 9c3d 4be6 37bd 58ce 6b3d 720c d1bd
00000040: 13bd 9fbd c914 673d e996 3e3c 7f0a 7a3d
00000050: 086a eabc 095b a9bc d7b8 983d 5076 c7bd
00000060: c630 c93d 91fe 2dbc 8297 d6bd 852a 71bc
00000070: a2a9 9c3d 63b4 04bb 4623 143e 21e2 8f3c

weight f4 [6, 32]
0.023716236 -0.13067475 0.038168963 0.100826025 0.06407866 0.035112027 0.001527708 -0.08176155
-0.15552917 -0.15713486 0.005281245 0.017707925 0.01204756 0.09833878 0.0713757 -0.16892134
0.11290764 0.04572872 0.03472141 -0.123355865 0.0022887758 0.124328084 -0.039221987 0.09820512
-0.09332487 0.012951882 -0.15729378 0.03632842 0.12531595 0.09552852 0.0771752 0.038652834
0.092928566 0.07255155 -0.11116979 0.021694122 0.087888524 -0.022929838 0.05400759 0.02853073
0.036717817 -0.08326908 -0.057467055 -0.11850007 -0.09471108 0.08510399 0.036016773 -0.075243436
0.011806241 -0.10353656 0.039029744 0.0021771663 -0.031771317 -0.011763201 -0.022470871 0.040947586
-0.043449946 0.08510828 -0.086771496 0.07801476 -0.1069517 -0.03932185 0.12625402 -0.006334855
-0.021522518 -0.110738166 -0.096383356 -0.13213435 0.022344159 0.15516172 0.10683412 0.022440245
-0.030249028 -0.07053723 0.025564494 -0.053712346 0.018239047 -0.18765326 -0.037590485 0.07316119
0.052051265 0.10723743 0.05459872 0.11002541 0.05866345 0.06013355 -0.06966421 0.040454734
-0.12799364 -0.084868215 0.01524293 0.16654238 -0.021180272 -0.118155174 -0.029635634 -0.079979315
-0.054012842 -0.05428241 -0.07058222 0.04625497 0.045319848 0.12024463 0.06349717 0.037579764
0.089769974 -0.11933157 -0.048351288 0.08685479 -0.025130631 -0.10103231 -0.12715676 0.10285809
-0.0108812945 -0.031354334 0.07749481 -0.023001676 -0.10721197 0.08856542 -0.061934676 -0.017005181
0.038319867 -0.037771933 0.06874116 0.08790703 0.010757088 -0.053991515 -0.052342743 0.045065437
0.09460763 -0.11895281 0.14134799 -0.06334439 0.14283943 -0.17281495 -0.08828967 0.1092308
0.09322934 0.15119445 -0.13287674 -0.035151366 0.22390208 -0.024268523 0.15238303 -0.02524907
-0.050275974 0.033846315 0.20969546 -0.07613185 0.12652583 0.112443276 -0.17470603 0.13780494
0.01772013 0.10201181 0.0012449971 -0.008465343 -0.017794052 0.0616045 0.059231434 -0.105332196
-0.033744294 -0.005470481 -0.06410813 0.13248414 0.047722954 -0.013866747 0.09101552 0.09348087
-0.002252956 -0.13663118 -0.0047617275 0.0132306125 0.04239777 -0.008691696 0.065385036 0.0045455415
-0.03763352 -0.0043824064 0.007426492 -0.0684346 -0.011556927 0.05069369 0.002470888 -0.05381457
0.023568928 -0.036756624 -0.08400018 0.010303487 0.022393879 -0.0489127 0.11872027 0.044965744
00000000: 8d48 c23c 9acf 05be 0f57 1c3d e07d ce3d
00000010: ac3b 833d a1d1 0f3d 603d c83a 9972 a7bd
00000020: 0a43 1fbe f6e7 20be 4b0e ad3b 3610 913c
00000030: 2163 453c d865 c93d 6c2d 923d b7f9 2cbe
00000040: 1f3c e73d 0a4e 3b3d 0a38 0e3d 00a2 fcbd
00000050: 49ff 153b b99f fe3d 3ca7 20bd c41f c93d
00000060: 1c21 bfbd 2134 543c 9f11 21be 1ccd 143d
00000070: d352 003e 75a4 c33d 080e 9e3d 6f52 1e3d
00000080: 5551 be3d e895 943d fdac e3bd dfb7 b13c
00000090: e6fe b33d 5bd7 bbbc 1037 5d3d 47b9 e93c
000000a0: 6c65 163d fb88 aabd 9362 6bbd 2ab0 f2bd
000000b0: e2f7 c1bd 004b ae3d 5386 133d 3b19 9abd
000000c0: f76e 413c fa0a d4bd a7dd 1f3d caae 0e3b
000000d0: a422 02bd 71ba 40bc d514 b8bc a8b8 273d
000000e0: 92f8 31bd 404d ae3d 41b5 b1bd 34c6 9f3d
000000f0: 7e09 dbbd f30f 21bd bc48 013e 9e94 cfbb
00000100: fe4f b0bc b1ca e2bd a364 c5bd 3a4e 07be
00000110: 190b b73c b7e2 1e3e d9cb da3d 9bd4 b73c
00000120: cfcc f7bc d375 90bd a16c d13c 7a01 5cbd
00000130: 0e6a 953c 2d28 40be 7bf8 19bd 89d5 953d
00000140: b533 553d 4c9f db3d e8a2 5f3d 0155 e13d
00000150: 1649 703d 994e 763d 1cac 8ebd ddb3 253d
00000160: c410 03be 63cf adbd 7bbd 793c 168a 2a3e
00000170: 4082 adbc 57fb f1bd 6ec6 f2bc 32cc a3bd
00000180: 923c 5dbd 3b57 5ebd 698d 90bd da75 3d3d
00000190: 4ea1 393d d142 f63d ce0a 823d 3ded 193d
000001a0: 52d9 b73d 1c64 f4bd 000c 46bd ede0 b13d
000001b0: c1de cdbc 07ea cebd 6235 02be 43a7 d23d
000001c0: 7547 32bc 676d 00bd 99b5 9e3d 036e bcbc
000001d0: f391 dbbd c961 b53d 37af 7dbd 734e 8bbc
000001e0: 4bf5 1c3d beb6 1abd 2ac8 8c3d 9a08 b43d
000001f0: 7f3e 303c 3526 5dbd 5865 56bd 8996 383d
00000200: a5c1 c13d 889d f3bd 87bd 103e b4ba 81bd
00000210: 8044 123e 67f6 30be 37d1 b4bd 66b4 df3d
00000220: 06ef be3d b8d2 1a3e d710 08be e1fa 0fbd
00000230: 9646 653e c8ce c6bc 4c0a 1c3e 23d7 cebc
00000240: 2eee 4dbd 6fa2 0a3d 68ba 563e 04eb 9bbd
00000250: fd8f 013e a948 e63d 23e6 32be bd1c 0d3e
00000260: ce29 913c 91eb d03d 2c2f a33a 39b2 0abc
00000270: d5c4 91bc 0055 7c3d a99c 723d 68b8 d7bd
00000280: 7537 0abd b841 b3bb 204b 83bd eca9 073e
00000290: 2579 433d 5a31 63bc 5866 ba3d e672 bf3d
000002a0: 54a6 13bb 0be9 0bbe 4408 9cbb 36c5 583c
000002b0: 49a9 2d3d 9e67 0ebc 97e8 853d c4f2 943b
000002c0: 9b25 1abd 4a9a 8fbb ee59 f33b 7127 8cbd
000002d0: 4459 3dbc 30a4 4f3d 9fee 213b ab6c 5cbd
000002e0: a013 c13c 1d8e 16bd 4908 acbd f5cf 283c
000002f0: 5e73 b73c af58 48bd 9d23 f33d 002e 383d

bias f4 [6]
-0.018387506 -0.015311603 0.05655743 0.07090209 -0.116004504 -0.04800067
00000000: 65a1 96bc 85dd 7abc c4a8 673d 1d35 913d
00000010: c593 edbd 5a9c 44bd
