SwarmNet - PyTorch/models/model_experimental.pkl (torch, 79739 bytes, 14 tensors)

weight f4 [32, 6, 3]
000000 9c f4 51 3e 69 63 50 bd b2 cf 0c be ce 9e fc bd
       0.20503467 -0.050876055 -0.13751104 -0.12334977
000010 32 c0 43 bd 15 fe 56 3e 6b 74 40 be e2 5c be bc
       -0.047790714 0.20995362 -0.1879441 -0.02323765
000020 1a 27 55 3e 3b 37 27 3e 77 52 34 3e 19 55 f0 3e
       0.20815697 0.16329663 0.17609583 0.46939924
000030 f0 f5 37 be 64 9d b8 be 8f c6 9d bc fa d1 1a 3e
       -0.17964911 -0.3605758 -0.01925972 0.15119162
000040 a4 b7 c1 bc f0 4e ed bd 63 cd 6b be 47 94 64 3e
       -0.023647137 -0.11587322 -0.23027568 0.22322188
000050 61 c2 db bd aa 73 82 3c 35 43 9e bd 24 da 49 be
       -0.10730434 0.015924294 -0.077276625 -0.1971212
000060 00 d5 1b be 51 61 47 3b ea 43 5f bd e2 6a b8 3d
       -0.15217972 0.0030422995 -0.054508127 0.09004761
000070 de e3 29 3e 01 5c 38 be bb d2 36 3e 90 56 ec bd
       0.1659083 -0.18003847 0.17853825 -0.11539948
000080 59 04 12 3e 02 33 2f 3e 3c 6d 2c 3e 14 9f a9 bd
       0.14259471 0.17109302 0.16838545 -0.08282295
000090 56 9c d0 3c a1 26 28 bd 67 5a b1 3d ac 83 25 3e
       0.025465172 -0.041052464 0.08659821 0.1616351
0000a0 6b 27 8e 3d 1d 86 4d be a8 a3 00 3d 06 eb 4a 3c
       0.06941112 -0.20070691 0.031406075 0.0123851355
0000b0 fb 40 c2 bc 74 3c ca bd 22 69 42 be 6e dd 41 bd
       -0.023712626 -0.09874812 -0.18985417 -0.047330312
0000c0 ca 01 9a 3e 0a f8 9c 3e 8e 12 8e 3e 1e 69 c7 bd
       0.3007949 0.3065799 0.2774853 -0.097368464
0000d0 4c 7d 7e be ac c6 38 be 4e e2 67 bd d8 fc f4 bd
       -0.24852484 -0.18044537 -0.056612305 -0.119622886
0000e0 a4 6b 6a 3d f6 75 76 bd e9 bc 05 be 33 e9 47 bd
       0.05723156 -0.06017109 -0.13060345 -0.04880638
0000f0 4a 67 53 be bc 9e 62 bd 24 ed d9 bc dd 65 e9 bd
       -0.2064487 -0.055327162 -0.026602335 -0.11396382
000100 76 94 bb be 67 cd d2 be 81 13 06 be dc a8 51 3e
       -0.36636704 -0.41172335 -0.13093378 0.20474571
000110 1d 0f ba 3d cb 28 8d 3e d9 d7 c7 3d 91 f5 68 3d
       0.09084914 0.27570185 0.097579665 0.056874815
000120 a9 f2 37 be 64 9f 63 3d 74 da 03 3d 3f 86 57 be
       -0.17963661 0.05557193 0.032190755 -0.21047305
000130 e1 3b 7d be 06 ec 31 be 29 a4 03 3e 3d 91 e1 3d
       -0.24729873 -0.17375192 0.12855591 0.1101403
000140 6a d9 5d be 62 fa cb 3d 6f 89 bd bd 73 98 9c 3e
       -0.21664968 0.09959866 -0.09254729 0.3058506
000150 8c 50 cc be a9 41 be bd 65 43 08 bd 43 01 95 3e
       -0.39905202 -0.092898674 -0.033267397 0.29102525
000160 cb 0d 8e 3d 0c 22 33 3e 8c 62 2b bd f9 fd 05 be
       0.069362246 0.17493457 -0.04184203 -0.13085164
000170 ed 53 7f be 63 0f 80 3d 32 27 cd 3d 59 9c 24 3e
       -0.24934359 0.06252935 0.100172415 0.16075267
000180 4c dc 0a 3e d7 ad 03 bd 5e ff 70 3e d3 21 47 bd
       0.13560599 -0.03214821 0.23534915 -0.04861624
000190 41 de d6 bd eb 35 0d 3e 79 69 c3 3d ec f4 6d 3e
       -0.1049161 0.137901 0.09541602 0.23237962
0001a0 57 28 8e 3d 99 c1 0d be fa 71 01 be bf 3b 9a be
       0.06941288 -0.13843383 -0.12641135 -0.30123708
0001b0 21 56 f0 3d 83 4c b3 3d a6 32 54 be 36 55 ca 3d
       0.11735178 0.08754828 -0.20722446 0.09879534
0001c0 0e f1 dd 3c 11 40 07 3e b2 e5 09 3e 29 14 74 be
       0.027092483 0.13208033 0.13466528 -0.23835815
0001d0 41 06 89 3d 9e 5b 14 be 47 bb c7 3d 5f 9b 96 3e
       0.06690646 -0.14488074 0.09752517 0.29415414
0001e0 73 ef b8 bd 9c 0a f1 bd 7c 30 1c be 0b 72 af be
       -0.09030046 -0.11769602 -0.1525287 -0.34266695
0001f0 72 f9 bb be 9b 12 bc be 6f 02 56 3e d2 2e 1e be
       -0.3671375 -0.36732945 0.20899366 -0.15447548
000200 6b f6 51 3d cd 33 f3 bc e1 73 4a 3b 33 ce 4d 3e
       0.051260393 -0.029687786 0.0030891823 0.2009819
000210 91 61 e9 bb ff 09 49 3e c3 9f eb 3b 99 09 31 bd
       -0.0071222265 0.1963272 0.007190676 -0.043222044
000220 47 04 dd bc f6 5f 7a 3e 69 93 62 be ee 79 ee bd
       -0.026979579 0.24450669 -0.22126545 -0.1164435
000230 39 4a 3a 3e 60 dc 57 3d 44 7c 91 be a2 f8 a6 bd
       0.18192376 0.0527004 -0.2841512 -0.08152892
000240 e1 46 02 3e 66 d0 21 3d fb 72 31 3c 11 9a ce bc
       0.1272235 0.039505385 0.010830636 -0.025219949
000250 86 a6 1d 3e 5e e9 38 bd ad 24 eb bd fc 88 2c 3e
       0.15395555 -0.04514443 -0.11481605 0.1684913
000260 74 d7 b9 3d 24 3f be bc 77 c5 9a 3d 56 03 58 3e
       0.090742975 -0.023223467 0.07557195 0.21095023
000270 1a 61 ae be 72 62 24 be 79 c1 c3 be d8 7d 13 3d
       -0.34058458 -0.16053179 -0.38233545 0.036008686
000280 81 9e 07 3e 5c c3 d7 3d 69 b1 46 3e 1b 07 30 be
       0.13244058 0.10535309 0.19403614 -0.1719021
000290 a7 5e c6 bb 6c 77 72 be b9 56 25 be f1 65 f1 bd
       -0.006053764 -0.23678368 -0.16146363 -0.11787022
0002a0 1b 02 3a bb 76 14 c5 3d 2c 43 43 be 8d f9 5e be
       -0.0028382603 0.09623043 -0.19068593 -0.21774884
0002b0 3f a2 01 3e db 8e d9 bd 08 a6 8a 3e 79 da ed 3d
       0.12659548 -0.10622951 0.27079797 0.11613936
0002c0 34 18 6c 3d 28 eb ec 3d 4a e4 37 3e 32 12 65 3e
       0.05764027 0.1156829 0.17958179 0.22370222
0002d0 f2 33 3c 3e 71 c3 55 be eb 23 87 3d f6 4c 18 3e
       0.1837919 -0.20875336 0.06598648 0.14873108
0002e0 bc 52 e8 3d c9 52 0c bc 1b a7 37 bd 63 0b 07 3e
       0.11343905 -0.008564659 -0.0448371 0.13187937
0002f0 91 43 1c be ca 50 d8 bb 08 7d 12 bd b5 7f 38 be
       -0.1526015 -0.0066014277 -0.03576377 -0.18017466
000300 53 3e 4a 3e 01 8a 94 bd 9c a9 07 bf 2b 1d 7e bd
       0.19750337 -0.07252885 -0.5299318 -0.062039535
000310 23 73 79 3c 7d a5 4b 3e c2 fe 4c bc 62 0b 83 be
       0.015225205 0.19887348 -0.012511911 -0.25594622
000320 80 67 83 3d f0 d2 e1 3d 0a fb 9c 3d 0b 8f b1 bd
       0.064162254 0.11026561 0.076650694 -0.086698614
000330 20 33 6e 3e 12 22 21 3e ca 9f 88 bc 7a 05 45 bb
       0.2326169 0.15735653 -0.016677756 -0.0030063079
000340 77 62 e6 3d d6 24 2e be d3 f5 6e bd 2b ff 5e 3e
       0.112492494 -0.1700624 -0.058339905 0.21777026
000350 b8 9a 20 be 35 6c 53 3e d0 d7 87 bd ee 43 98 bd
       -0.1568402 0.20646746 -0.0663296 -0.074348316
000360 27 4f 61 3d 97 99 36 be 99 22 10 be 28 5f 06 3e
       0.055007126 -0.17832027 -0.14075698 0.13122237
000370 1e bc 25 be cc b9 37 3e c8 e6 c5 bd 24 ef 0f be
       -0.16185042 0.1794197 -0.09663159 -0.14056069
000380 1f bd 14 bc a6 ee 4d bd cc 7b 84 3e b3 6e 13 3c
       -0.009078293 -0.05027642 0.258757 0.008998561
000390 ae b6 21 3b 0b 5e 8a 3e bb 28 c4 3e 47 cf 04 be
       0.0024675536 0.27024874 0.38312325 -0.12969695
0003a0 7f 17 35 be 2a 8a 79 be 57 c5 1f be b2 bf 36 3d
       -0.17684744 -0.24369112 -0.15602623 0.04461641
0003b0 26 ea f7 bd 6c a4 26 3e b5 4b 5f bb 5c 88 5f be
       -0.12105207 0.1627366 -0.0034072225 -0.2182936
0003c0 bd 35 0e be a9 60 2a 3d 17 78 79 bd 30 eb 54 3d
       -0.13887687 0.04159609 -0.060905542 0.051982105
0003d0 1e 82 55 3e 9d 95 81 3e 38 0f 36 be 9e 53 8c bd
       0.20850417 0.25309458 -0.17779243 -0.06851886
0003e0 f5 91 52 3e 2d c2 99 be 0d ae 80 3d 61 6a 2f be
       0.2056349 -0.30030957 0.062831976 -0.17130424
0003f0 d0 fb 21 be c8 74 9f 3c 3a 20 96 3d 22 18 4c be
       -0.15818715 0.019464865 0.073303655 -0.19931081

bias f4 [32]
000000 87 60 02 be cf 01 2f be 1f 1a 0b 3c 73 36 0c 3e
       -0.12732135 -0.17090534 0.0084901145 0.13692646
000010 fe da 71 3e 0b fa 7f be 4b 9c bf be cb 22 5b bd
       0.23618695 -0.24997728 -0.3742393 -0.053499978
000020 e5 2f 4f 3d 96 12 1c 3c 3a 8d 87 be 55 b9 0f bd
       0.050582785 0.009525916 -0.26474935 -0.035088856
000030 3b bb d8 bd cd 15 e8 3d 15 e6 15 be 18 c5 fb 3d
       -0.105825864 0.11332283 -0.1463855 0.12293452
000040 43 be 12 be fa f4 e3 3d de bd 15 3e cd 42 d2 3d
       -0.14330392 0.1113071 0.1462321 0.102666475
000050 21 ee 6b 3d 26 96 5c be 58 f0 66 bd a4 72 4b be
       0.057600144 -0.21541652 -0.056381553 -0.1986795
000060 83 f5 e7 3b 6e a0 2d 3e c2 33 03 bb ca b4 f2 3c
       0.007078828 0.1695573 -0.0020019864 0.029627223
000070 53 03 81 3e b9 73 b8 be 8d 84 ef 3d 9d 81 4b 3e
       0.2519785 -0.3602579 0.11695204 0.19873662

weight f4 [64, 32, 3]
000000 85 43 35 bd 61 1d b3 bd cb 5e f2 bd c2 af 8c bd
       -0.044253845 -0.08745838 -0.118344866 -0.06869461
000010 97 6e a0 3d 52 7c 22 3d cd 50 47 bd ad 36 c7 bd
       0.07833593 0.039669342 -0.048661042 -0.097272255
000020 09 99 4f bd af 7d 83 bc f8 62 34 3d f4 8b 97 bb
       -0.050683055 -0.016051142 0.044039696 -0.004624838
000030 4c 9f 1e 3a 4c 84 2e bd 88 b8 23 bd 9a 09 4c 3d
       0.0006050959 -0.042606637 -0.039970905 0.049813844
000040 08 91 d9 bb 39 42 03 bd 68 e7 7b 3d 61 fe 1a bd
       -0.0066396035 -0.032045577 0.061499983 -0.03784025
000050 a9 bb 3e bb 8d c7 6f 3d 0a 7f 5f ba 8f 1b 50 3d
       -0.0029103553 0.058539916 -0.0008525705 0.050807532
000060 e6 f2 72 3d df 6b 89 bd 33 88 96 bd 5b 0a 27 bc
       0.059313677 -0.06710028 -0.07350197 -0.01019534
000070 65 58 0b 3d 69 28 60 3c 67 9b 32 3d 60 26 80 3d
       0.034019846 0.0136815095 0.043605234 0.062573195
000080 26 e2 97 bd d8 ca 5d 3c 13 f2 be 3d 5d 5b 1b 3e
       -0.07416181 0.013537131 0.09323516 0.15171571
000090 94 c8 bd 3d 8d 4d d8 3c 61 86 87 3d 2c 87 63 3b
       0.09266773 0.026404167 0.066174276 0.003471802
0000a0 df b8 1d bd 6c e2 52 3c 18 1d db 3c 66 33 a1 3d
       -0.038506385 0.012871366 0.026747271 0.078711316
0000b0 62 0f b5 3d ae 8b d0 3a fb 61 c1 bc b5 61 93 bd
       0.08840825 0.0015910768 -0.023606291 -0.071963705
0000c0 db 8c 14 3d 27 ad 14 3c ce dd 9c bd d0 0e af bd
       0.036267143 0.009074486 -0.076594934 -0.08547747
0000d0 10 00 bf bc c2 92 42 3d 1f 6e 50 bc 73 bc ab bd
       -0.02331546 0.04750324 -0.012721567 -0.08385553
0000e0 36 d7 84 3d 0a fa e9 bd c0 e0 66 3d c8 3d a4 bd
       0.06486361 -0.11424644 0.056366682 -0.08019596
0000f0 d4 e1 eb 3b 90 46 ec 3d 5a d5 11 3e 1d 0e 06 3c
       0.0071985517 0.11536896 0.14241543 0.008182076
000100 22 72 86 bc 95 d5 59 3d 6f b1 a8 bd 58 a9 3b 3d
       -0.016411845 0.053182203 -0.08236968 0.045815796
000110 bb 01 44 3b 02 d1 a3 bc 8c 88 a7 bd d9 d4 9a 3d
       0.0029908258 -0.019997124 -0.08180341 0.07560129
000120 4d 84 0d 3d 98 1e 08 bc 99 16 fb bd cd 3e 1a 3d
       0.03455 -0.008308075 -0.122601695 0.037657548
000130 4c 4a 79 3d fd ca e6 3d bc c4 e2 bd 71 90 26 3c
       0.06086187 0.11269186 -0.1107268 0.010166273
000140 ba bc 68 3c 7c 62 70 bb 05 5a 15 bd 74 14 03 3e
       0.014205152 -0.0036679795 -0.036462802 0.12800771
000150 61 ae 95 3d 69 55 9a bd 0f 77 83 3d ba 83 3b bd
       0.07308651 -0.07535822 0.06419193 -0.04577992
000160 2b 32 24 3c 61 da f0 3b 9b 01 28 3d 8a 0f 07 3e
       0.010021727 0.0073502515 0.041017156 0.13189521
000170 05 e8 23 3e d2 f0 64 3d 6a 23 f5 3c 3e fe b9 bd
       0.16006477 0.055893727 0.029924113 -0.09081696
000180 73 9e 18 bd a1 25 ec 3d 6b 29 56 3d f6 2e 8f bd
       -0.037260484 0.11530615 0.052285593 -0.06991379
000190 5e 7c da bc b3 99 a5 3d df f6 e9 3c 3a 41 b9 3c
       -0.026670631 0.080859564 0.0285601 0.02261411
0001a0 16 be 2f 3c e0 1a 50 3d a7 57 32 bd d6 0e 2e bc
       0.010726472 0.05080688 -0.043540623 -0.010623654
0001b0 80 37 51 3b 6f 3a c5 bb b6 0a c5 3d 9b e5 ca bc
       0.003192395 -0.0060189287 0.096211836 -0.024767688
0001c0 0c f5 c9 3c 8e 9e a3 bd 25 8e 29 3c e3 0f ee 3d
       0.02465298 -0.07989226 0.010348831 0.11624124
0001d0 63 7a 54 3d b1 19 59 3d a7 a0 ca 3d dc be 36 3d
       0.05187453 0.053003017 0.09893923 0.04461561
0001e0 ce 12 a8 3d cd 4f 14 bd c3 f4 cc bd 05 d7 13 bd
       0.08206712 -0.036208916 -0.10007622 -0.03609373
0001f0 e4 7b 0c 3d 66 3c a1 bd 8b b2 b2 3c 75 6d a0 bd
       0.03429784 -0.07872848 0.021813652 -0.07833377
000200 1a f6 95 3b d5 b2 84 3e 52 74 d0 3d 1e c1 e8 3d
       0.0045764567 0.25917688 0.10178436 0.11364959
000210 ca 9f 25 bc a4 ca 50 3d eb a9 be 3d 89 68 1b bd
       -0.010108897 0.050974503 0.09309753 -0.03794149
000220 db a5 8b bc cf 22 d6 bd 04 92 86 3d 2c ab 63 3d
       -0.01704686 -0.10455858 0.06570819 0.055583164
000230 a8 5d 1e 3c 7e 9d 32 3d 04 5f ff 3c 14 92 cf bc
       0.009665884 0.043607228 0.031173237 -0.02533821
000240 2c 25 b0 3d 34 75 d2 bd 46 10 27 3d ba 9c 96 bd
       0.0860084 -0.10276261 0.040787004 -0.07354112
000250 0e 85 90 3c bd 8e 01 bd 40 44 d2 3d 53 d8 12 3e
       0.01764157 -0.031630266 0.10266924 0.14340334
000260 c0 b4 55 3e 40 ac fa bc 5c 3a 9d bd e9 ed ec bd
       0.20869732 -0.030599713 -0.07677147 -0.11568815
000270 21 8d aa 3d 03 8e b1 3d 8f 9c b9 bd 3d 28 51 3d
       0.083276995 0.08669665 -0.09063064 0.051063765
000280 3b 6e bc 3c 32 e9 0a 3c c8 ec 81 3d 39 99 ae 3d
       0.02300178 0.00847845 0.063439906 0.08525319
000290 0a 66 c5 bc 47 9f 88 bd af a2 5e bd 89 e3 d5 3c
       -0.024096508 -0.06671005 -0.054354366 0.026109474
0002a0 12 cf 5a bd c3 00 da bd 5a 79 c4 3d f4 75 6b 3d
       -0.053420134 -0.106446765 0.095934585 0.057485536
0002b0 f2 2c 6f bd 14 07 9f bb de 64 10 bd 76 6d 80 bd
       -0.058392473 -0.0048531387 -0.035252444 -0.06270878
0002c0 09 e7 0e 3d e8 3a 2b bc a2 84 1d be 6a e1 1a bd
       0.0348883 -0.010451056 -0.15382627 -0.037812628
0002d0 d1 c1 c4 bd b2 e2 88 bd dd 98 bd bd a5 be c9 bc
       -0.0960728 -0.06683864 -0.09257672 -0.02462704
0002e0 ef 3a d7 3c 91 c2 80 3c 3f 48 5e 3e 25 5d 0c 3e
       0.026273219 0.015717776 0.21707247 0.13707407
0002f0 4f 78 47 3e 57 90 88 bd a7 ff b2 3d 0d ac b2 bd
       0.19479488 -0.06668156 0.08740168 -0.08724222
000300 d0 59 ef bc b8 a6 1f bc 4b a2 43 be de 29 39 3d
       -0.02921763 -0.009744339 -0.19104879 0.045205943
000310 5e a5 d5 bc e6 5e 9a 3d e8 a5 61 3e 4e 24 b2 3d
       -0.02607983 0.07537632 0.22035944 0.08698331
000320 d6 31 90 3d c5 cf bb 3d 17 f3 ca 3d cb f4 bd 3d
       0.070407555 0.09170488 0.09909647 0.09275206
000330 17 3d ba 3d 2b 4e 3d 3d c7 45 1f 3d 09 49 c0 3d
       0.09093683 0.046217125 0.038884904 0.0938893
000340 20 96 9b bd 75 2b 43 bd 14 a8 7c bd 11 e6 bd bd
       -0.075969934 -0.047648866 -0.06168373 -0.09272397
000350 45 ce a1 bd ee 07 19 3d 71 1e eb bd e3 a2 23 be
       -0.07900671 0.037361078 -0.114804156 -0.15980105
000360 50 20 c8 3d ad 70 5a 3d 1d fb a6 bd 54 05 8e bd
       0.09771788 0.053330112 -0.08153365 -0.0693461
000370 64 85 1a 3d fd a0 c9 bc 10 a5 b7 bc 19 25 b5 3c
       0.037724867 -0.024612898 -0.022417575 0.022112416
000380 02 8d be 3d 29 67 9d 3d d1 bc d9 3d cb 98 7e bc
       0.09304239 0.07685692 0.10631717 -0.015539358
000390 a5 82 ec bb 02 44 87 3d dc 5d 9e bd f7 b9 ae bd
       -0.0072177225 0.06604768 -0.07732746 -0.08531564
0003a0 97 21 8b bd 91 3d 2f bd 78 cc 6d bc 51 5d c9 bd
       -0.06793516 -0.042783324 -0.014514081 -0.09832252
0003b0 80 f1 06 bc 07 09 7c bd 41 be db 3d 1d 58 c0 3d
       -0.008236289 -0.061532047 0.107296474 0.09391806
0003c0 c9 a3 9a 3b 9f af 21 bc 2f aa 74 3d 30 aa 6e 3c
       0.0047192317 -0.0098685315 0.059732612 0.014566943
0003d0 65 94 b0 3d 7c d0 8b bd a9 89 f6 bc f3 01 03 be
       0.08622054 -0.068268746 -0.030094938 -0.12793712
0003e0 d5 f3 1f be 95 04 82 3d 1c d2 88 bd 6b 38 ba bd
       -0.15620358 0.0634853 -0.066807 -0.09092792
0003f0 08 17 48 bc b1 87 f0 3d 54 3a a7 3d 53 e1 99 3d
       -0.012212522 0.11744631 0.08165422 0.0751368

bias f4 [64]
000000 ae 63 8d bb 7d 7f d0 bd cd 55 89 3d 17 d2 c7 3c
       -0.0043148613 -0.101805665 0.06705818 0.02439217
000010 76 a3 99 bc c5 18 9f bc 99 5f e0 bd 57 aa 8c 3d
       -0.018754702 -0.01942099 -0.10955734 0.06868427
000020 aa c8 06 3c 2d c7 db 3d c9 00 a9 3d 32 f9 04 3d
       0.008226553 0.10731349 0.08252103 0.032464214
000030 9e a9 a5 3d 7f 81 6a bd f2 93 16 3d c9 26 52 3d
       0.080889925 -0.057252403 0.036762185 0.05130652
000040 76 32 3b 3d 8b 73 97 bd 00 a6 d0 3b 08 2e 34 bd
       0.04570242 -0.07395085 0.006367445 -0.04398921
000050 2f 2b a3 b9 20 24 a0 3d 77 28 03 3e 8c 9f 12 3d
       -0.00031121957 0.0781939 0.12808405 0.035796687
000060 cb d6 a1 3d 20 4c 9f 3c e7 03 15 bc 38 a3 b6 3c
       0.07902297 0.019445479 -0.009095169 0.022294626
000070 50 32 c9 bd a9 88 90 bd eb 88 f5 bd 93 1b bb bd
       -0.098240495 -0.07057316 -0.11989006 -0.09136119
000080 b7 eb 30 bd ae 2e b0 3c 2e 49 0b be e9 3c 82 bd
       -0.043193545 0.021506634 -0.13602135 -0.06359274
000090 f3 ab fe bc 0e 0c 77 3d c2 25 b3 3d 76 65 b9 3d
       -0.031087851 0.06031423 0.08747436 0.09052555
0000a0 87 7d d9 3b 1e 85 32 3d 1c 2e 87 bd ee c9 76 bd
       0.0066372785 0.04358398 -0.066005915 -0.06025117
0000b0 29 57 cc bc d7 8e 9b bd 25 30 1a be 49 2c c1 bd
       -0.024943905 -0.07595604 -0.15057428 -0.09432275
0000c0 b9 67 05 3d f1 50 85 3d 60 28 e6 3d 97 10 2d 3d
       0.03256962 0.06509579 0.1123817 0.04225215
0000d0 ad 77 bb bc f4 19 f0 bd 54 55 24 3d 6a d3 94 3d
       -0.022884214 -0.117237 0.040120438 0.072668865
0000e0 dd e2 c3 bb 2e c6 37 3b 58 3f d1 bc 0f ad 98 3d
       -0.005977972 0.0028041708 -0.0255429 0.07454883
0000f0 f6 9a be 3d 33 5c 06 3e ec 90 13 be 2d bb 17 3e
       0.093069 0.13121109 -0.14410752 0.14817496

weight f4 [32, 64, 3]
000000 b1 71 fa bc 3b 5a c3 bc 35 16 a8 3c 25 03 b8 bc
       -0.03057179 -0.023846736 0.020518402 -0.022462437
000010 49 7d 44 bd 2d 17 32 3d 2c f4 ab 3d bb 73 c3 bd
       -0.047971044 0.043479133 0.083961815 -0.09543558
000020 c3 5b 24 be e8 23 5d bd 4a 8c e0 bc 5b b1 9d 3d
       -0.1605063 -0.05398932 -0.027410645 0.076998435
000030 56 ea c3 3c 87 6e a2 3d 70 04 b6 3c d7 6f 49 3d
       0.023915451 0.07931238 0.022218913 0.049178924
000040 cb 6b 15 3d 23 f8 33 bd 1c 27 22 3d f5 22 2e 3d
       0.036479753 -0.043937813 0.03958808 0.042513806
000050 05 82 b3 3b 7d 4f 1b bc 9c 36 e7 bc 6b b7 a4 bc
       0.005478146 -0.009479401 -0.028224282 -0.020106992
000060 af c9 56 bd b1 2c e3 bd af fb 93 bc 89 45 06 bc
       -0.052438434 -0.110925086 -0.018064348 -0.008195289
000070 94 56 92 bc c7 61 8f 3b 27 8d 17 3c 6e 1c 72 3c
       -0.01786355 0.0043756696 0.009249962 0.014777286
000080 75 6f 8b 3d f2 9f 9b 3c 07 6c 0f bd 11 1d e3 bc
       0.06808368 0.018997166 -0.035015132 -0.02772382
000090 29 a1 c6 3d 28 20 84 bc 73 f1 23 3c ea 34 58 bc
       0.096987076 -0.016128615 0.010006296 -0.013196209
0000a0 f7 64 e7 3d 56 0f 38 3e 75 4c e2 3c 4a c5 15 bd
       0.112985544 0.179746 0.027624348 -0.036565103
0000b0 98 32 ad bc 20 3e 6a bb 32 ba 85 bd f0 de 4b bc
       -0.021142289 -0.0035742596 -0.065296546 -0.012443289
0000c0 bb 91 72 3d 80 6c 3f bd 08 79 85 bd 7e 26 9e bd
       0.05922101 -0.046734333 -0.065172255 -0.077221856
0000d0 99 e3 02 bd f3 49 a4 bc 51 ea 06 bd 19 03 c2 bd
       -0.031955335 -0.020054793 -0.032938305 -0.09473247
0000e0 60 60 8d bd bd d8 bc bc 8d b1 e7 3b 81 6d e6 3c
       -0.06903148 -0.023052568 0.0070707262 0.028128387
0000f0 01 90 9b 3b 84 97 27 3c 79 92 5a 3b e0 61 82 bd
       0.004747391 0.010228995 0.0033351465 -0.063663244
000100 1d 97 f6 3c c7 d7 a3 bb a1 cf 3a 3d 30 b1 7d 3c
       0.030101353 -0.005000088 0.045608167 0.015484139
000110 45 04 45 be 79 90 52 3d f4 35 34 bd 0e b3 7b bd
       -0.1923991 0.05140731 -0.043996766 -0.061450057
000120 18 ad 31 3c 5e 4b b3 bb f3 f2 a5 bb 0a ba ef bd
       0.010844491 -0.005471631 -0.005064362 -0.11705406
000130 b4 bf da bd d7 89 e8 bd 14 87 a5 bd 5f 40 2f bc
       -0.10681096 -0.11354416 -0.08082405 -0.0106965
000140 d7 9a 04 3e 58 bd 0c bd 5c 87 7a bd a6 8f 9f 3d
       0.12949692 -0.03436026 -0.061164245 0.07791071
000150 6d 4a 10 be d5 21 d8 3b 25 9f 87 3d 06 2c 8b bd
       -0.14090891 0.00659583 0.06622151 -0.06795506
000160 6e 85 82 bc 4c 73 20 3c eb b8 3a bd 7f 03 1a 3d
       -0.015932765 0.009793114 -0.045586508 0.03760099
000170 6c 7b 37 bc 4c 2e 0c bd 83 55 81 3c 5e a2 a9 bd
       -0.01119886 -0.03422384 0.015787845 -0.08282922
000180 06 f2 c6 bc a5 de 04 bd 17 c9 00 3e 76 13 e0 bd
       -0.024285328 -0.032438893 0.1257671 -0.10941212
000190 a1 59 a6 bc fa 51 1d 3d ff fd 29 3d 30 3c 0a bb
       -0.02030641 0.038408257 0.041501995 -0.0021093003
0001a0 f6 fe 6c 3d dd 2b 71 3c e5 12 72 bc ee 91 da bd
       0.057860337 0.0147199305 -0.014775013 -0.10672365
0001b0 5b 6f cd bb a9 20 86 ba 49 a7 28 3d e5 80 f5 3d
       -0.006269378 -0.0010233122 0.04117516 0.11987475
0001c0 4a 4c c9 3d 30 d7 22 3e d9 29 5a 3d eb 45 3e bd
       0.09829004 0.159024 0.053262565 -0.046453398
0001d0 3e 46 e9 bc e3 70 30 bd 50 bf 30 3d 24 de 1f 3d
       -0.028475877 -0.043076407 0.0431512 0.03903021
0001e0 b6 fe 56 bc 1b ff 4c 3d 7f 45 56 3c e7 24 99 bc
       -0.013122251 0.050047975 0.013078093 -0.018694354
0001f0 1f 9b 15 bd ce 78 6e bd 4b 7e b9 bd a6 fe 76 3d
       -0.036524888 -0.058220677 -0.090572916 0.060301445
000200 46 69 e5 3d d1 1b 5c 3e 72 e2 1a 3e b5 2d 93 3d
       0.1120172 0.21494986 0.15125445 0.07186452
000210 05 9a 1a 3d f3 94 65 3d ae 7e 9c bc 76 74 5e bd
       0.03774454 0.056050252 -0.019103374 -0.054310285
000220 69 dd d9 bd b5 01 b6 bd a3 12 00 bd 0d 44 42 bd
       -0.10637934 -0.08887044 -0.031267773 -0.04742818
000230 55 e6 3c 3c dd 00 86 3c 30 0f 4a 3d 04 43 8b 3a
       0.011529525 0.016357834 0.04933089 0.0010624831
000240 a6 b2 88 3d e0 8c 6d 3c eb 06 d5 3d 71 f5 32 bd
       0.066746995 0.014498919 0.1040171 -0.043691102
000250 b9 b7 91 bb e9 cb e5 3d 75 f7 36 3c 6b 5e ca bd
       -0.0044469503 0.112205334 0.011167397 -0.0988129
000260 3d 4f bd bd 2f 4b 03 3e fc 8c 6a 3c ff 80 75 bd
       -0.09243629 0.12821649 0.01431584 -0.059937473
000270 6d bb 68 bd 86 36 9f 3d be 5e c8 3d f4 a0 8d 3d
       -0.05681937 0.077740714 0.09783696 0.06915465
000280 80 4e d4 3c 03 9b 57 3c e1 4e 9e bc 16 d0 34 3d
       0.025916338 0.013159516 -0.019324722 0.04414376
000290 08 28 b2 3d 5a 35 2b bd 5a c0 b2 3d 64 7f 9d 3c
       0.086990416 -0.041798927 0.087280944 0.019225784
0002a0 48 6b 6c 3d 33 4d f2 bc 87 22 02 3d 08 59 13 bd
       0.0577195 -0.029577827 0.03177121 -0.03597358
0002b0 84 25 99 bd 4b 97 30 3d fd 7d bf bc 9d 58 4d 3d
       -0.07477859 0.043113034 -0.023375506 0.050133336
0002c0 4a 32 2f 3c 83 9d 36 bc 52 e1 df 3c 89 9a 85 3d
       0.010693142 -0.011145952 0.02732912 0.06523616
0002d0 1a 32 13 bd 5e 29 4c 3c 61 55 4b 3c b7 69 80 bd
       -0.035936452 0.012461035 0.012410493 -0.062701635
0002e0 a8 00 a6 bc 6d d6 67 3d 65 26 c4 bc 38 96 b6 bd
       -0.020263985 0.056600977 -0.02394409 -0.08915371
0002f0 c4 f3 75 3d f3 5e 4e bc f7 8a 3e bd fa a0 c2 bc
       0.060046926 -0.01259588 -0.046519246 -0.0237584
000300 6c 9b a4 3d d5 26 a5 3b 06 c6 bd bb 48 c8 37 bd
       0.08037457 0.0050400295 -0.0057914285 -0.044868737
000310 c7 c7 44 3d 9f 23 92 3d 1f 9b aa bd f5 3d 7f bd
       0.048042085 0.071357004 -0.08330368 -0.062314946
000320 b0 f9 11 bd 7b 46 e8 bd 77 37 20 be 9c ff b5 bc
       -0.03563851 -0.11341568 -0.15646158 -0.02221661
000330 c5 50 51 3d 70 48 e6 bc 57 45 a9 3b 05 29 b3 3b
       0.05110242 -0.028110713 0.0051657367 0.0054675364
000340 bd f0 85 bd cc 6d 38 3d a8 f4 46 3d b3 93 d2 bc
       -0.06540058 0.045026585 0.048573166 -0.025705194
000350 b7 05 e3 bd cb 61 52 bd 8d bc d0 bc 11 62 a4 bc
       -0.110850744 -0.051362794 -0.025480533 -0.020066293
000360 54 cb f5 bc fb 48 1a be ec 7a 41 be 13 8e e0 bc
       -0.030004181 -0.15066902 -0.18894547 -0.027411496
000370 de 09 1e 3d 73 cb 9f 3d ca 2e a6 3d 26 c2 c5 bc
       0.03858363 0.07802477 0.08114393 -0.024140429
000380 09 66 46 bc 06 1a d0 bc 26 dc 8b bd 67 d7 08 be
       -0.012109288 -0.025403034 -0.06829099 -0.1336342
000390 7c 15 2f 3c cf 19 11 3d f4 81 ac 3d 36 ee 9a bd
       0.010686275 0.035425004 0.08423224 -0.075649664
0003a0 78 23 69 bb 43 ca b1 bd 2d 25 fb 3c 40 85 dd bc
       -0.003557412 -0.086811565 0.030657375 -0.027041078
0003b0 45 66 87 bd a8 49 89 bd c0 fe dd 3a f2 6e 86 bd
       -0.06611303 -0.06703502 0.0016936883 -0.0656413
0003c0 7e 9d 7b 3d cc 48 62 3d 73 a3 7c bc a0 18 3f 3d
       0.061429493 0.055245206 -0.015419829 0.046654344
0003d0 ea 89 a9 3d e1 44 7b bc 87 33 2a bd 74 01 5c 3d
       0.08278258 -0.015336246 -0.041553047 0.053712323
0003e0 d9 51 0f 3c 94 bf 5f bd 3e f2 84 3d a8 a7 71 3c
       0.008747541 -0.054626063 0.064915165 0.014749445
0003f0 95 5e 1c bd 30 fe 41 bc 79 b7 ea b9 29 da 77 3d
       -0.038176138 -0.011840388 -0.00044768656 0.060510788

bias f4 [32]
000000 21 1e d0 3c ee 5f bf bd 34 42 3a 3a 2c a8 a7 bd
       0.025404992 -0.09344469 0.0007105202 -0.08186373
000010 ab 62 2b bd b1 26 36 3d 5f a4 34 bd 9d da 6b 3c
       -0.041842144 0.044470493 -0.04410207 0.014395383
000020 d9 3e 7b 3c 1f 00 ed bc 6d 45 17 bd 27 25 e5 3d
       0.015334808 -0.028930722 -0.036931444 0.11188727
000030 f2 d0 ee 3d 46 f3 70 bc e7 ac cd 3c 7c 9f f5 bc
       0.11660947 -0.014706438 0.02510686 -0.029983275
000040 ad 2f d1 3d a3 14 0f bd b5 84 98 3d 52 2a eb 3c
       0.102141716 -0.03493179 0.07447187 0.028706703
000050 da a7 ad 3d 36 b8 b0 bc a1 03 c9 3d 05 5b 7c 3c
       0.08479281 -0.021572214 0.09815145 0.01540256
000060 c9 72 08 bc 55 2e 01 3d 29 c5 3d bd 69 3a 37 bd
       -0.008328148 0.031538326 -0.046330605 -0.04473344
000070 d8 30 dd bd b6 72 4c 3e 2e 4f 1e 3e 6d 38 cb 3d
       -0.10800332 0.19965634 0.15459892 0.09922872

weight f4 [32, 64]
000000 92 89 cb bc 5f 59 a3 bd 90 16 0a 3e a0 a1 0d 3d
       -0.024845872 -0.079760306 0.1348517 0.034577966
000010 aa 2a 77 3c e1 01 a3 bd a8 d7 10 be ad 24 37 bc
       0.0150858555 -0.07959343 -0.14144766 -0.011178178
000020 f4 7d 36 3d db 47 f3 3c 58 00 58 bd 7e 14 2b bd
       0.044553712 0.02969735 -0.052734703 -0.04176759
000030 5e 0c a6 be 37 16 df bd 79 45 dc bd ae 82 22 3d
       -0.3243131 -0.10892909 -0.10755438 0.039675407
000040 7b 9c 00 3e e0 2c 81 3d bd af 9b bd b0 3a 8f bd
       0.12559693 0.06307387 -0.07601879 -0.069936156
000050 73 69 e6 bb 0e d9 7b 3e 0d fe 06 3d ff e7 3e 3c
       -0.0070316135 0.24594519 0.032957125 0.011651992
000060 be 6c d6 bd e3 c1 05 3c cb dd 2a be 20 7d 64 3e
       -0.1046996 0.008163902 -0.1668617 0.22313356
000070 36 2c 00 3e 31 bf 29 bd f9 01 46 3d 28 9a 06 be
       0.12516865 -0.0414421 0.048341725 -0.13144743
000080 34 c7 f4 3d ff 16 76 bd b1 d9 8a bd c3 99 a1 bd
       0.119520575 -0.060080525 -0.067798026 -0.07890656
000090 50 e8 b2 3d 17 e6 98 3c 85 ad 35 be 97 84 8e 3d
       0.08735716 0.018664403 -0.17741974 0.06958883
0000a0 05 ad 84 3d fb 0b 1c 3e 3b 6b 84 bc 2c d8 0e 3e
       0.06478313 0.15238945 -0.016164413 0.1394965
0000b0 97 aa b5 bd 8e 7b 95 bd bc bc a4 bc 03 e4 3b 3e
       -0.08870428 -0.07298957 -0.020109527 0.18348698
0000c0 2b 84 e9 bd 46 2a b6 bc 23 22 68 bc ca e4 1d 3d
       -0.11402162 -0.022236954 -0.014168295 0.03854827
0000d0 74 1c 9b 3d 42 71 dc 3d 0c bb de bc c0 fb 7b bd
       0.075737864 0.1076379 -0.0271888 -0.061519384
0000e0 f9 28 66 bd be 06 15 bd c1 0a 63 3d 6a 72 fc 3d
       -0.05619142 -0.036383383 0.055430178 0.1232651
0000f0 e8 03 ed 3b 1e eb 20 bc 8c 3d b3 3d ca 7f f4 bc
       0.0072331317 -0.009821681 0.087519735 -0.02984609
000100 e8 af b4 3d 25 95 16 3c 57 95 a9 bd 5a 41 ba bd
       0.08822614 0.009190832 -0.082804374 -0.09094496
000110 c4 c3 e2 3d b8 87 93 3c 1a 43 4c 3e 13 7a 20 be
       0.110724956 0.018009052 0.19947472 -0.15671568
000120 ce 15 b0 3c 5f ce 62 3e 95 37 b0 3c ac 2b 1f be
       0.021494772 0.22149037 0.021510879 -0.15544003
000130 d7 7b ce bc d0 d3 0f be 51 6b ac bc 40 65 62 3d
       -0.025205536 -0.14045644 -0.021047266 0.05527234
000140 ec 0d c2 bd a1 f5 8c 3d e3 9d 2c 3c a5 d1 38 bd
       -0.09475312 0.068827875 0.01053569 -0.045121808
000150 ae c9 2f 3e 05 6e d9 bd 72 ae 69 3d 3a 9d b8 3d
       0.17166778 -0.10616688 0.05705113 0.090143636
000160 ff 06 7b bd 85 cb 70 be f4 4f 37 3d e8 2d ab 3c
       -0.06128597 -0.23515137 0.044753984 0.020895913
000170 d6 53 e2 bc 35 cd 3c bd d9 b2 df 3b 06 7b 70 bd
       -0.027627867 -0.04609414 0.00682674 -0.058711074
000180 9d b7 94 3d e5 97 00 3e 5d df 84 3d b8 e1 19 bc
       0.07261584 0.12557943 0.06487916 -0.009392194
000190 81 13 27 3e 25 35 3e bd d6 b7 9c bc 77 eb d5 bd
       0.16316034 -0.0464374 -0.019130629 -0.10445302
0001a0 11 86 25 3e 2f fe b4 bd f9 3d 68 3c d9 b9 b3 3d
       0.16164424 -0.08837544 0.014174932 0.08775682
0001b0 9e b3 3b bb d0 b7 74 bd 02 98 53 bd ec ff d4 bb
       -0.0028640996 -0.05974561 -0.051658638 -0.006500235
0001c0 ad ae 4f 3d c0 4b f2 3d ba b3 e0 3d 29 6c 10 3c
       0.050703693 0.118308544 0.1097178 0.00881485
0001d0 ad 09 9c 3d ff 95 84 3b c2 ee 05 be dd 21 15 be
       0.07619033 0.0040462012 -0.1307936 -0.14563699
0001e0 58 30 8c 3d 44 32 98 3d 08 f8 ca bb 09 70 86 bc
       0.06845158 0.074314624 -0.0061941184 -0.016410844
0001f0 5f 8c cd 3d a2 6b 3e bd 09 f1 94 bd e8 4a e9 bc
       0.10036539 -0.046489365 -0.07272536 -0.0284781
000200 fa 4e 56 3d 5a 60 6d 3e 82 ad 8a bb 61 39 f9 bd
       0.05232141 0.23181286 -0.0042321095 -0.12169147
000210 51 f2 81 3d b4 8d dd 3c 7c ad 2b bc 8a 46 3d 3e
       0.06345046 0.027045108 -0.010478374 0.1848394
000220 00 2d a1 bc 46 b5 14 3e 54 0d 4f bd 51 38 70 3c
       -0.019674778 0.14522275 -0.05054982 0.014661864
000230 e8 8f f8 3c 57 1d e1 bd 34 c0 84 bd cc 7e 10 be
       0.030342057 -0.10991924 -0.06481972 -0.14110869
000240 4e ad 38 be d3 40 8d 3d 01 c4 2c bc 89 82 03 be
       -0.1803486 0.0689713 -0.010544778 -0.12842764
000250 df fb 18 3e 01 f2 92 bd d4 09 82 3d a7 f7 f8 3d
       0.14939831 -0.07175065 0.06349531 0.12156611
000260 cb 44 dd bb 24 92 ba be 46 bf 0f bd 2b 3e 4f bc
       -0.0067525855 -0.3643962 -0.035094522 -0.012649099
000270 ed 81 b8 bd 16 cf 82 bd 0f ef a4 3d 3a 67 5d bc
       -0.090091564 -0.06387155 0.08053409 -0.013513381
000280 12 69 76 bd 0b 94 16 be ce ff bb bd 92 7e 8f be
       -0.060158797 -0.14704911 -0.0917965 -0.28026253
000290 ab be a8 bd 95 37 f6 bd bf 32 65 bd 9c b8 17 bd
       -0.08239492 -0.1202232 -0.0559566 -0.03704129
0002a0 a5 45 3d be 5d 23 d3 3d 6f 28 35 bc ef 95 01 3d
       -0.18483599 0.103094794 -0.011057003 0.03163713
0002b0 a5 dd c6 bd af 16 4a bc 82 9c 49 bd 42 9d 54 be
       -0.09710244 -0.01233451 -0.049221523 -0.20763114
0002c0 8e 9b a3 be e8 d7 0e 3e e9 9d ba 3c 44 ad ab bd
       -0.31954616 0.13949549 0.022780376 -0.08382657
0002d0 f6 21 cc 3d 89 e0 ad 3c 24 7d 8f bd 87 29 27 be
       0.09967415 0.02122523 -0.070062906 -0.16324435
0002e0 36 b0 e0 bd 70 9c 9a be 15 7a eb bd e0 50 09 3d
       -0.109711096 -0.30197477 -0.11497895 0.033524394
0002f0 92 c0 ad be 4d 37 eb 3b e1 4a fe bd 67 69 c6 3d
       -0.33935982 0.007178223 -0.12416626 0.09688073
000300 63 51 bf bc a3 fb 9f 3d 2f f4 40 3d 85 f4 38 3d
       -0.023354238 0.07811668 0.04710787 0.045155067
000310 d8 46 44 bd 43 72 24 3e df c6 3f 3d 23 9d 42 be
       -0.047919124 0.16059212 0.046820518 -0.19005255
000320 99 67 a2 bc d2 bf 1e bd c1 5c a3 3d 0c 18 27 be
       -0.01982479 -0.038757153 0.07976676 -0.16317767
000330 3d 0b 08 bd cc a2 02 bc 68 d1 92 bd 8b c4 da 3d
       -0.033213843 -0.007973384 -0.07168847 0.10682019
000340 e6 18 33 be 9c f0 75 3d 88 fb 87 bd a9 ee af bd
       -0.17489967 0.060043916 -0.06639773 -0.08590443
000350 ba f4 22 bd a9 3e 0e 3d 08 e9 43 bb e5 e1 f4 bd
       -0.03978417 0.034727726 -0.0029893536 -0.119571485
000360 3e 05 9d bd 8b 87 09 be ee c8 d9 bc ce 2f 1c 3c
       -0.076670155 -0.13430612 -0.026585069 0.009532882
000370 e2 76 e9 bb f0 7c b5 bd de e2 d2 bd 26 b0 55 bd
       -0.0071247676 -0.088617206 -0.10297178 -0.05216994
000380 63 b5 b7 3d 02 74 c7 3d 7d 29 ea 3d 13 c5 33 bd
       0.08970144 0.097389236 0.114336945 -0.043889116
000390 88 3a c5 3d f0 4d 31 bd 44 a8 29 3b 9e 65 de bc
       0.096303046 -0.043287218 0.0025887648 -0.027148064
0003a0 4d 6f fc 3d 7d 50 db 3c 8a a7 e4 bc 20 d9 a5 bc
       0.123259164 0.026771778 -0.02791192 -0.020245135
0003b0 e6 b1 a1 bd 83 28 90 3d 3c 80 2d bd be f9 54 3a
       -0.078952596 0.07038977 -0.042358622 0.00081243727
0003c0 59 3a da 3d 2f e0 08 3e c7 d8 b9 bd 56 48 44 bd
       0.1065566 0.13366769 -0.0907455 -0.047920547
0003d0 e7 87 c0 bd 2e a9 62 bc 40 31 ac bd 43 66 05 3e
       -0.09400921 -0.013834281 -0.08407831 0.13027291
0003e0 f8 39 33 3c 7a 9c 47 bd 92 0e b5 3d 24 c4 c6 3c
       0.010939114 -0.048733212 0.0884067 0.024263449
0003f0 8b f1 c1 3d da eb fa bd 00 f8 c2 3d e7 62 b1 3d
       0.09469899 -0.12252016 0.095199585 0.08661442

bias f4 [32]
000000 08 85 84 3d 77 8e a4 bd 3b 03 d4 bb ea 71 a8 bd
       0.06470686 -0.080349855 -0.0064701117 -0.082248524
000010 4e ac 87 3a 5b f9 b3 bc 7b de 47 3d 39 9a ae 3d
       0.0010351033 -0.021969488 0.04879616 0.085255094
000020 d5 85 45 bc a1 86 3f 3d 82 a6 5d bd 87 82 7b 3c
       -0.012055834 0.04675925 -0.054113872 0.015350944
000030 46 74 1e 3e 5c a6 12 3d 48 a3 87 3d 63 77 67 be
       0.15474042 0.035803184 0.0662294 -0.22604136
000040 5e 33 5f bd 03 54 0f 3d 87 23 07 3d 79 ae 55 3d
       -0.054492347 0.03499223 0.032992866 0.052168343
000050 c2 f8 4d bd bf f6 78 3d 79 1d 82 bb b2 1b 05 be
       -0.050286062 0.06078219 -0.0039707986 -0.12998846
000060 d8 97 25 be e9 aa 4c 3e c6 00 ea 3d 60 17 0a 3e
       -0.16171205 0.19987072 0.11425929 0.1348548
000070 76 76 9f bd 8e 6f 81 bd af b4 f0 bd 55 b6 99 bb
       -0.077862665 -0.063201055 -0.11753213 -0.004690925

weight f4 [32, 32]
000000 7e e3 1a 3e 42 88 00 3e 72 26 21 3e 57 57 17 3e
       0.15125844 0.12551978 0.15737322 0.14779411
000010 e7 2d e5 bc eb d2 06 3e c8 98 e2 bb 1c fc 04 be
       -0.02797599 0.13166396 -0.0069151856 -0.12986797
000020 6d 3b d6 3d 2f 53 6c 3e e3 e8 65 3e 85 4d c5 3c
       0.10460553 0.23078607 0.2245212 0.024084816
000030 6b f5 8f 3c 11 5a a0 bd da d3 ed bd 2e 4f 8b 3b
       0.01757308 -0.07829679 -0.11612673 0.0042513823
000040 b1 94 05 3d 87 3f ea bd 1a cb a9 3b 1b 26 c3 bd
       0.032612506 -0.11437898 0.0051816823 -0.095287524
000050 2a 1c 2c 3e 7b 00 2e 3d d7 e1 f8 bd ea f1 be bd
       0.16807619 0.042480927 -0.121524505 -0.09323485
000060 b9 f8 77 3c 0b 9b d0 bd 72 89 86 3d ef cf c5 bd
       0.015134984 -0.10185822 0.06569184 -0.09658801
000070 a6 6a 4f 3e 3f 72 18 3e a4 0d a2 3d a7 68 31 3e
       0.20255527 0.14887331 0.07912758 0.17325078
000080 0d df 8b be a1 8e c2 3c be ba 87 3e 88 0e c2 3d
       -0.27318612 0.023749651 0.2650966 0.09475428
000090 b0 61 c3 bc ac 69 8a 3d 2f aa c2 be ac f2 ea 3d
       -0.023850292 0.067584366 -0.38020465 0.11472067
0000a0 37 51 9b 3e 59 1b 78 be 2c e6 85 3e da 2f 73 bd
       0.303354 -0.24229182 0.2615217 -0.059371807
0000b0 89 6f 2c be d8 f5 92 bd 3f b8 80 3d 18 23 b0 3d
       -0.16839422 -0.07175797 0.06285142 0.086004436
0000c0 cc 7f 50 3e 72 f9 ba be 36 bb c5 bd d2 7f c4 bd
       0.2036125 -0.36518437 -0.09654848 -0.09594692
0000d0 af ae 1d be e8 75 59 bd da 63 9f 3d 9d f9 f1 bb
       -0.15398668 -0.05309096 0.07782717 -0.0073844926
0000e0 02 fb d5 bd 99 b7 a1 3d 8f 1a a7 3d 1d 8d 1a be
       -0.104482666 0.078963466 0.081593625 -0.15092893
0000f0 b1 21 53 bd ec 14 0e 3e a7 c4 42 be 87 8b 03 3e
       -0.051545803 0.13875169 -0.1902033 0.12846194
000100 46 b4 95 bc 4d 4e ab 3d 5d 8e d1 3d ca 7d 65 bd
       -0.018274438 0.08364544 0.10232232 -0.056028165
000110 66 0b 31 bd a6 e4 68 bd 7a da f2 bc 66 07 18 be
       -0.04322376 -0.05685868 -0.029645193 -0.14846572
000120 1b 27 92 3e b8 5c 96 bd 4a b5 2d 3c 15 b6 90 be
       0.2854546 -0.073419034 0.010602305 -0.28263918
000130 a3 2d 3c 3d 69 c2 8b 3c a3 20 d4 bd 1e c7 0f bc
       0.04594196 0.017060475 -0.103577875 -0.008775501
000140 b7 e2 49 3e e5 7e 5d 3d 2f c4 ab be 4b ca 1f be
       0.19715391 0.054076094 -0.33548114 -0.15604512
000150 c6 5b 63 3c df 1b b0 bd e2 59 23 3e 90 e4 94 bd
       0.013876861 -0.08599066 0.15952256 -0.07270157
000160 51 7e c8 3d d1 24 4d 3c ff 65 98 bd 9d 83 e3 3d
       0.09789718 0.012520985 -0.07441329 0.111090876
000170 c7 06 2e 3e d4 d8 6b 3e ab 50 5e 3e 8d 20 5a bd
       0.16994773 0.23031932 0.2171046 -0.0532537
000180 e8 0e d2 3d 21 6b 57 3e bf 0e e8 bc 73 e2 bd 3d
       0.102567494 0.2103696 -0.028327344 0.092717074
000190 64 c8 a7 3d f3 19 14 be bc 8e a4 bd 7f 7b c3 3d
       0.08192518 -0.14463024 -0.08035037 0.095450394
0001a0 47 35 8c bd fc 96 3d bd 46 01 8a be 67 27 3f 3d
       -0.06846099 -0.046286568 -0.26954097 0.046668436
0001b0 08 9e 2b 3d e8 cb df 3c a7 f1 7e bd 99 f6 3b 3e
       0.041898757 0.02731891 -0.062242176 0.18355788
0001c0 96 cc a6 3e e9 2f 06 bd 5a 43 9a 3d 03 dc 79 bc
       0.32577962 -0.032760534 0.075323775 -0.015250209
0001d0 5f 5d 9f 3d 90 a6 2f be 8c fb b5 bd f0 22 37 3d
       0.07781481 -0.17153382 -0.088858694 0.044711053
0001e0 32 64 fa 3c 3a 35 2e be d0 2a e1 3d d8 e3 bb bd
       0.030565355 -0.17012492 0.10994494 -0.09174317
0001f0 d5 f9 89 3c 2a a6 14 3d 38 46 b6 3d 4a eb 24 3e
       0.016842762 0.03629128 0.08900112 0.1610538
000200 a4 6f fd 3d 96 17 f6 bc 58 1b 90 3e 09 ac 6a 3c
       0.123748094 -0.030040544 0.28145862 0.014323243
000210 b7 03 42 bd df 4c c4 bd 1c 09 50 3e d7 58 87 be
       -0.047366824 -0.095849745 0.20315975 -0.26434967
000220 5d af 39 3b 74 19 06 be 36 ba b9 bd 4c 61 d8 bc
       0.0028333284 -0.13095647 -0.0906872 -0.026413582
000230 e2 ba 55 be 8b 99 b0 3c c4 fd 71 3d 11 a7 1f be
       -0.20872071 0.02155759 0.0590799 -0.15591075
000240 5a 6e dc bd 20 f2 e1 3d 73 91 bd 3d 16 eb cb 3d
       -0.107632354 0.1103251 0.09256258 0.099569485
000250 32 fc 3c bd 5a fb b2 3d 44 6a c6 bd 54 21 ef bb
       -0.04613895 0.08739348 -0.09688237 -0.007297674
000260 ef ab 25 3e 16 35 9e 3c 65 5f 51 bd 87 43 1c be
       0.16178869 0.019312423 -0.051116366 -0.15260135
000270 92 50 e1 3d e0 10 01 be 54 c8 73 3d 83 73 ea 3d
       0.11001696 -0.12604094 0.05951722 0.11447813
000280 f9 29 80 3d 20 de 31 3e 2a 5c b2 3d ce 03 17 3d
       0.06258006 0.1736989 0.08708985 0.036868863
000290 26 c0 d3 bd ee f9 0a 3d 42 16 c6 be 13 5a 94 3d
       -0.10339384 0.033929758 -0.38688856 0.07243743
0002a0 f3 85 07 3f 28 82 8d bb 93 aa 37 3e 9f a9 1d be
       0.52938765 -0.0043184943 0.17936163 -0.15396737
0002b0 d7 ca 63 be cf d7 91 bd de 3f a8 3d 9d 75 0d be
       -0.22245346 -0.0712124 0.08215307 -0.13814397
0002c0 a3 3f 80 3e 63 05 42 be 0f 30 e1 bc 9d 12 95 3d
       0.2504855 -0.18947367 -0.027488736 0.07278941
0002d0 03 9c a2 3c 24 83 95 ba 48 b9 a9 bd 14 1b 1f bd
       0.019849783 -0.0011406881 -0.08287293 -0.038844183
0002e0 66 c3 2f 3e bf 2c 7a 3c cc 22 2d 3e 4c 57 fa bd
       0.17164382 0.015269457 0.16907805 -0.12223682
0002f0 5e f1 c8 bd 42 58 d3 3e 55 17 b3 bd fa 9d 8a 3e
       -0.09811662 0.41278273 -0.087446846 0.27073652
000300 21 7f 96 3d d4 19 4a ba c3 17 a7 bd d7 b9 34 3e
       0.07348467 -0.0007709537 -0.08158829 0.17649017
000310 51 40 b1 3d d1 df 31 be 21 0b 50 3e b4 c8 8c 3d
       0.086548455 -0.17370535 0.20316745 0.068742186
000320 28 59 6f be fd 20 86 bd 37 9d 14 3e 4e 33 f6 3b
       -0.23373854 -0.06549261 0.14513098 0.00751344
000330 67 44 31 bc f7 7e 3e 3d a0 c0 9e 3d 15 67 3d 3e
       -0.010819531 0.0465078 0.07751584 0.18496354
000340 65 69 08 3e 3d 08 fd bd f9 b5 90 bd 8d 08 a6 bd
       0.13321455 -0.12355087 -0.070659585 -0.081071
000350 48 01 31 3d 7a 70 66 3d 3d 49 7e 3e 97 93 1a 3b
       0.043214113 0.05625961 0.24832626 0.0023586506
000360 af 75 26 bc 66 ab db bd ca 93 a4 bc d6 20 f9 3d
       -0.010159894 -0.10726051 -0.020090003 0.12164466
000370 4c 86 4e 3e 21 3c ad 3d 19 2b 62 3d 95 f6 55 3c
       0.20168418 0.08458734 0.055216882 0.013059278
000380 d4 dd ee bc a9 da 31 3e 71 ce 8b 3d 95 d4 c3 3d
       -0.02915851 0.17368568 0.06826485 0.09562031
000390 4d ae 95 bd 4d 84 6f bd 7b 15 89 3d b7 21 d7 3d
       -0.07308636 -0.05847578 0.0669355 0.105044775
0003a0 d8 08 9f 3d 62 c9 15 3d 2b 89 58 be af ee 8d 3d
       0.07765359 0.036569007 -0.21146075 0.06930291
0003b0 49 7c 78 bd 83 f8 c1 bd be 9b 3a bd f3 17 5a 3d
       -0.060665403 -0.09471228 -0.045558684 0.053245496
0003c0 a1 45 e2 bd 5f 2c 25 be 05 8f f5 bc c6 c3 71 3c
       -0.11048437 -0.16130207 -0.029975424 0.014756149
0003d0 7f ec 6d 3d 49 56 e1 bd a5 0a 6e be 5f c0 90 3c
       0.05808687 -0.11002786 -0.23246248 0.017669855
0003e0 b1 85 4d 3d d7 48 3c 3d 2e 6b 35 bb 8d ab 0e be
       0.050176326 0.045967903 -0.0027682292 -0.13932629
0003f0 fb cb 13 3e 66 2d 12 3e f1 fb 90 3d ab 1c 1e 3e
       0.14433281 0.1427513 0.07079304 0.15440623

bias f4 [32]
000000 a6 bc 72 3c 6e 8c cc bc ae d0 21 3d ae cf 33 3e
       0.014815485 -0.024969306 0.039505653 0.17559692
000010 d0 3a 22 be 31 d7 12 be a9 d6 10 be a0 dd ad bc
       -0.15842748 -0.14339902 -0.14144386 -0.021223843
000020 5d 5c 08 3e 7c 44 47 3e f0 8f f1 3d f0 63 0a 3d
       0.13316484 0.19459718 0.11795032 0.033786714
000030 b7 af 0a 3e 40 4e 24 3e ba 6f db bd 1d 1d 8e be
       0.13543592 0.16045475 -0.107146695 -0.27756587
000040 95 b3 a1 3d 91 c3 93 3d 5b 8d b7 3d 33 84 8f 3d
       0.07895581 0.07215036 0.08962508 0.07007637
000050 9c 2e 8a 3e 2f 2f 07 bd 72 e1 ea 3e 09 7b 39 3e
       0.26988685 -0.033003982 0.45875126 0.1811334
000060 91 ef cb 3d bf 89 0d 3d 4d 72 bb 3d 4d e7 09 3e
       0.09957803 0.034555193 0.091526605 0.1346714
000070 6d 1f ba 3e 3b 68 28 be de 21 f1 3d 0d 5c a9 3e
       0.363521 -0.16446011 0.11774038 0.33078042

weight f4 [32, 64]
000000 9a a2 4e 3e 39 91 94 3d 0b c0 d6 bc 33 23 fc 3c
       0.20179215 0.072542615 -0.02621462 0.030778503
000010 1c c9 0e 3e 3c 1e 19 3e c4 7b d0 3a 71 92 a8 bc
       0.13943905 0.1495294 0.0015906026 -0.020577641
000020 36 77 08 be 17 e9 6f 3e fb 47 e2 3d 10 1c d9 bd
       -0.13326725 0.2342876 0.110488854 -0.106010556
000030 23 87 96 bd e1 6c cc bd fb a5 de 3c c3 b9 f3 bd
       -0.07349994 -0.099817045 0.027178755 -0.119006656
000040 69 65 43 be c6 9f c3 bd cb ec e0 bc 3e d3 41 bd
       -0.19081654 -0.09551959 -0.027456662 -0.047320597
000050 56 f4 f5 3d 96 0a 6a 3e 82 7d 67 3b d3 b5 2f 3d
       0.12009494 0.228556 0.0035322611 0.04289801
000060 77 82 fb bc 94 b6 0d bd 14 ec 4d be 60 89 62 3d
       -0.030701859 -0.03459795 -0.20109588 0.055306792
000070 eb 33 09 3e ed 98 02 3e 6e eb 05 3e b8 4b ba 3d
       0.13398711 0.12753649 0.1307809 0.090964735
000080 92 d6 68 bc c3 bf 94 bc a0 5b d1 3d bb d5 f1 3a
       -0.014211314 -0.018157845 0.10222554 0.0018450537
000090 25 0b 8a bb 1f e4 80 3e 49 dc f5 bc a1 76 d5 3d
       -0.0042127543 0.25174043 -0.030012267 0.10423017
0000a0 4d 66 00 bd 0e 3c 48 3d 32 ca 2b be 27 cc 20 be
       -0.03134756 0.048885398 -0.1677635 -0.15702878
0000b0 0a b4 ff 3d 7f 3c 04 be ee b0 9a bc 38 33 be 3d
       0.124855116 -0.12913702 -0.018883195 0.09287113
0000c0 6c e4 9b 3d d4 5f 67 3d e1 bf 4f 3c 1c f3 50 3d
       0.076119274 0.056487873 0.012680025 0.051013097
0000d0 c2 e0 fe 3d 8b 14 96 bd 7b 0b 14 bd dc 96 bf bc
       0.12445213 -0.07328137 -0.03614376 -0.023387365
0000e0 ea 83 2b bd fa 9f 27 bc 31 a6 e9 3c 28 1e 0f 3d
       -0.04187385 -0.0102310125 0.028521629 0.03494087
0000f0 6e 19 9b 3d cc 43 52 be c8 90 c4 3d 41 9b 71 bd
       0.0757321 -0.20533675 0.09597927 -0.058985952
000100 fa 8a ab 3c 0b 0f 07 bd de 93 0b bb 77 9c 22 3d
       0.020940293 -0.03297333 -0.0021297853 0.039699998
000110 92 ab 08 3d 44 98 20 3e de fb 95 3d fa c1 a5 3e
       0.033366747 0.15683085 0.073234305 0.32374555
000120 c2 d3 8f 3d 41 1c 14 3e 81 d9 b2 bd 8c 57 8d bd
       0.070228115 0.14463903 -0.08732892 -0.06901464
000130 de 37 8e bd e8 b7 c8 bd a4 74 1f bd 88 5c ac bd
       -0.069442496 -0.09800702 -0.038929597 -0.084160864
000140 d2 5a 59 be 73 34 ce bd 2d 4d f1 3d aa 56 95 bd
       -0.21226051 -0.10068598 0.11782298 -0.072919205
000150 37 59 df 3d ec 84 6c bd 61 2b e4 bc e5 97 0b 3d
       0.10905688 -0.05774395 -0.027852716 0.034080405
000160 e9 0d 88 3d 5a 1f c0 3d 97 8d a4 3c ec 00 b4 bd
       0.06643278 0.0938098 0.020087047 -0.08789238
000170 ea 36 5c bb a0 d4 9c 3d 10 f2 38 3d b3 08 af bd
       -0.0033602067 0.076577425 0.045152724 -0.08546581
000180 3f 29 27 3d 12 d9 a2 bd 4f d7 25 3d 7f a3 cd 3d
       0.04081082 -0.07951559 0.040488537 0.1004095
000190 4a ef f2 bb 7f 4c 19 3e 8f c2 5e bd 2c e4 0c be
       -0.0074137794 0.14970587 -0.054384764 -0.13758916
0001a0 d6 e0 48 3c b1 71 11 be cc 70 c6 3b 6e 54 1e 3d
       0.012260636 -0.14203526 0.006055927 0.038654737
0001b0 37 bd 9c 3a b6 21 84 be ee 78 27 3d c8 1d cb bd
       0.0011958246 -0.2580697 0.040886812 -0.0991779
0001c0 a8 ed 2a 3e 1b 16 fd 3d d4 59 43 3e 86 84 3d 3d
       0.16692221 0.12357732 0.19077235 0.046268962
0001d0 ae c6 91 bd 3d 36 d4 3d 6a 8f 94 3d 4e 85 ab bd
       -0.07117973 0.10361908 0.072539166 -0.08375035
0001e0 e0 14 3c be 29 1b 0e be e8 e3 3b 3e fe c5 85 bd
       -0.18367338 -0.13877548 0.18348658 -0.06531905
0001f0 fb 70 b7 bc f6 9e 94 bd b1 74 1d 3d 9e 23 5d bd
       -0.02239274 -0.07256882 0.038441364 -0.053989045
000200 53 6b 5f be 0f e9 6d 3d 2f 3e 1f 3e 40 cc 97 3d
       -0.21818285 0.05808359 0.15551065 0.074120045
000210 2f c4 6f bc 5c cf 7f 3a 0f 9f 9d 3d 6c 70 36 3e
       -0.014634176 0.0009758377 0.07696354 0.17816323
000220 99 5e 4e 3c d8 20 f6 bd 68 b7 a3 3c ae 11 0f 3d
       0.012595796 -0.12017983 0.019984916 0.03492897
000230 3e 6c 2e 3e 59 22 0a 3e 04 41 d2 3d d5 f6 db bc
       0.17033479 0.13489665 0.10266307 -0.026851097
000240 72 5f 44 bc c2 d6 d2 be 11 ed 12 3e 00 57 95 3b
       -0.011985647 -0.41179472 0.14348246 0.0045574903
000250 bb 94 d1 bd 85 f2 9b be fc ff a2 bd f1 c0 1f 3d
       -0.10233446 -0.30458465 -0.079589814 0.039002363
000260 64 1e 13 3d 8e 37 c2 3c be d3 38 3c 3d 7c 38 3d
       0.035917655 0.023708131 0.011280952 0.045040358
000270 f0 51 1d bd 72 fe be 3d ac bc 14 3e 0c 78 86 bb
       -0.03840822 0.09325875 0.14525098 -0.004103666
000280 f2 f1 c4 3c d2 bf 8c 3d 9c a2 8d 3d 14 1f 98 3d
       0.02404115 0.06872524 0.06915781 0.07427803
000290 9d f2 db 3d e0 b5 78 bc 97 16 b2 bd 83 a1 e8 bd
       0.10739634 -0.015180081 -0.08695715 -0.11358931
0002a0 1d 40 2e be db b7 5c be e5 16 a2 bd d8 3e ce 3d
       -0.17016645 -0.2155451 -0.07914523 0.1007058
0002b0 1b a3 fb 3c 53 63 34 be 3a 8e 2a be c1 62 37 3e
       0.030717423 -0.17616014 -0.16655818 0.17908765
0002c0 f8 2c cc bd 15 de 84 bc 94 1f 52 3e c4 35 25 3e
       -0.099695146 -0.016219178 0.20519859 0.16133791
0002d0 5f ea 12 be 64 45 01 bd 4e 55 c2 3d 49 a8 d1 bd
       -0.14347218 -0.031560317 0.09488927 -0.10237176
0002e0 b4 17 f6 bd 48 ae f0 bc e1 8b 3a bd a6 22 db bd
       -0.1201624 -0.029379979 -0.045543555 -0.10699968
0002f0 72 7b 5c bd 80 82 c3 3d 60 27 09 3d 37 cb 59 be
       -0.053828664 0.09546375 0.033484817 -0.21268927
000300 7a 5b 9e bd ed 18 0b bd f3 2f 2a 3e 05 a3 69 bc
       -0.077322915 -0.033959318 0.16619854 -0.014260058
000310 ab 17 c1 3d 5a 7d 79 be 97 1f df 3d 39 c6 02 3e
       0.094283424 -0.24364224 0.10894697 0.12770928
000320 2d a3 c0 3d 89 fd 3b 3d f6 6b 13 3d 54 83 e9 3d
       0.09406123 0.045896087 0.03599163 0.11402002
000330 b4 16 5a be f3 28 f7 bd 0a 9c f5 3a e3 fb 53 3d
       -0.21297723 -0.12068357 0.001873852 0.05175389
000340 99 45 7a 3b 5d d5 38 bd 38 1e 58 bc 25 34 53 3d
       0.0038188456 -0.045125354 -0.013190798 0.0515634
000350 73 0e 8e 3d 32 fd 5c bd 78 3c 33 bd 17 d7 f7 3c
       0.0693635 -0.053952403 -0.04375884 0.03025393
000360 92 82 39 3d 5e f4 51 3d 08 12 94 bd e4 5f 9b 3d
       0.045290537 0.051258437 -0.07230002 0.07586649
000370 f0 ba 5c 3d e9 9c 2d 3e c6 ee ab 3c 5e 15 57 bb
       0.053889215 0.16954388 0.02098788 -0.0032819132
000380 30 c7 e5 3d e2 9f 70 3e 8c f7 18 bd 1f 3a 22 be
       0.112196326 0.2349849 -0.037345454 -0.15842484
000390 fb 11 2a 3d 58 6e 3a 3e d0 a2 e9 bd f3 dc d5 3c
       0.041521054 0.18206155 -0.11408007 0.026106333
0003a0 90 b0 cc 3d bb 41 3a 3e 04 d7 c4 bd 2f 45 c9 bd
       0.09994614 0.18189137 -0.096113235 -0.09827649
0003b0 bd 74 08 ba fc 45 0e bd e9 74 b6 bc 68 ca 2b 3e
       -0.00052053836 -0.03473471 -0.022272544 0.1677643
0003c0 01 85 ca 3d f0 21 4f 3c 86 15 b6 bd f3 27 79 3e
       0.0988865 0.012642369 -0.08890824 0.24331646
0003d0 5b 7d b7 bd c2 a1 98 be e2 f9 1c 3e 5b c6 65 bc
       -0.089594565 -0.2981091 0.15329698 -0.014024342
0003e0 09 d8 1b 3d 96 a6 1e be d4 99 80 bd cf d2 c3 bd
       0.038047824 -0.15493235 -0.062793404 -0.09561693
0003f0 5a 06 9b 3d 20 79 39 be ba 07 5e 3d b7 7d 04 3d
       0.07569571 -0.18112612 0.054206587 0.032346454

bias f4 [32]
000000 b4 50 01 3b 0d cc 62 3d e3 13 e3 3c 3d 6f 01 3e
       0.001973194 0.05537038 0.027719444 0.1264009
000010 3d 7b 70 be 80 73 f6 3c 82 6f 6c 3e e3 20 4b bc
       -0.23484512 0.030084372 0.23089412 -0.0123979775
000020 d5 6e d1 3d 35 de e2 3d 56 22 b3 bd 76 32 cd bd
       0.10226218 0.11077539 -0.087467834 -0.1001939
000030 c2 a5 ed 3c 2b 64 f9 3b 95 c7 1b be fe d2 22 3e
       0.029009704 0.007610818 -0.15212853 0.159008
000040 01 1f 15 be 58 39 71 bd d8 1c e1 b9 3b d7 25 be
       -0.14562608 -0.058892578 -0.00042936835 -0.16195385
000050 d2 72 3f 3d 4f 57 44 3d c1 1d 01 bd 8d f9 7a bd
       0.04674036 0.047934826 -0.031522516 -0.061273146
000060 aa f0 4c 3e 64 39 23 3b 7e b9 0f 3e 78 96 d6 bd
       0.20013681 0.0024906034 0.14035603 -0.104779184
000070 72 cf b4 bd c1 e1 db bc da e8 c4 3d 2d 2f 17 3e
       -0.088286296 -0.026841046 0.096147254 0.1476409
